My-Siren/result/image_fit/sigmoid/model_final.pth (torch, 796935 bytes, 9 tensors)

first_layer.linear.weight f4 [256, 2]
1.931688 -5.071245 -2.3975792 0.69179577 -1.5381391 0.39273986 1.6926873 0.353926
-0.5200435 1.8299268 1.5095606 1.4891012 -1.0373975 1.4502635 -1.6505873 -2.1784327
2.2577317 1.52934 -1.5414946 0.086200476 -2.5344274 1.2512019 1.7333329 -1.2711473
-1.3823514 1.0490152 -2.2024727 -0.69826025 0.75869846 -2.24259 -0.6259377 -4.497221
0.67677706 4.056097 0.5449556 2.4575913 2.427323 1.1449144 -1.945344 1.5711218
0.47091034 3.5719974 -2.7986813 1.6933467 -2.7839875 0.9780567 2.0505664 -1.9244883
-0.4052148 -4.8984013 -3.055761 -0.07353982 1.9175665 1.041176 0.8806355 2.148163
-2.9161003 0.5802209 1.6478537 0.16396752 0.757183 -7.213525 -0.48084086 -5.1062746
4.207403 -2.2597609 -2.4519503 -0.0034952175 0.9563709 -3.1618762 2.1208718 -0.7071841
0.5096335 2.1467 0.9829613 1.119469 1.8320088 0.4214674 1.6460413 0.67519605
0.47046998 -1.8877288 2.3385618 -2.2753382 1.6353585 1.6614178 -2.404705 1.9782329
-2.0803475 -5.260969 -2.1133156 0.28058496 0.9826857 -4.9255433 -0.25279254 2.0904946
-5.617891 -2.9516213 1.7711052 0.007595639 -1.0994381 -2.9655807 -0.83938235 1.6220417
2.3998847 -0.3669325 -2.2088037 -0.6596944 -0.6874395 -4.0355716 0.5349781 -1.9762444
1.9449112 2.1197517 0.22564949 -1.9189602 1.6009805 1.2704035 -0.4956027 -4.348522
0.7359736 3.4432912 2.783796 0.86034995 -0.46644542 3.3368678 -1.8135519 1.40741
1.3879049 0.46405053 3.3812566 -1.8993919 -1.0263987 -2.010566 -0.9275034 1.8825153
0.5295447 -2.0618105 -2.2409961 0.51993567 -2.0117521 -0.45645303 -1.3470792 -4.9043727
0.85124975 2.2635944 2.6414986 1.2832346 1.773462 -1.802581 0.3420638 -1.558373
1.0961858 1.7964879 1.5732527 0.076442145 -0.34466767 1.8675562 1.7713323 0.36987355
-1.0914357 1.8245074 -0.98028904 -4.902196 2.2544982 0.46351734 -0.8869729 -3.008144
2.4087563 -0.37280652 0.8355541 2.1233304 0.76146775 2.2971709 -0.42485705 -2.0575993
-1.9089955 0.17104934 2.8714857 0.4091674 0.28769296 1.6902845 0.2255985 2.1009293
-2.8802562 0.15037681 -2.2444096 2.9070275 1.9283842 -1.4030149 -1.9335054 1.1933228
-1.835605 -0.610209 0.77081984 1.6546662 1.2723105 -5.2052736 -2.5835462 0.40273082
-2.1264246 -0.97718257 2.8300579 0.8328008 1.8383306 1.0180875 1.8800389 -7.409009
-2.0076127 1.1252664 0.9978532 1.7839181 -0.5834386 -2.8546607 0.78916025 3.2971613
0.26466447 -2.077885 -1.3267007 -1.7002565 1.3771999 1.2899462 -4.249455 -2.268896
-2.8507714 -0.14172752 -1.9922243 0.3859017 0.17891324 3.4951544 -0.6945982 1.0722612
-1.6696553 -2.643518 3.031674 1.273795 -2.1556656 -0.31877926 -3.1882014 0.18296953
1.0721941 1.01921 -1.2284752 1.5014639 -1.110214 -2.9772358 1.7245964 1.2719887
-0.5984707 -3.3615131 -2.693934 -0.374585 -1.0675669 -1.6398891 -1.8015188 3.2977762
00000000: 8d41 f73f a447 a2c0 f071 19c0 8719 313f
00000010: bee1 c4bf 3315 c93e faa9 d83f ca35 b53e
00000020: 9221 05bf 0b3b ea3f 4839 c13f de9a be3f
00000030: 71c9 84bf 3ca2 b93f 7246 d3bf 716b 0bc0
00000040: ad7e 1040 6ac1 c33f b24f c5bf e089 b03d
00000050: 0f34 22c0 6227 a03f dadd dd3f f4b4 a2bf
00000060: e4f0 b0bf 2146 863f 50f5 0cc0 2fc1 32bf
00000070: 103a 423f 9886 0fc0 743d 20bf 3ce9 8fc0
00000080: 4341 2d3f 8ccb 8140 3682 0b3f 2d49 1d40
00000090: 4359 1b40 8e8c 923f 0801 f9bf 851a c93f
000000a0: 291b f13e 9b9b 6440 981d 33c0 96bf d83f
000000b0: da2c 32c0 ed61 7a3f 7b3c 0340 a255 f6bf
000000c0: 5078 cfbe b4bf 9cc0 9791 43c0 0c9c 96bd
000000d0: d272 f53f 4145 853f 5471 613f 817b 0940
000000e0: 63a1 3ac0 5b89 143f dfec d23f 1ae7 273e
000000f0: bfd6 413f 32d5 e6c0 c630 f6be 9a66 a3c0
00000100: 0ca3 8640 ec9f 10c0 c1ec 1cc0 0510 65bb
00000110: b9d4 743f 2e5c 4ac0 5dbc 0740 040a 35bf
00000120: 5777 023f 8863 0940 5aa3 7b3f c34a 8f3f
00000130: 447f ea3f 93ca d73e 7bb1 d23f a6d9 2c3f
00000140: 71e1 f03e 19a1 f1bf ffaa 1540 249f 11c0
00000150: 6d53 d13f 57a9 d43f b0e6 19c0 bc36 fd3f
00000160: 6a24 05c0 dc59 a8c0 9040 07c0 d5a8 8f3e
00000170: 4a91 7b3f 0d9e 9dc0 066e 81be aaca 0540
00000180: c3c5 b3c0 5de7 3cc0 93b3 e23f d7e4 f83b
00000190: 63ba 8cbf 13cc 3dc0 c3e1 56bf 109f cf3f
000001a0: b697 1940 94de bbbe 0a5d 0dc0 bbe1 28bf
000001b0: 09fc 2fbf 6723 81c0 53f4 083f 94f5 fcbf
000001c0: daf2 f83f 03aa 0740 a910 673e 7da0 f5bf
000001d0: eeec cc3f 959c a23f a3bf fdbe 1827 8bc0
000001e0: c468 3c3f e25e 5c40 b729 3240 e53f 5c3f
000001f0: efd1 eebe 3e8f 5540 7822 e8bf 0326 b43f
00000200: dea6 b13f 0898 ed3e 8266 5840 461f f3bf
00000210: 0861 83bf 1dad 00c0 dd70 6dbf 43f6 f03f
00000220: 3e90 073f b4f4 03c0 7b6c 0fc0 811a 053f
00000230: 8cc0 00c0 36b4 e9be 176d acbf 9ff0 9cc0
00000240: 81eb 593f bbde 1040 500e 2940 0841 a43f
00000250: ce00 e33f f9ba e6bf fd22 af3e c478 c7bf
00000260: d14f 8c3f 51f3 e53f 5860 c93f b38d 9c3d
00000270: 4878 b0be 150c ef3f 04bb e23f 1160 bd3e
00000280: 2ab4 8bbf 7589 e93f 39f4 7abf cade 9cc0
00000290: b349 1040 2552 ed3e a810 63bf 6e85 40c0
000002a0: 1029 1a40 7fe0 bebe e0e6 553f a5e4 0740
000002b0: 8def 423f d904 1340 dd86 d9be b5af 03c0
000002c0: f759 f4bf 8f27 2f3e 6cc6 3740 647e d13e
000002d0: 7e4c 933e 3e5b d83f 4b03 673e a075 0640
000002e0: 1e56 38c0 61fc 193e 68a4 0fc0 bd0c 3a40
000002f0: 4bd5 f63f fe95 b3bf 1b7d f7bf cdbe 983f
00000300: 1bf5 eabf a836 1cbf 7354 453f 1acc d33f
00000310: 12db a23f 9a91 a6c0 d258 25c0 bc32 ce3e
00000320: 5717 08c0 a328 7abf ab1f 3540 6f32 553f
00000330: 6b4e eb3f b150 823f 1da5 f03f 9a16 edc0
00000340: ba7c 00c0 bb08 903f 4f73 7f3f 6e57 e43f
00000350: 3b5c 15bf c3b2 36c0 6806 4a3f b104 5340
00000360: 1a82 873e 11fc 04c0 54d1 a9bf 01a2 d9bf
00000370: 1648 b03f f51c a53f 89fb 87c0 9835 11c0
00000380: 0a73 36c0 0521 11be 3501 ffbf e894 c53e
00000390: 0835 373e 9cb0 5f40 30d1 31bf db3f 893f
000003a0: 44b7 d5bf 662f 29c0 f206 4240 b70b a33f
000003b0: 6df6 09c0 0937 a3be 7e0b 4cc0 5d5c 3b3e
000003c0: a83d 893f 7975 823f ad3e 9dbf f82f c03f
000003d0: 7e1b 8ebf 088b 3ec0 93bf dc3f 87d0 a23f
000003e0: 6035 19bf 0823 57c0 6a69 2cc0 9bc9 bfbe
000003f0: 08a6 88bf e3e7 d1bf 2b98 e6bf c40e 5340

first_layer.linear.bias f4 [256]
1.0883582 0.42509514 0.2160269 0.9296087 0.7256829 0.75939447 0.6679346 -0.38514578
1.4975903 0.032701172 0.8317497 0.7230361 0.6982837 -0.27760112 -0.06854083 -0.114783764
-0.3814539 -0.30156374 0.54542994 -0.8860409 -0.12934738 1.605251 0.7817886 -1.3268903
-0.039191663 0.037651826 0.5782842 0.7797311 -0.75439453 0.59973985 0.84089166 -0.06290606
0.31358272 -0.54633766 0.1761618 -0.13111098 1.1003805 0.012923931 0.15206763 0.29135922
-0.4426779 -1.5422794 0.83768934 1.5860494 -0.48945028 -0.5144393 0.4309802 0.82797647
-0.6791442 0.9024826 -0.1737274 1.4588165 0.19893205 0.05896599 -0.1935233 -0.68199676
1.4295135 0.19467588 0.5639667 0.06966799 0.23578446 0.79030913 -0.17312081 1.1036484
0.24754952 1.8713105 -0.459631 0.6220358 -0.4012128 -0.6716614 -0.5174646 -0.18811762
0.6994538 0.34671476 -1.66524 -0.44807374 0.8323395 0.8069782 0.20550674 0.46022996
1.1240964 -0.013726658 0.11045209 0.22248709 1.1642134 0.5773114 1.1663411 -0.5309272
-0.49119234 0.7622005 0.6329457 0.30107465 0.4768562 -0.8036433 0.3834552 -0.259643
-1.0044401 0.42591056 0.6422497 -0.4891624 -0.6694578 0.18941115 0.5359698 1.3510847
-0.7427764 0.5427498 0.008741178 0.6680684 -0.92615616 -0.27732593 0.6558231 -0.3060951
-0.4037478 0.39957935 -0.10248811 0.64741594 -1.3060328 0.31955254 0.028641745 -0.44638363
0.22118722 -0.26728812 0.084325284 0.75303197 -0.18528825 -0.27742106 -0.45694226 -0.9667412
0.5444204 1.0067954 0.86576134 0.09337448 -0.7365928 0.32708213 0.18526234 0.25181302
0.8300087 1.091992 0.97464263 -0.91390103 0.51977694 0.5820289 1.1419715 0.124335974
0.4287989 0.5052466 0.9008425 0.07786998 -0.60682815 0.046584126 -0.14649756 -0.3351261
-0.5390085 -0.30932158 -0.2117164 -0.3472852 0.6246958 -0.029410139 0.5454041 -0.66343343
0.44232005 -0.48857147 0.32022712 0.5703911 0.23511595 0.51804143 -0.6823571 -0.15556042
0.5569615 0.20204481 0.07420585 -0.14603978 -0.052068178 0.4162742 0.6277104 0.24333037
-1.2579504 0.26839364 0.88203996 0.5164888 0.043084133 -0.74981105 0.8728284 -0.0012722193
-0.44635424 -0.42304584 0.5313437 1.5042213 -0.37796244 -0.47852623 0.04859956 0.24121964
0.51191574 0.9380707 0.66603315 1.5928879 0.23712039 -0.037758097 -0.33622843 0.463077
-0.35564804 -1.1144129 0.7374018 -1.8847555 -0.19046907 0.27616283 0.66450083 0.7448641
-0.9088022 0.72010016 -0.21267214 -0.5759745 -0.488338 0.48034328 -0.14398928 0.8263866
0.59584904 0.381468 -1.0729152 0.49628407 0.5663522 -0.32255003 0.21762036 0.9675133
0.08894932 -0.125482 1.3433133 -0.8204188 0.9830485 -0.023196043 0.6096825 0.32556298
0.513248 1.754842 0.7390866 0.17035459 1.0158409 -0.07651813 1.3235962 0.557336
0.28765053 0.58928806 0.40207407 -0.063745916 -0.07178027 -0.26372507 0.49844235 0.8519888
-0.080893695 0.18790494 0.4241783 -0.5777183 -0.13674872 0.26226515 -0.7148871 0.5948658
00000000: 524f 8b3f 12a6 d93e 2836 5d3e d6fa 6d3f
00000010: 5bc6 393f ad67 423f c3fd 2a3f d431 c5be
00000020: 0ab1 bf3f aaf1 053d 8ced 543f e518 393f
00000030: b8c2 323f bc21 8ebe 225f 8cbd c013 ebbd
00000040: ed4d c3be 9066 9abe 4ca1 0b3f 94d3 62bf
00000050: a473 04be dd78 cd3f 4c23 483f 8bd7 a9bf
00000060: 7087 20bd cd38 1a3d 6f0a 143f 759c 473f
00000070: 0020 41bf 8d88 193f ad44 573f e4d4 80bd
00000080: ea8d a03e c9dc 0bbf c263 343e f541 06be
00000090: 45d9 8c3f e5be 533c 9eb7 1b3e 092d 953e
000000a0: ada6 e2be 6969 c5bf cf72 563f ab03 cb3f
000000b0: 3a99 fabe 4bb2 03bf 70a9 dc3e 44f6 533f
000000c0: 65dc 2dbf 1a09 673f 98e5 31be 80ba ba3f
000000d0: d8b4 4b3e 5286 713d f92a 46be 5797 2ebf
000000e0: 4cfa b63f 1d59 473e 1f60 103f 17ae 8e3d
000000f0: 7b71 713e b351 4a3f 9546 31be 5a44 8d3f
00000100: 9f7d 7d3e 1a87 ef3f c154 ebbe bd3d 1f3f
00000110: c46b cdbe 00f2 2bbf 8f78 04bf e8a1 40be
00000120: 670f 333f 9984 b13e 9626 d5bf ec69 e5be
00000130: 3414 553f 2096 4e3f 5c70 523e 43a3 eb3e
00000140: 64e2 8f3f c7e5 60bc b534 e23d a8d3 633e
00000150: f204 953f aeca 133f aa4a 953f d8ea 07bf
00000160: 907d fbbe 921f 433f bb08 223f 7526 9a3e
00000170: 7f26 f43e 91bb 4dbf 3d54 c43e edef 84be
00000180: 7e91 80bf f310 da3e 7a6a 243f 7e73 fabe
00000190: 9661 2bbf fff4 413e 5135 093f 58f0 ac3f
000001a0: 9826 3ebf a7f1 0a3f 2837 0f3c 8806 2b3f
000001b0: 9218 6dbf aafd 8dbe 06e4 273f 7fb8 9cbe
000001c0: 08b8 cebe aa95 cc3e 49e5 d1bd 0dbd 253f
000001d0: 152c a7bf 649c a33e 18a2 ea3c 658c e4be
000001e0: e77e 623e fdd9 88be bcb2 ac3d b4c6 403f
000001f0: 34bc 3dbe 220a 8ebe 56f4 e9be 5a7c 77bf
00000200: 235f 0b3f acde 803f 89a2 5d3f 1f3b bf3d
00000210: 5991 3cbf 4f77 a73e 69b5 3d3e a3ed 803e
00000220: 737b 543f 65c6 8b3f 2e82 793f 6bf5 69bf
00000230: 1a10 053f d9ff 143f 1f2c 923f dca3 fe3d
00000240: 888b db3e d757 013f 9d9d 663f 4c7a 9f3d
00000250: 1759 1bbf ffce 3e3d 7503 16be a695 abbe
00000260: 76fc 09bf 665f 9ebe 2fcc 58be 5ecf b1be
00000270: 10ec 1f3f 88ed f0bc 9a9f 0b3f c6d6 29bf
00000280: c677 e23e 0a26 fabe cff4 a33e 2705 123f
00000290: 3cc2 703e 5d9e 043f f4ae 2ebf 3b4b 1fbe
000002a0: 0795 0e3f d6e4 4e3e 3df9 973d 748b 15be
000002b0: 7145 55bd e421 d53e a1b1 203f 992b 793e
000002c0: 8504 a1bf e46a 893e 5fcd 613f 9c38 043f
000002d0: fd78 303d 9ef3 3fbf af71 5f3f 99c0 a6ba
000002e0: 8b88 e4be 7799 d8be 2406 083f 538a c03f
000002f0: 4b84 c1be 6401 f5be 5510 473d 4802 773e
00000300: e90c 033f 6725 703f 2681 2a3f c0e3 cb3f
00000310: b0cf 723e 3ca8 1abd 2226 acbe 6e18 ed3e
00000320: 8017 b6be 15a5 8ebf 5dc6 3c3f ab3f f1bf
00000330: 530a 43be 3765 8d3e ba1c 2a3f 6aaf 3e3f
00000340: 43a7 68bf 7c58 383f bac6 59be 1173 13bf
00000350: 7007 fabe 8eef f53e ed71 13be 128e 533f
00000360: 9089 183f c64f c33e 4955 89bf f218 fe3e
00000370: 75fc 103f 4725 a5be dfd7 5e3e f4ae 773f
00000380: 102b b63d 5a7e 00be b1f1 ab3f f706 52bf
00000390: 11a9 7b3f a105 bebc 2714 1c3f 31b0 a63e
000003a0: 3964 033f aa9e e03f c834 3d3f 6f71 2e3e
000003b0: 1307 823f 8ab5 9cbd 9a6b a93f 92ad 0e3f
000003c0: ee46 933e 95db 163f a7dc cd3e 388d 82bd
000003d0: 8901 93bd f906 87be d633 ff3e f01b 5a3f
000003e0: 98ab a5bd 276a 403e e62d d93e 59e5 13bf
000003f0: db07 0cbe 9e47 863e d702 37bf 2049 183f

hidden_layers.0.linear.weight f4 [256, 256]
0.018351693 -0.04162857 -0.12737493 0.11317836 0.07240724 0.019409442 0.0399181 0.023936596
0.12947345 -0.0553682 -0.14744896 0.0544624 -0.017007044 -0.12685509 0.02537617 0.055694792
0.034115214 0.021835493 0.034619626 -0.111443035 -0.063944176 -0.014550621 -0.05347823 0.035959385
0.034633752 -0.054925278 -0.04508732 -0.01987908 -0.11371416 -0.012220064 0.009384431 0.047966894
0.03592269 -0.207629 0.10869169 -0.004209258 -0.017776994 -0.065482855 0.016765904 0.0033420986
0.035848353 -0.054683633 -0.022586476 0.023653364 0.040836595 -0.10318603 0.048612762 -5.8546906e-05
-0.04195551 0.10345856 0.07057411 -0.06781694 -0.04920646 0.012805141 -0.075836524 0.07967535
0.03970319 -0.14449735 0.107119 0.09699656 -0.10420849 -0.0050627794 -0.022224301 -0.030303098
0.01945587 0.0034737468 -0.108050294 0.030695448 -0.055698514 -0.1428829 -0.07057389 0.061060756
-0.043437753 0.09493162 0.0004854318 0.028598228 -0.0043445677 -0.042322047 0.009346321 0.09061698
-0.058365643 -0.020479167 0.06381087 0.04786789 0.15596263 0.0594812 -0.018103667 0.008458244
0.04068763 0.09434215 0.030097008 0.061415713 0.04241459 -0.1415751 0.1127368 -0.08716526
-0.033880696 -0.061539628 0.024855323 -0.10506954 -0.018562384 0.08989388 0.09949965 0.09908582
-0.11948297 0.07033259 0.04382848 -0.028184252 0.021200608 0.00076537044 -0.014633737 -0.016593913
-0.14899826 -0.056004368 -0.0024399885 0.08203136 0.08083651 0.10158267 0.020730799 -0.19706663
-0.023574354 0.0029018235 -0.14044805 0.102858745 0.073208004 -0.16553709 -0.063892215 -0.12354371
0.024703838 0.029342126 0.037612464 0.23582079 -0.14353319 -0.057524007 -0.021032808 0.07621629
0.113858566 0.0034575977 0.042102564 0.0068991403 0.04676644 -0.12784223 -0.14907977 0.0134842945
-0.04994772 0.030773193 0.0149595905 0.08387334 -0.0940152 0.016261593 0.014290546 -0.100081526
0.04101526 0.11501726 0.07782195 0.011879304 0.003975254 0.00044800932 0.10174273 -0.100030035
-0.17284086 -0.1419632 0.08770821 0.165071 -0.03873876 0.20810294 -0.018334556 0.023212548
0.10656714 -0.028660724 -0.02358737 0.2393196 -0.0903072 0.101619296 0.22075094 0.042858683
0.044110116 0.078909084 0.042235773 -0.025249135 -0.14437088 -0.05005164 0.0008388042 0.04350004
-0.04673907 0.1639644 0.004616787 -0.13546593 -0.22852612 0.13192186 0.13023463 -0.041730605
-0.0075297076 0.09821343 0.05690029 0.041065626 -0.11062948 -0.04994045 -0.16937357 0.14791521
0.030861532 0.053913146 0.08446024 0.04281823 -0.15434188 0.0135717075 0.010953939 0.08511589
0.15814853 -0.060527172 -0.011115242 -0.11077986 0.06916807 0.06700374 -0.121444665 0.07779547
0.02574253 0.10944499 -0.11512482 -0.05328027 -0.02455889 0.22823097 -0.021677667 0.060008917
0.07325267 0.311196 0.049807087 -0.04997567 0.09513576 0.09995364 -0.0773823 -0.15647918
0.11075261 0.049598727 -0.06494905 -0.05586837 0.016614174 -0.12438004 0.022761105 0.09590305
0.087219246 -0.017183593 -0.13456972 0.063691005 -0.0062470124 -0.07544591 0.08347763 0.059831996
0.0013418972 0.09520641 0.071911275 0.06674976 -0.044499967 -0.015312227 -0.078483336 -0.043715544
00000000: 4a56 963c b882 2abd 936e 02be 0eca e73d
00000010: 3f4a 943d 8d00 9f3c 2981 233d ae16 c43c
00000020: b094 043e c4c9 62bd dcfc 16be f713 5f3d
00000030: 5b52 8bbc 4de6 01be b0e1 cf3c 3920 643d
00000040: 65bc 0b3d 59e0 b23c 4fcd 0d3d 3f3c e4bd
00000050: 2af5 82bd ba65 6ebc fd0b 5bbd 264a 133d
00000060: 1fdc 0d3d 54f9 60bd 7bad 38bd 74d9 a2bc
00000070: f8e2 e8bd aa36 48bc 28c1 193c ef78 443d
00000080: ac23 133d b29c 54be c099 de3d d1ed 89bb
00000090: 0fa1 91bc e01b 86bd a658 893c 1c07 5b3b
000000a0: b9d5 123d f2fb 5fbd 4607 b9bc b3c4 c13c
000000b0: 4644 273d 3353 d3bd 2d1e 473d 4390 75b8
000000c0: 8ad9 2bbd 15e2 d33d 2989 903d 9ce3 8abd
000000d0: b78c 49bd a7cc 513c 2e50 9bbd d42c a33d
000000e0: d09f 223d 1df7 13be 3561 db3d 22a6 c63d
000000f0: 436b d5bd ace5 a5bb bd0f b6bc 343e f8bc
00000100: eb61 9f3c cda7 633b 7949 ddbd 0575 fb3c
00000110: 2024 64bd e54f 12be 0b89 90bd d81a 7a3d
00000120: c9eb 31bd 826b c23d 8e81 fe39 d546 ea3c
00000130: e05c 8ebb e259 2dbd 5021 193c 6595 b93d
00000140: d010 6fbd edc3 a7bc 46af 823d 1f11 443d
00000150: abb4 1f3e 8fa2 733d 244e 94bc 7294 0a3c
00000160: 13a8 263d 7536 c13d 008e f63c 0b8f 7b3d
00000170: ecba 2d3d 10f9 10be 8de2 e63d b383 b2bd
00000180: 7cc6 0abd fa10 7cbd 649d cb3c b32e d7bd
00000190: 2410 98bc 481a b83d 79c6 cb3d 82ed ca3d
000001a0: 7db3 f4bd 880a 903d 7e85 333d a9e2 e6bc
000001b0: e6ac ad3c 24a3 483a 57c2 6fbc f5ef 87bc
000001c0: 0093 18be d664 65bd 37e8 1fbb 0f00 a83d
000001d0: 9d8d a53d 930a d03d a3d3 a93c d6cb 49be
000001e0: 011f c1bc 852c 3e3b 9dd1 0fbe 9ba7 d23d
000001f0: 14ee 953d 8e82 29be ecd9 82bd 7c04 fdbd
00000200: b45f ca3c e65e f03c 870f 1a3d 017b 713e
00000210: 5dfa 12be 4b9e 6bbd ff4c acbc 4917 9c3d
00000220: ae2e e93d dd98 623b bd73 2c3d 2f12 e23b
00000230: 2b8e 3f3d 13e9 02be 5ea8 18be 3bed 5c3c
00000240: fb95 4cbd 1018 fc3c 1219 753c c9c5 ab3d
00000250: 0b8b c0bd 0837 853c e522 6a3c 8bf7 ccbd
00000260: 9eff 273d 2b8e eb3d 1d61 9f3d 6aa1 423c
00000270: d942 823b cbe2 ea39 7e5e d03d 8cdc ccbd
00000280: 32fd 30be cd5e 11be 5da0 b33d 5f08 293e
00000290: 89ac 1ebd f018 553e 5a32 96bc 3e28 be3c
000002a0: df3f da3d e5c9 eabc 4d3a c1bc 3210 753e
000002b0: fbf2 b8bd c71d d03d 890c 623e 968c 2f3d
000002c0: cfac 343d 169b a13d 6bff 2c3d 46d7 cebc
000002d0: f6d5 13be f302 4dbd 32e3 5b3a 192d 323d
000002e0: 7871 3fbd 49e6 273e 6b48 973b 95b7 0abe
000002f0: c002 6abe 8616 073e 3a5c 053e b6ed 2abd
00000300: c4bb f6bb 1f24 c93d 4710 693d 6e34 283d
00000310: b591 e2bd 5b8e 4cbd 4470 2dbe 1677 173e
00000320: 53d1 fc3c 08d4 5c3d 7ef9 ac3d 2b62 2f3d
00000330: cc0b 1ebe de5b 5e3c 2678 333c 3d51 ae3d
00000340: b0f1 213e 57eb 77bd b41c 36bc 8de0 e2bd
00000350: fda7 8d3d 4239 893d fbb7 f8bd 3b53 9f3d
00000360: 00e2 d23c b224 e03d 90c6 ebbd 6a3c 5abd
00000370: ba2f c9bc 61b5 693e 5d95 b1bc e9cb 753d
00000380: 7f05 963d 1555 9f3e 8402 4c3d 4ab3 4cbd
00000390: 8ad6 c23d 7eb4 cc3d 9c7a 9ebd 143c 20be
000003a0: 44d2 e23d 0928 4b3d 0204 85bd 3bd6 64bd
000003b0: 731a 883c f6ba febd 7f75 ba3c d168 c43d
000003c0: 01a0 b23d 9bc4 8cbc a5cc 09be 6e70 823d
000003d0: bdb3 ccbb 6383 9abd 52f6 aa3d 6512 753d
000003e0: 99e2 af3a 94fb c23d 3846 933d 19b4 883d
000003f0: 9945 36bd 23e0 7abc dfbb a0bd 120f 33bd

hidden_layers.0.linear.bias f4 [256]
0.04606281 0.010179071 -0.015578834 -0.08252291 -0.06483816 0.07164851 -0.055480577 -0.07550076
-0.028013641 -0.054292295 -0.008645888 0.08117926 -0.022209391 -0.09159719 -0.019182676 -0.09422978
-0.056312684 -0.014018716 0.0036103511 -0.028785178 -0.023331035 0.0063697374 -0.054392613 -0.035065766
0.07727139 0.021993995 0.0306104 0.0031637682 0.026159372 -0.036846146 -0.033436794 0.049483962
-0.07568183 -0.07967159 -0.021046126 0.008665038 -0.049507093 0.015799042 -0.0075583323 -0.061504666
0.024376653 0.02018851 -0.027856715 -0.020223575 0.06707903 -0.050868955 0.00354832 0.030886868
-0.05641833 -0.07084202 0.00042840172 0.010678198 -0.019584397 0.0026679675 -0.026734574 -0.033620473
-0.018920137 -0.04074175 -0.02436299 -0.07469118 0.008946997 0.02193298 -0.010399062 -0.052866653
0.025023151 -0.059804868 -0.05193677 -0.04345065 -0.02818948 -0.05451536 -0.089586884 0.0041369554
-0.07269499 0.035568696 0.05257642 -0.034457617 0.0055010035 -0.027315162 -0.045964155 -0.049019873
0.07491899 -0.0473491 -0.0685635 0.02348466 0.00734863 0.030895874 0.033627927 0.018561482
-0.09970118 0.08624925 0.017777605 -0.04872786 -0.058095828 0.0238568 -0.017696371 -0.0832145
-0.07326515 0.033820856 0.02865658 -0.0064642034 -0.15206985 0.0033496954 0.040672198 0.035771824
0.043976247 0.025041217 -0.10365233 -0.044279907 -0.025264965 -0.03275231 0.037527412 -0.02217108
-0.06346753 -0.029756578 -0.03587476 0.013071188 0.020295683 0.059025854 -0.0305444 -0.052295085
0.020832323 0.0027893337 -0.05622747 -0.032374084 0.022821229 0.015601039 0.031012625 -0.07330303
-0.06453177 -0.054864712 -0.07202142 0.0017146181 -0.02687331 -0.20073362 0.022105886 0.022179514
-0.012859555 -0.020580094 0.036199115 -0.099864796 -0.079204515 0.03601463 0.006066443 0.091801666
0.0066388682 -0.010089254 -0.0029168036 -0.030758457 -0.007667121 0.04465776 -0.041081674 -0.07440509
-0.040615287 -0.08877983 0.015210691 -0.10992564 -0.089239195 -0.03332715 0.0021941273 0.0050565284
0.017092682 0.014453068 -0.07094236 0.04585695 -0.09989311 0.012377934 -0.05308185 -0.058836974
-0.025449414 0.027353616 -0.044167407 -0.02101159 -0.015789455 0.041541725 0.0010643493 -0.027894033
0.03926844 -0.011835898 0.018790562 -0.042265102 -0.039749466 0.01713778 0.0050475686 -0.05353493
-0.028911294 0.007304132 -0.071865804 -0.036875904 0.007633405 -0.013122147 -0.0043285275 -0.0011529474
-0.0021450012 -0.090341754 -0.018970862 0.021541279 0.072797604 -0.00885369 -0.094963625 -0.045276992
-0.057529792 -0.009079923 -0.036897786 -0.026465045 -0.04686202 -0.058769133 -0.039521348 -0.016137877
0.007473761 -0.02882752 0.033858377 -0.07535449 0.011064735 0.005485134 0.063064195 -0.027124964
-0.011452148 0.039488807 0.02638941 -0.13748243 0.11234877 -0.06081789 -0.035211705 -0.032400273
-0.0061160214 -0.087613784 -0.011239028 -0.07895376 0.01857138 -0.088513464 -0.06973979 0.030289369
-0.008433906 -0.025820188 0.04089963 -0.0797519 0.009558142 -0.048884347 -0.05041908 0.054861985
-0.047707215 -0.03140234 0.030559905 -0.012551087 0.047032323 0.07747024 -0.089236386 -0.02341196
0.03371593 -0.004791353 0.0018341646 -0.09761738 0.067780145 -0.006045953 0.021102082 -0.002220246
00000000: 5bac 3c3d 1ec6 263c 5e3e 7fbc c501 a9bd
00000010: dfc9 84bd 74bc 923d 9a3f 63bd 24a0 9abd
00000020: dd7c e5bc 9961 5ebd 7ca7 0dbc 5041 a63d
00000030: 78f0 b5bc 4f97 bbbd fd24 9dbc 8bfb c0bd
00000040: 21a8 66bd c2ae 65bc a49b 6c3b e5ce ebbc
00000050: ba20 bfbc 3bb9 d03b caca 5ebd 1fa1 0fbd
00000060: 7640 9e3d c02c b43c a9c2 fa3c 3957 4f3b
00000070: 2e4c d63c fceb 16bd 05f5 08bd b2af 4a3d
00000080: 13ff 9abd dc2a a3bd ed68 acbc cef7 0d3c
00000090: f3c7 4abd fe6c 813c e3ab f7bb 51ec 7bbd
000000a0: 8cb1 c73c 6062 a53c c433 e4bc e9ab a5bc
000000b0: bb60 893d f75b 50bd ee8a 683b 7506 fd3c
000000c0: e816 67bd 9f15 91bd 1b9b e039 9cf3 2e3c
000000d0: 756f a0bc 11d9 2e3b 7702 dbbc 9fb5 09bd
000000e0: 67fe 9abc d2e0 26bd e594 c7bc b0f7 98bd
000000f0: 6d96 123c cbac b33c d460 2abc b48a 58bd
00000100: 5afd cc3c f3f5 74bd a7bb 54bd 4ff9 31bd
00000110: a0ed e6bc 804b 5fbd 5479 b7bd 4c8f 873b
00000120: 1ce1 94bd 7bb0 113d 5f5a 573d 6e23 0dbd
00000130: c341 b43b 0cc4 dfbc e944 3cbd 10c9 48bd
00000140: 216f 993d 21f1 41bd 056b 8cbd e762 c03c
00000150: c7cc f03b 5819 fd3c 70bd 093d 400e 983c
00000160: 2230 ccbd 72a3 b03d 57a2 913c dd96 47bd
00000170: e4f5 6dbd 566f c33c fbf7 90bc 5d6c aabd
00000180: 0a0c 96bd bd87 0a3d 34c1 ea3c abd1 d3bb
00000190: 33b8 1bbe 9086 5b3b e497 263d 7a85 123d
000001a0: 7020 343d 3d23 cd3c ac47 d4bd d95e 35bd
000001b0: 79f8 cebc 4927 06bd 58b6 193d 20a0 b5bc
000001c0: 44fb 81bd 11c4 f3bc 6af1 12bd 8928 563c
000001d0: 2243 a63c 18c5 713d 4038 fabc 5f33 56bd
000001e0: 8ca8 aa3c 41cd 363b c74e 66bd b09a 04bd
000001f0: 96f3 ba3c 809b 7f3c 300e fe3c e61f 96bd
00000200: 3c29 84bd d2b9 60bd f77f 93bd 09bd e03a
00000210: 6a25 dcbc 1d8d 4dbe 6717 b53c d0b1 b53c
00000220: e2b0 52bc 9697 a8bc 8645 143d ea85 ccbd
00000230: fa35 a2bd 1484 133d 03c9 c63b 8302 bc3d
00000240: dd8a d93b 664d 25bc d827 3fbb 29f9 fbbc
00000250: 793c fbbb 0eeb 363d 4245 28bd b261 98bd
00000260: 375c 26bd 33d2 b5bd 4336 793c b220 e1bd
00000270: 0ac3 b6bd 0d82 08bd 59cb 0f3b 3cb1 a53b
00000280: f405 8c3c 90cc 6c3c 3a4a 91bd 7fd4 3b3d
00000290: c294 ccbd d1cc 4a3c 5b6c 59bd 0aff 70bd
000002a0: 4a7b d0bc b114 e03c e2e8 34bd 7f20 acbc
000002b0: e358 81bc a827 2a3d a381 8b3a 0782 e4bc
000002c0: f2d7 203d 5beb 41bc aaee 993c 2c1e 2dbd
000002d0: 56d0 22bd 8864 8c3c 1366 a53b 7147 5bbd
000002e0: 61d7 ecbc 8057 ef3b 612e 93bd 300b 17bd
000002f0: a421 fa3b 46fe 56bc 52d6 8dbb 7f1e 97ba
00000300: 2693 0cbb 1905 b9bd c868 9bbc 5677 b03c
00000310: e916 953d 110f 11bc 4a7c c2bd 5e74 39bd
00000320: 5ca4 6bbd f5c3 14bc 2222 17bd 39cd d8bc
00000330: 64f2 3fbd e7b7 70bd 23e1 21bd 9533 84bc
00000340: 74e6 f43b b127 ecbc 15af 0a3d 7453 9abd
00000350: dd48 353c a4bc b33b cd27 813d 2c35 debc
00000360: caa1 3bbc 04bf 213d 9b2e d83c 32c8 0cbe
00000370: 1d17 e63d 2e1c 79bd 263a 10bd 26b6 04bd
00000380: e868 c8bb db6e b3bd e623 38bc 82b2 a1bd
00000390: 0223 983c 8c46 b5bd bcd3 8ebd 6921 f83c
000003a0: 5e2e 0abc dc84 d3bc 5f86 273d f754 a3bd
000003b0: c199 1c3c f43a 48bd 3d84 4ebd f6b6 603d
000003c0: a468 43bd bd9f 00bd c458 fa3c 13a3 4dbc
000003d0: f7a4 403d b8a8 9e3d 91c1 b6bd 70ca bfbc
000003e0: b719 0a3d c800 9dbb 5a68 f03a 9feb c7bd
000003f0: 51d0 8a3d 211d c6bb 46de ac3c 8c81 11bb

hidden_layers.1.linear.weight f4 [256, 256]
0.03565447 -0.016772706 0.07626847 -0.06446595 0.008258472 0.07975667 -0.030142952 0.08152662
0.0057219146 -0.20709538 -0.06372253 -0.020400442 0.13115132 -0.0866556 0.08723045 0.11871461
0.023847323 -0.106010996 -0.10640784 0.02663233 -0.021572376 -0.11026738 -0.005210203 -0.071360625
-0.021139136 -0.099852495 -0.004416231 0.018864647 0.096775524 -0.044395097 0.05091147 -0.07133207
-0.08337068 0.0008115446 -0.049948324 -0.05345288 -0.048831366 -0.04671367 0.12747785 0.1360451
0.024905853 0.009090316 0.045208663 -0.19355427 0.037287682 0.050718654 0.06270075 -0.0125892265
-0.057076883 0.06408357 -0.009561087 0.1254787 -0.028986903 -0.04361878 0.022733439 0.019536166
-0.06426219 -0.13121058 -0.07499615 0.15936506 0.05373569 0.069269635 -0.013498735 0.15573926
-0.06673688 -0.04030313 0.014801633 0.049939588 -0.06359131 -0.029249078 -0.01114053 -0.018510167
-0.08032985 -0.068113185 0.007839241 0.075501755 0.0415868 -0.047163863 0.07197148 -0.07230649
-0.07365476 0.08804048 -0.05604095 -0.02315548 -0.079875685 -0.016322566 0.15135103 -0.027766194
-0.007185241 0.016086504 -0.17675735 -0.057094164 -0.2187548 0.071354605 -0.016092798 -0.1362791
0.008544667 -0.10724269 0.0587112 0.045134988 0.07368289 -0.33024767 0.0029622822 0.075742714
-0.16334973 0.040580925 0.13427351 -0.04377164 -0.12281278 -0.036366496 -0.096879624 -0.03214674
-0.009953792 -0.00082330103 -0.06403192 -0.105620876 -0.13068727 0.055401918 0.08046489 -0.06406178
-0.10884847 -0.06854246 -0.038419873 -0.023150759 -0.06747954 0.075949006 -0.024142848 0.07373092
-0.13766965 0.03559723 -0.0060890666 -0.30133176 0.1235487 -0.015397387 -0.08089614 -0.031019919
-0.11435834 -0.09495634 0.054371044 -0.04925454 -0.063436106 0.012721786 0.084078744 0.036261145
-0.045038983 -0.2183362 -0.08036918 -0.044355027 0.0079854885 -0.088821724 -0.033195246 0.06939154
-0.0050369026 -0.05331109 -0.047907863 -0.12419187 -0.16115892 -0.020227727 -0.11924905 -0.009886991
-0.0613576 0.12119394 -0.00010856482 -0.0778595 0.0053421035 0.012670748 -0.11281578 -0.115555055
-0.025976045 0.039274715 -0.0043275687 -0.06426668 0.03064722 -0.10568298 -0.023624003 0.12431552
-0.043710917 0.03545253 -0.071381874 0.032430705 -0.06452286 -0.1611985 -0.077860795 -0.10611817
-0.016225265 -0.11875793 -0.0034391643 -0.06514325 -0.11644102 -0.10922076 0.04263576 0.015443717
0.11481903 -0.03459509 0.015916863 -0.09806458 0.022681883 0.0039709155 -0.023144018 0.026099807
-0.0039251996 -0.011482299 -0.026022183 -0.0026004154 0.11075087 -0.10829283 -0.03460883 0.035723805
-0.011708046 -0.064756334 -0.17934284 0.019764576 -0.073987395 -0.01691801 -0.082276106 0.04918967
0.032603618 0.12997523 0.028556716 0.08567986 -0.09407108 -0.0065965597 0.0043563955 0.005269584
-0.09632462 -0.16492239 0.089705914 -0.11173741 -0.0493546 -0.011140287 0.014720798 -0.057051443
-0.09402471 -0.07616571 -0.055066586 0.029682398 -0.034494035 -0.037391696 0.0010563587 0.06507826
-0.092794165 0.028039617 0.026764926 -0.0081062615 0.058966767 -0.03619914 -0.005282313 0.0433529
-0.053223737 -0.20178263 -0.18869714 0.0017022678 -0.014690998 0.14115569 -0.14642894 -0.12943283
00000000: 6c0a 123d ea66 89bc a532 9c3d b906 84bd
00000010: 8b4e 073c 7757 a33d 5aee f6bc 6ef7 a63d
00000020: e67e bb3b d010 54be f580 82bd d41e a7bc
00000030: 884c 063e 7e78 b1bd e1a5 b23d a520 f33d
00000040: 765b c33c 4b1c d9bd 5bec d9bd 0b2c da3c
00000050: 8db8 b0bc ddd3 e1bd 5aba aabb 8525 92bd
00000060: fb2b adbc 777f ccbd 08b6 90bb 088a 9a3c
00000070: 3f32 c63d a2d7 35bd 8c88 503d 8c16 92bd
00000080: 3fbe aabd d6bd 543a 9d96 4cbd 68f1 5abd
00000090: 6603 48bd d556 3fbd 8e89 023e 684f 0b3e
000000a0: 5c07 cc3c 8cef 143c b82c 393d 1733 46be
000000b0: f8ba 183d 5dbe 4f3d 4069 803d 0b43 4ebc
000000c0: 73c9 69bd 3f3e 833d 1ba6 1cbc 7d7d 003e
000000d0: f175 edbc 9ba9 32bd 7a3b ba3c 4f0a a03c
000000e0: e59b 83bd 115c 06be 9597 99bd 9830 233e
000000f0: f419 5c3d 3ddd 8d3d cc29 5dbc 1d7a 1f3e
00000100: 58ad 88bd e514 25bd 8c82 723c 748d 4c3d
00000110: 293c 82bd c39b efbc c586 36bc a2a2 97bc
00000120: fa83 a4bd ed7e 8bbd 2970 003c aaa0 9a3d
00000130: ec56 2a3d e52e 41bd c965 933d 6d15 94bd
00000140: 4fd8 96bd 914e b43d 328b 65bd 90b0 bdbc
00000150: dd95 a3bd e7b6 85bc c4fb 1a3e ee75 e3bc
00000160: 2c72 ebbb d8c7 833c e1ff 34be 92db 69bd
00000170: 4201 60be 5d22 923d 0bd5 83bc c08c 0bbe
00000180: eefe 0b3c 0ea2 dbbd 287b 703d 77df 383d
00000190: 0ee7 963d 3916 a9be d922 423b ff1e 9b3d
000001a0: 2745 27be 2f38 263d ff7e 093e e449 33bd
000001b0: 4485 fbbd 09f5 14bd d368 c6bd 4dac 03bd
000001c0: 3b15 23bc ccd2 57ba 2b23 83bd c24f d8bd
000001d0: e2d2 05be 1fed 623d c7ca a43d d332 83bd
000001e0: f2eb debd fd5f 8cbd 285e 1dbd a9a6 bdbc
000001f0: b732 8abd 278b 9b3d 39c7 c5bc 3d00 973d
00000200: 46f9 0cbe 67ce 113d cb86 c7bb 2848 9abe
00000210: 1a07 fd3d 5245 7cbc e0ac a5bd 7c1d febc
00000220: b534 eabd 7878 c2bd 2cb4 5e3d 21bf 49bd
00000230: caea 81bd 0a6f 503c 7a31 ac3d 9186 143d
00000240: cc7a 38bd 8693 5fbe 9998 a4bd 9ead 35bd
00000250: 91d5 023c 2ae8 b5bd bdf7 07bd 271d 8e3d
00000260: 9a0c a5bb bb5c 5abd 093b 44bd 4f58 febd
00000270: d806 25be 9eb4 a5bc d938 f4bd 0cfd 21bc
00000280: 1b52 7bbd 8734 f83d 4bad e3b8 cd74 9fbd
00000290: d00c af3b f898 4f3c f60b e7bd 21a8 ecbd
000002a0: b7cb d4bc 86de 203d 47ce 8dbb 409e 83bd
000002b0: e10f fb3c 5170 d8bd 2087 c1bc 2399 fe3d
000002c0: 380a 33bd ac36 113d a930 92bd 0fd6 043d
000002d0: 9024 84bd 3811 25be 7b75 9fbd 7c54 d9bd
000002e0: d9ea 84bc 5c37 f3bd 9a63 61bb d369 85bd
000002f0: a178 eebd 22af dfbd d6a2 2e3d a507 7d3c
00000300: 3d26 eb3d 95b3 0dbd 1564 823c 15d6 c8bd
00000310: 5bcf b93c 741e 823b 8698 bdbc 43cf d53c
00000320: f69e 80bb 4120 3cbc 792c d5bc bb6b 2abb
00000330: 5ad1 e23d a2c8 ddbd fdc1 0dbd 2053 123d
00000340: 1bd3 3fbc f89e 84bd a6a5 37be 52e9 a13c
00000350: b486 97bd a397 8abc 6080 a8bd 1b7b 493d
00000360: 5f8b 053d 3a18 053e c6ef e93c ec78 af3d
00000370: 57a8 c0bd f427 d8bb 18c0 8e3b 79ac ac3b
00000380: d845 c5bd 6ae1 28be bcb7 b73d 95d6 e4bd
00000390: 0d28 4abd c085 36bc 802f 713c c6ae 69bd
000003a0: 0790 c0bd c5fc 9bbd 808d 61bd 8028 f33c
000003b0: 9e49 0dbd 0928 19bd 8475 8a3a c047 853d
000003c0: de0a bebd 57b3 e53c 1e42 db3c 20d0 04bc
000003d0: 2387 713d 8d45 14bd 4117 adbb cf92 313d
000003e0: 2201 5abd 1ba0 4ebe d339 41be a11e df3a
000003f0: 83b2 70bc 1e8b 103e 78f1 15be 0a8a 04be

hidden_layers.1.linear.bias f4 [256]
0.029805226 -0.06648574 -0.06560459 0.023973867 0.0070549655 -0.0655303 -0.030332567 0.02231792
0.0035089855 -0.01827626 0.029574841 -0.0034779483 0.008904962 0.022815727 -0.047739524 0.0105164545
-0.06402325 0.0128240185 0.033192202 -0.070397094 0.01817091 -0.022313865 -0.042530205 0.02391928
-0.0072826114 0.04244434 -0.0059456085 0.022597898 -0.027092416 -0.03595825 -0.042687476 -0.05363633
-0.06817822 0.025726525 0.036243614 -0.068987384 -0.008551904 0.02129159 -0.07840138 -0.08515743
0.023194235 -0.041586705 0.03529905 -0.016725373 -0.02695386 -0.07176543 0.00047867507 -0.008285885
-0.02347894 -0.06669194 -0.0729276 0.039449275 -0.0012148308 -0.09767459 0.035254247 0.018358095
-0.05634145 -0.026591683 0.0058584055 -0.009823107 -0.058177803 -0.05872951 -0.026185535 -0.028131364
-0.0016584719 -0.034270417 0.028357849 0.0132195 -0.017841594 -0.0075900974 -0.056201525 -0.052604627
-0.029678544 0.04139657 -0.028894765 -0.06542862 0.019830626 -0.05012601 -0.01388884 -0.07338285
0.03584245 0.028999468 0.047300402 0.012486165 0.01490936 0.0063312445 -0.019929286 -0.04006712
0.019751262 0.020709159 -0.0075012264 0.027390748 0.03237648 -0.014088145 -0.043040957 0.0062359683
-0.021275911 -0.0019273475 -0.0115591865 -0.04835308 0.002611069 -0.029760692 -0.06936705 0.032364484
-0.033909276 -0.0023401177 -0.05017136 0.042571105 0.040067878 -0.05791481 -0.0470525 -0.024303975
0.011431304 -0.07554537 0.04434628 -0.048976094 -0.017674394 -0.011997807 0.015635502 0.008053122
-0.037040114 0.022177335 -0.0137891965 -0.012574575 0.04306513 -0.022760652 -0.075756766 -0.026244804
-0.0055204877 -0.02701166 -0.038130995 -0.054159082 0.046982612 0.013912669 -0.073018506 0.023769544
-0.06641382 -0.0392769 -0.004257626 0.032415763 0.04268605 -0.076771155 -0.0133701805 -0.12901713
-0.0017604185 0.0123846205 -0.06570343 0.061554447 -0.028928267 0.013219009 -0.08907383 -0.07650838
-0.042521577 -0.035568405 0.025025653 -0.006491154 0.02474282 0.0050245496 -0.0643471 -0.02749927
0.020248521 0.01381137 -0.019706972 -0.032590795 -0.040394466 0.016384318 -0.032756533 -0.08150958
-0.0028660821 0.04595686 0.03398662 0.032766435 0.02054531 -0.038530182 -0.036638327 0.015817583
-0.059571642 -0.069565326 0.049482286 -0.035547044 0.028301159 -0.019766498 0.0049590645 -0.043257426
-0.011976028 -0.10071013 0.02575589 0.025771134 -0.063308105 0.0073658344 0.02516303 -0.015450112
-0.052139957 -0.008471279 -0.05097622 -0.04064407 -0.0077133845 0.042352233 -0.10276349 0.021539228
0.017647825 -0.07033655 -0.035806615 -0.048573412 -0.016747862 -0.023842534 -0.04306171 0.04822253
-0.0041771624 -0.014247871 0.01709055 0.03447245 0.0007358886 0.033782165 -0.0701268 -0.05401721
-0.030121483 -0.040748306 -0.041612837 -0.009610466 -0.036051773 0.00011482971 0.014857645 -0.064730085
0.0028336872 -0.02952053 -0.004637595 0.00013826601 0.026081413 -0.017786829 0.032139402 0.03893355
-0.01178385 0.002009382 -0.065547876 0.02496746 0.0125711495 0.0078792535 0.04771345 -0.049759988
-0.011588736 -0.021407658 -0.06679084 -0.073419556 -0.071468994 -0.060866706 0.05991751 0.04645357
-0.0129131405 -0.07427153 -0.023635216 0.020921929 -0.029122284 -0.049432505 0.014586172 -0.055348072
00000000: 172a f43c ad29 88bd b35b 86bd d864 c43c
00000010: 572d e73b c034 86bd 017c f8bc 12d4 b63c
00000020: 02f7 653b 18b8 95bc f046 f23c 4aee 63bb
00000030: 1ee6 113c 0ce8 ba3c 858a 43bd 354d 2c3c
00000040: 9f1e 83bd d51b 523c 8cf4 073d 5a2c 90bd
00000050: 29db 943c 91cb b6bc 2734 2ebd 5ef2 c33c
00000060: f9a2 eebb 1eda 2d3d 61d3 c2bb 3a1f b93c
00000070: eaf0 ddbc f548 13bd 10d9 2ebd c5b1 5bbd
00000080: 06a1 8bbd 6fc0 d23c 2f74 143d 4249 8dbd
00000090: 491d 0cbc b36b ae3c e790 a0bd 0567 aebd
000000a0: d601 be3c d256 2abd bd95 103d a603 89bc
000000b0: 57ce dcbc c1f9 92bd aef6 fa39 85c1 07bc
000000c0: e856 c0bc c995 88bd 115b 95bd 9095 213d
000000d0: f53a 9fba 9e09 c8bd c266 103d b763 963c
000000e0: 4bc6 66bd cdd6 d9bc def7 bf3b 19f1 20bc
000000f0: d94b 6ebd 5b8e 70bd 0c83 d6bc bf73 e6bc
00000100: 1561 d9ba 235f 0cbd b84e e83c 9a96 583c
00000110: 8928 92bc 5ab6 f8bb 9233 66bd f377 57bd
00000120: 6b20 f3bc 738f 293d b7b4 ecbc 71ff 85bd
00000130: d673 a23c ee50 4dbd 048e 63bc bf49 96bd
00000140: 88cf 123d 4b90 ed3c 11be 413d c692 4c3c
00000150: 6346 743c 5476 cf3b be42 a3bc 6c1d 24bd
00000160: 66cd a13c 41a6 a93c d9cc f5bb 9062 e03c
00000170: 339d 043d f7d1 66bc b74b 30bd 1857 cc3b
00000180: d24a aebc 0d9f fcba be62 3dbc e10d 46bd
00000190: 781e 2b3b b2cc f3bc 5010 8ebd 9f90 043d
000001a0: 74e4 0abd a95c 19bb 7c80 4dbd 0a5f 2e3d
000001b0: 371e 243d 1438 6dbd 1fba 40bd 2119 c7bc
000001c0: 5d4a 3b3c 88b7 9abd 72a4 353d 289b 48bd
000001d0: e4c9 90bc 7392 44bc 0616 803c 3ef1 033c
000001e0: 60b7 17bd 3ead b53c 15ec 61bc 9705 4ebc
000001f0: 1065 303d 8c74 babc 5d26 9bbd 58ff d6bc
00000200: 35e5 b4bb 8f47 ddbc 3f2f 1cbd ead5 5dbd
00000210: d770 403d f7f1 633c ba8a 95bd 59b8 c23c
00000220: f803 88bd d1e0 20bd 8e83 8bbb 64c6 043d
00000230: 91d7 2e3d 323a 9dbd 9a0e 5bbc 111d 04be
00000240: d8bd e6ba dde8 4a3c 858f 86bd 8420 7c3d
00000250: f9fa ecbc 8b94 583c 576c b6bd 6db0 9cbd
00000260: 1b2b 2ebd 2db0 11bd 9902 cd3c bfb3 d4bb
00000270: 74b1 ca3c faa4 a43b 6ac8 83bd 2646 e1bc
00000280: 3ae0 a53c 1649 623c 8470 a1bc ed7d 05bd
00000290: ab74 25bd 6838 863c b72b 06bd 7fee a6bd
000002a0: e1d4 3bbb 433d 3c3d 8e35 0b3d 1936 063d
000002b0: a34e a83c d3d1 1dbd 1212 16bd e093 813c
000002c0: 6501 74bd 4478 8ebd f0ad 4a3d c799 11bd
000002d0: d5d7 e73c 5aed a1bc a67f a23b b32e 31bd
000002e0: 1a37 44bc 1d41 cebd 04fe d23c fc1d d33c
000002f0: aea7 81bd 195d f13b b322 ce3c 7722 7dbc
00000300: b590 55bd 1fcb 0abc 71cc 50bd 657a 26bd
00000310: 8fc0 fcbb 8979 2d3d aa75 d2bd 0973 b03c
00000320: 2c92 903c 9c0c 90bd f5a9 12bd eaf4 46bd
00000330: d032 89bc 6b51 c3bc 7a61 30bd fd84 453d
00000340: 94e0 88bb e76f 69bc 7b01 8c3c fc32 0d3d
00000350: a6e8 403a 2b5f 0a3d a49e 8fbd 2641 5dbd
00000360: 54c1 f6bc b2e7 26bd 3972 2abd 3775 1dbc
00000370: 06ab 13bd bbd0 f038 7b6d 733c 3591 84bd
00000380: 62b5 393b 0ad5 f1bc f7f6 97bb 80fb 1039
00000390: b0a8 d53c afb5 91bc 9ba4 033d c978 1f3d
000003a0: 0d11 41bc d6af 033b f73d 86bd 8f88 cc3c
000003b0: 39f7 4d3c fc17 013c 2e6f 433d 21d1 4bbd
000003c0: afde 3dbc 1d5f afbc a3c9 88bd fe5c 96bd
000003d0: 565e 92bd 5e4f 79bd 106c 753d 1946 3e3d
000003e0: a391 53bc ac1b 98bd a49e c1bc 7764 ab3c
000003f0: db91 eebc bd79 4abd d7fa 6e3c a9b4 62bd

hidden_layers.2.linear.weight f4 [256, 256]
0.03950221 -0.09134503 -0.05546316 -0.0055863904 0.005923374 0.08136514 -0.040301785 -0.05268617
0.092390776 -0.06305184 -0.14763096 0.018933862 -0.041901108 -0.0470386 -0.05597621 0.10020596
-0.032385495 -0.10501604 0.0026313334 0.028131578 -0.11604855 0.108624674 0.03424133 -0.069963336
-0.03864484 -0.021370038 0.07735379 0.04207676 -0.030737475 0.02876235 -0.17064998 0.06729277
-0.005351582 -0.11912462 -0.010182201 0.014602256 -0.017536076 0.14453147 -0.080716304 0.11320466
-0.100511774 0.11345515 0.0086959535 0.025565699 -0.111443855 0.031558406 -0.040688828 0.093553305
-0.06201477 -0.044417687 -0.04899758 0.11415436 -0.06441055 -0.0037081754 0.066605955 -0.0038436258
-0.0026224027 0.039449167 -0.009534271 0.10486808 0.024125261 -0.019935725 -0.021430198 -0.054914426
-0.031927194 0.041966695 -0.017344238 -0.10040228 -0.021543354 -0.03487237 0.027268758 0.01579802
0.08638914 0.037329134 -0.055057142 -0.05230577 0.040671326 -0.11364419 -0.0026699917 0.051824875
-0.0494559 0.09034843 -0.040606562 0.04835322 0.05175199 -0.0356271 -0.0676508 0.060926635
0.004909579 -0.027992632 0.026206635 0.08045539 -0.036507748 -0.019789044 0.045499012 -0.0015217849
-0.105370745 0.004229915 -0.10808007 0.03890473 0.006013091 0.075433396 0.049134426 0.02041374
-0.071605556 -0.031303238 -0.035291515 -0.061810095 0.052472748 0.086813845 -0.010776158 -0.016139416
-0.06401545 0.009778098 0.044268698 -0.09950681 -0.072048515 0.05782834 0.12946743 0.023579776
-0.049221132 0.038823944 -0.0069498243 -0.03831109 0.0010259168 -0.039135665 -0.004136692 0.014290007
-0.005049035 -0.030280314 -0.04394005 -0.11432379 -0.040066637 -0.022678657 -0.06264474 -0.0032361452
-0.13327566 -0.04080843 -0.08905285 0.03623571 -0.004577204 -0.04858734 -0.05537382 -0.0674669
0.18314359 -0.00028161737 0.10652307 -0.033354715 -0.02425607 -0.0003635791 0.04824254 -0.01716366
-0.0055588125 0.12051273 -0.020485627 -0.0043645366 -0.05829002 0.09925637 0.055274267 0.07355668
0.19273776 0.030763041 -0.050790783 0.0362624 -0.064337015 -0.059707943 -0.010889157 -0.09720205
-0.031192645 -0.074481435 -0.12560205 0.09107543 0.064422786 0.049762685 -0.044354737 -0.055412702
-0.11487115 0.019517329 0.13542648 -0.072880656 0.10704497 -0.09403939 -0.014594435 -0.029744923
0.022296935 -0.035873514 -0.030964943 -0.05424888 -0.0035333945 -0.06685584 0.001226136 0.081717506
-0.03296283 0.008842545 -0.043180548 0.022051876 -0.0066148 -0.047775038 0.022788323 -0.07478832
-0.012070528 0.041963723 -0.01965772 -0.03311298 -0.11536196 0.0018464851 -0.062280286 0.13930218
0.0756322 0.019999007 -0.08107212 0.046964336 -0.03759991 0.0023866682 -0.072540365 -0.04144353
0.005353647 -0.023307951 -0.04460671 0.10218435 -0.06943904 -0.12715851 -0.11118698 0.084170304
0.03125067 0.06809068 -0.060673784 0.028339492 -0.019924222 0.0036802683 0.16438985 -0.09005847
-0.085981786 0.004930166 0.011142464 0.003418652 0.06027401 0.08077849 0.0231943 -0.06742471
-0.003578377 -0.10285473 -0.007287413 0.03426543 -0.051015776 0.037280437 0.045930747 -0.11657207
-0.017641906 -0.10662602 -0.009402925 0.12696081 -0.00033243492 -0.0019036008 -0.0057698176 -0.023311198
00000000: 12cd 213d 1a13 bbbd 572d 63bd 0a0e b7bb
00000010: dd18 c23b c4a2 a63d 7c13 25bd 74cd 57bd
00000020: 6037 bd3d 5321 81bd 922c 17be 301b 9b3c
00000030: 7fa0 2bbd 8cab 40bd 4f47 65bd c838 cd3d
00000040: a7a6 04bd a612 d7bd 7372 2c3b 3274 e63c
00000050: ddaa edbd 9d76 de3d a340 0c3d f048 8fbd
00000060: 0d4a 1ebd 3810 afbc aa6b 9e3d ae58 2c3d
00000070: 28cd fbbc 059f eb3c debe 2ebe cbd0 893d
00000080: 535c afbb 9cf7 f3bd 3fd3 26bc 4d3e 6f3c
00000090: d1a7 8fbc 0f00 143e 974e a5bd d8d7 e73d
000000a0: 1ed9 cdbd 2c5b e83d 7979 0e3c 286f d13c
000000b0: ad3c e4bd 6343 013d 54a9 26bd e098 bf3d
000000c0: 3303 7ebd 52ef 35bd b0b1 48bd c3c9 e93d
000000d0: aee9 83bd dc04 73bb b468 883d 57e5 7bbb
000000e0: 9edc 2bbb 7395 213d a235 1cbc 13c5 d63d
000000f0: 57a2 c53c 3f50 a3bc 628e afbc f3ed 60bd
00000100: 17c6 02bd 45e5 2b3d 8115 8ebc b69f cdbd
00000110: b07b b0bc 55d6 0ebd bb62 df3c d96a 813c
00000120: caec b03d 6fe6 183d 9983 61bd 933e 56bd
00000130: fa96 263d 49be e8bd 07fb 2ebb 5246 543d
00000140: 4592 4abd 9908 b93d 1153 26bd 070e 463d
00000150: e5f9 533d b9ed 11bd 818c 8abd 358e 793d
00000160: 89e0 a03b ce50 e5bc 4caf d63c ccc5 a43d
00000170: 2689 15bd a21c a2bc 2c5d 3a3d a176 c7ba
00000180: 9ecc d7bd 199b 8a3b 1559 ddbd 915a 1f3d
00000190: 7709 c53b d37c 9a3d 2e41 493d b73a a73c
000001a0: efa5 92bd d337 00bd d68d 10bd 952c 7dbd
000001b0: aaed 563d 75cb b13d 7c8e 30bc cf36 84bc
000001c0: 881a 83bd 5134 203c 1853 353d 3aca cbbd
000001d0: 2c8e 93bd 69dd 6c3d 1c93 043e 602a c13c
000001e0: 199c 49bd db05 1f3d 5abb e3bb 17ec 1cbd
000001f0: 0e78 863a b84c 20bd 168d 87bb a220 6a3c
00000200: 6072 a5bb 6c0e f8bc 7bfa 33bd 9722 eabd
00000210: ea1c 24bd 97c8 b9bc e34b 80bd 8215 54bb
00000220: 6a79 08be be26 27bd 5761 b6bd e56b 143d
00000230: 5ffc 95bb 8503 47bd a9cf 62bd 162c 8abd
00000240: fe89 3b3e 0ba6 93b9 c428 da3d f49e 08bd
00000250: aab4 c6bc c39e beb9 f899 453d ce9a 8cbc
00000260: b326 b6bb 61cf f63d 79d1 a7bc 6304 8fbb
00000270: 84c1 6ebd ec46 cb3d 4567 623d e2a4 963d
00000280: 0c5d 453e c602 fc3c ff09 50bd e287 143d
00000290: 20c3 83bd 5190 74bd 6f68 32bc de11 c7bd
000002a0: b887 ffbc b989 98bd d39d 00be c185 ba3d
000002b0: 18f0 833d f5d3 4b3d 50ad 35bd 6ef8 62bd
000002c0: 9141 ebbd cee2 9f3c 3dad 0a3e 7442 95bd
000002d0: 653a db3d b997 c0bd 7f1d 6fbc a0ab f3bc
000002e0: 10a8 b63c 1bf0 12bd 31aa fdbc 1334 5ebd
000002f0: 8690 67bb b7eb 88bd 4cb6 a03a 825b a73d
00000300: 0804 07bd 52e0 103c 16de 30bd 23a6 b43c
00000310: f7c0 d8bb c2af 43bd 94ae ba3c 9e2a 99bd
00000320: 77c3 45bc 27e2 2b3d 3a09 a1bc 7aa1 07bd
00000330: e442 ecbd c205 f23a 9d19 7fbd 3ba5 0e3e
00000340: 0ee5 9a3d f5d4 a33c 2409 a6bd ad5d 403d
00000350: 5d02 1abd a669 1c3b 0b90 94bd b1c0 29bd
00000360: a56d af3b 51f0 bebc 87b5 36bd 0746 d13d
00000370: 0e36 8ebd d735 02be 00b6 e3bd 7b61 ac3d
00000380: b400 003d 2073 8b3d 1385 78bd 3928 e83c
00000390: 1f38 a3bc a830 713b d055 283e 9370 b8bd
000003a0: 3817 b0bd 3b8d a13b e28e 363c 770b 603b
000003b0: e1e1 763d 316f a53d f901 be3c f715 8abd
000003c0: 3483 6abb 80a5 d2bd 40cb eebb e859 0c3d
000003d0: ebf5 50bd 5fb3 183d e121 3c3d 56bd eebd
000003e0: c285 90bc be5e dabd ba0e 1abc 0402 023e
000003f0: a94a aeb9 3e82 f9ba bd10 bdbb 20f7 bebc

hidden_layers.2.linear.bias f4 [256]
-0.046757672 -0.069653526 0.011742491 -0.028927943 0.013964291 -0.0031804296 0.0011724061 0.03584112
-0.047650877 -0.024355274 0.044670753 0.017230926 0.026870113 -0.028704813 -0.044353656 0.004347234
-0.007164428 0.011620197 0.025070265 0.044519003 -0.024123162 -0.059046615 -0.023319768 -0.07020945
-0.04558869 0.04261908 -0.021678181 0.060823407 0.002526177 -0.005139833 0.016745742 -0.022943487
-0.0053301877 -0.02645589 -0.019756243 0.003916636 -0.00902673 -0.058041807 -0.01163718 -0.056283467
-0.0008427256 -0.049585816 -0.0588071 -0.012732653 0.010782078 0.043944795 0.011691859 0.05737046
-0.0047351695 -0.0065664425 -0.05586014 -0.009756294 0.05870432 0.0049521727 -0.047470514 0.017566487
-0.018735461 -0.042893197 0.055983514 -0.027472693 -0.024955504 0.012330053 -0.013212968 -0.039670356
0.057749923 -0.057495896 -0.04336513 0.007407149 -0.020775681 -0.08135988 -0.02264086 -0.030435387
0.018970873 0.029431228 0.027400995 0.05980156 -0.04888492 -0.003946586 -0.023785295 -0.028359242
-0.009076884 -0.02410637 0.053819582 0.026716495 -0.053280335 0.023090746 -0.056784168 -0.030101204
-0.052326232 0.003575863 -0.07483411 -0.032040685 -0.04988785 -0.013247424 0.01256613 -0.029073447
-0.022071607 -0.017783659 -0.02614603 -0.02644697 0.058470856 0.05026053 -0.041356534 0.0035735439
-0.019359583 -0.035879258 -0.022160703 -0.019798242 0.00037294868 -0.049509592 -0.041583925 0.0057520447
-0.06274171 -0.04484149 -0.0034502107 -0.040033177 0.031138236 -0.02603969 -0.00933149 0.05188103
-0.0024782498 0.017724957 0.033352055 0.025231779 -0.013912661 0.040533233 0.05360335 -0.052592117
-0.045948096 -0.028053412 0.00633185 -0.021351468 -0.0105148 -0.039696205 -0.022771878 -0.0001585625
-0.01067421 -0.028167702 -0.047373652 -0.025746422 0.036168534 -0.0011875767 -0.0027395822 0.04877523
-0.032025103 -0.008595447 0.016542405 -0.018702751 0.02899973 -0.045806777 -0.045769513 -0.043898974
0.011765746 -0.023781372 0.0574062 -0.018387694 -0.057655267 -0.04490765 0.023033058 -0.017617296
0.032898247 -0.08168543 -0.020752486 -0.056519203 0.0035956039 -0.0368615 0.008826887 -0.026568575
0.008051847 -0.015860766 -0.010777792 0.0009624221 -0.060657788 -0.010701223 0.045997184 -0.017469715
0.036189437 -0.023499297 0.058525916 0.053175967 0.027305087 0.04657899 0.0061455793 -0.031924274
-0.013577707 -0.053289823 0.0047741057 0.012777917 0.009225078 -0.05802793 0.03068305 -0.06591721
0.020404808 -0.054467507 0.05533397 0.05821357 -0.028866751 0.0054254467 -0.008811612 0.012980505
0.04911549 -0.0013998473 -0.011426003 -0.017975036 0.045228492 0.02000138 -0.0151045965 -0.020035867
0.05259608 -0.021849344 0.04501682 0.0100981025 -0.00324089 -0.008307224 0.016437985 0.006297559
0.055118587 0.038405575 -0.030593911 0.058801115 0.0575297 0.030973673 -0.063752346 0.02819418
-0.021364825 -0.06343451 0.015594176 -0.044444405 0.010845335 -0.025932843 -0.0060312436 0.055846635
-0.009620778 0.022847012 0.0027883044 0.023234777 -0.04631434 -0.02190511 -0.045820225 0.04155466
0.045279447 0.035649676 -0.015224058 0.03440188 -0.059824005 -0.020146294 -0.04897068 0.052018467
-0.06926104 0.027381742 -0.0019522659 0.052193422 -0.048922516 -0.04165657 -0.048795175 -0.040156275
00000000: f984 3fbd 82a6 8ebd 9463 403c 4bfa ecbc
00000010: 7bca 643c c16e 50bb 6cab 993a 23ce 123d
00000020: 912d 43bd b684 c7bc aef8 363d df27 8d3c
00000030: b61e dc3c 5b26 ebbc 2eac 35bd 3e73 8e3b
00000040: 94c3 eabb a462 3e3c 2860 cd3c 8f59 363d
00000050: f09d c5bc ddda 71bd 1909 bfbc f9c9 8fbd
00000060: 35bb 3abd 5891 2e3d 7196 b1bc f721 793d
00000070: 388e 253b 0b6c a8bb 5e2e 893c fbf3 bbbc
00000080: dba8 aebb 06ba d8bc d8d7 a1bc 2057 803b
00000090: dae4 13bc 3fbd 6dbd dfa9 3ebc 7e89 66bd
000000a0: 5cea 5cba 7f1a 4bbd b7df 70bd 9e9c 50bc
000000b0: 50a7 303c 75ff 333d 368f 3f3c 4afd 6a3d
000000c0: 7b29 9bbb 502b d7bb 9acd 64bd ddd8 1fbc
000000d0: f173 703d d645 a23b 7170 42bd 98e7 8f3c
000000e0: 1c7b 99bc c7b0 2fbd f84e 653d 6a0e e1bc
000000f0: 7c6f ccbc fe03 4a3c 347b 58bc 627d 22bd
00000100: 2f8b 6c3d d180 6bbd a29f 31bd abb7 f23b
00000110: c331 aabc 02a0 a6bd 5379 b9bc a253 f9bc
00000120: ce68 9b3c c219 f13c 0d78 e03c 7bf2 743d
00000130: 8e3b 48bd 5d52 81bb 61d9 c2bc a451 e8bc
00000140: 36b7 14bc b97a c5bc ec71 5c3d 8ddc da3c
00000150: 7b3c 5abd ce28 bd3c 8496 68bd cd96 f6bc
00000160: 0854 56bd 0759 6a3b a042 99bd 183d 03bd
00000170: 3457 4cbd b90b 59bc 2be2 4d3c 702b eebc
00000180: 84cf b4bc 09af 91bc 3330 d6bc 51a7 d8bc
00000190: 237f 6f3d fcdd 4d3d 7865 29bd 1e32 6a3b
000001a0: fd97 9ebc 21f6 12bd 5d8a b5bc ec2f a2bc
000001b0: 5388 c339 92ca 4abd e853 2abd a67b bc3b
000001c0: ba7e 80bd b6ab 37bd ee1c 62bb d4f9 23bd
000001d0: 9d15 ff3c 3051 d5bc 1be3 18bc 3481 543d
000001e0: 226a 22bb ee33 913c 2a9c 083d e0b2 ce3c
000001f0: eef1 63bc 2d06 263d 308f 5b3d d56a 57bd
00000200: 1234 3cbd 45d0 e5bc 687b cf3b 46e9 aebc
00000210: 4546 2cbc 7d98 22bd 178c babc cc43 26b9
00000220: e2e2 2ebc f4bf e6bc e00a 42bd 29ea d2bc
00000230: 7525 143d 76a8 9bba 908a 33bb 89c8 473d
00000240: c12c 03bd ebd3 0cbc f083 873c 8336 99bc
00000250: d790 ed3c e39f 3bbd d078 3bbd 69cf 33bd
00000260: 1ec5 403c 27d1 c2bc c322 6b3d caa1 96bc
00000270: ee27 6cbd 16f1 37bd d3af bc3c 2652 90bc
00000280: 50c0 063d b14a a7bd 1e01 aabc ae80 67bd
00000290: 39a4 6b3b 16fc 16bd a69e 103c 57a6 d9bc
000002a0: e5eb 033c 70ee 81bc 5695 30bc 0e4b 7c3a
000002b0: 4d74 78bd 2f54 2fbc 8b67 3c3d a61c 8fbc
000002c0: 603b 143d 9981 c0bc dfb8 6f3d 0bcf 593d
000002d0: ebae df3c 9cc9 3e3d db60 c93b 07c3 02bd
000002e0: 0875 5ebc 6e46 5abd 1a70 9c3b 785a 513c
000002f0: c824 173c b2ae 6dbd 055b fb3c 9aff 86bd
00000300: fc27 a73c 5219 5fbd dfa5 623d 5a71 6e3d
00000310: f779 ecbc f2c7 b13b 945e 10bc 2fac 543c
00000320: 532d 493d 157b b7ba 2134 3bbc 6240 93bc
00000330: 8341 393d efd9 a33c 4579 77bc 4222 a4bc
00000340: fd6e 573d 65fd b2bc 8f63 383d 8372 253c
00000350: 1d65 54bb 061b 08bc f4a8 863c c15b ce3b
00000360: 07c4 613d 2a4f 1d3d 15a0 fabc 70d9 703d
00000370: 43a4 6b3d 80bc fd3c 9790 82bd 7bf7 e63c
00000380: 4905 afbc f4e9 81bd b77e 7f3c 560b 36bd
00000390: a2b0 313c 1d71 d4bc bda1 c5bb 71bf 643d
000003a0: 78a0 1dbc a829 bb3c fcbb 363b dc56 be3c
000003b0: 1bb4 3dbd 5872 b3bc fdad 3bbd 3835 2a3d
000003c0: f176 393d 6505 123d 546e 79bc fce8 0c3d
000003d0: 040a 75bd d709 a5bc 7b95 48bd 5111 553d
000003e0: bbd8 8dbd ad4f e03c 2ce3 ffba c5c8 553d
000003f0: fa62 48bd 14a0 2abd 73dd 47bd e87a 24bd
