My-Siren/result/image_fit/sine/model_final.pth (torch, 796743 bytes, 9 tensors)

first_layer.linear.weight f4 [256, 2]
000000 8f db e0 bc 6c 55 85 3e a2 99 26 3e 5c 10 0f be
       -0.027448444 0.26041734 0.16269544 -0.13971084
000010 5b ea 60 be 5c 98 a6 3e 74 ba 1d be dc 5d af be
       -0.219644 0.32538116 -0.15403157 -0.34251297
000020 35 34 ee bd c4 eb 17 3c 4e a8 91 be 94 8a 0f bd
       -0.116310515 0.0092725195 -0.2844872 -0.035044268
000030 f5 c8 fe 3e e1 71 fc be e5 3f ee be cb f2 4a be
       0.49762693 -0.49305633 -0.46533123 -0.1981918
000040 ab f0 f1 3d 54 32 9c be 4b 4e a9 3e 0c 7c b4 3e
       0.11813482 -0.30507147 0.33067545 0.3525089
000050 cd df 2e 3e be 4f aa bd 15 29 a6 be 64 b5 f3 3e
       0.1707756 -0.08315991 -0.32453218 0.47599328
000060 e0 8a d5 be 75 52 fd 3e 26 27 f7 3e 01 63 11 3e
       -0.41707516 0.49476972 0.48272055 0.14197923
000070 a3 7a ad be e7 3d 2e be f4 1e e4 be 9b aa 67 be
       -0.33882627 -0.17015801 -0.44554865 -0.22623675
000080 94 2f ec be d4 54 da 3e 06 ab a7 3d 06 10 43 be
       -0.4613005 0.42642844 0.08186917 -0.19049081
000090 87 b1 9d be 08 51 9b 3e 1c e8 34 be 9e 62 f0 3e
       -0.30799505 0.3033526 -0.17666668 0.4695024
0000a0 be 8a 04 3e dc b3 3a 3c 60 5e 99 3e 8a cf b9 be
       0.12943551 0.011395421 0.29954815 -0.36291152
0000b0 17 24 9a bd 89 05 b2 be 0b 59 f3 3e 89 30 b7 3d
       -0.07526415 -0.34769848 0.47528872 0.08944804
0000c0 66 02 06 be b6 8c 76 3e 87 d9 e7 be 47 bb 84 3e
       -0.13086852 0.24077114 -0.45283148 0.2592413
0000d0 84 5b 27 be e1 ce 28 3e 0d 42 de 3d 4e f3 b1 3e
       -0.16343504 0.16485168 0.10852442 0.3475594
0000e0 b7 86 37 3e a9 4c d8 be 7d 30 f0 be b2 74 a0 be
       0.17922483 -0.42245987 -0.46911994 -0.3133903
0000f0 ed 25 60 3c 15 e2 c9 be bb 3f 21 3e dd 26 8c 3e
       0.013680917 -0.394303 0.15746967 0.273734
000100 6b 71 9d 3e a9 34 ac 3e e5 e5 bc 3e d4 2a a8 be
       0.30750594 0.33633927 0.36894146 -0.32845175
000110 22 77 e3 3d f2 3e 8f bd 8e 58 cf be 58 ab 74 bd
       0.11106707 -0.06994428 -0.4049725 -0.05973372
000120 60 7b d0 be b9 24 c1 3e d5 fc 40 bd f0 9d a1 be
       -0.40719128 0.3772333 -0.04711612 -0.3156581
000130 7d 8f ec 3e 3b 5f 82 3d 77 54 53 be 73 05 22 3e
       0.46203223 0.0636582 -0.2063769 0.15822391
000140 3a cd a3 3e 9a 42 b7 bd 63 e8 b3 be b9 49 fa be
       0.31992513 -0.0894825 -0.35138234 -0.4888437
000150 db b0 3c 3d a5 5d bb 3d aa 00 b9 be a9 7a ef 3e
       0.0460671 0.09148721 -0.3613332 0.4677327
000160 c9 63 d8 be 9a 42 91 be 75 e5 8f be 3b 33 2b 3e
       -0.4226363 -0.28371125 -0.2810475 0.16718762
000170 11 d9 39 be 88 22 f7 3e c6 7f 8d be b2 59 79 bd
       -0.1814921 0.48268533 -0.27636546 -0.060876556
000180 8e 1d f8 3e f5 18 a8 bd 6c c9 37 3d 0e f2 42 be
       0.48460048 -0.08207885 0.044869825 -0.19037649
000190 76 37 80 be b6 99 98 be 35 ff 0d be 42 10 fc 3e
       -0.25042313 -0.29804772 -0.13866885 0.49231154
0001a0 1c de b0 be 9c e2 ef bd 34 7b fd 3e 25 a6 2a 3e
       -0.34544456 -0.11713144 0.4950806 0.16664942
0001b0 b2 12 e6 be af 14 a4 be ae c2 b8 3d db 9a 58 3e
       -0.44936138 -0.3204703 0.09021507 0.21152823
0001c0 59 e0 f5 be db e4 ba be 5a 91 85 3e fa 53 69 be
       -0.48022726 -0.36502728 0.26087457 -0.22785941
0001d0 82 95 df be 98 45 6d be f8 43 2f be 29 c2 d5 3e
       -0.43668753 -0.23171079 -0.17115772 0.41749695
0001e0 34 dd 80 3e 15 65 a6 bd ce 94 bb be a9 9f e1 3e
       0.25168765 -0.081247486 -0.36636966 0.44067124
0001f0 9e 06 cc be b4 5b 19 be ec 9b d1 be aa 3a fe be
       -0.398488 -0.14976388 -0.4093927 -0.49654132
000200 ef 8e ef 3e 1d 85 0a 3e 76 2b 85 bd 6c 74 6f be
       0.46788737 0.13527341 -0.0650243 -0.23384255
000210 c4 da a9 3d 4e 94 d3 be fe 30 92 be 2a 85 cc be
       0.08293679 -0.41324085 -0.28553003 -0.39945346
000220 97 18 4b 3e 4d a8 d6 be a4 c9 ff 3d d9 8d b4 3e
       0.19833599 -0.41925278 0.12489632 0.3526447
000230 f6 f8 cb 3d bd 06 95 3e 83 4f 9a bd 3c 75 a8 be
       0.09959595 0.29106703 -0.07534697 -0.32901943
000240 3d 5e f2 bd c9 5b d2 be 86 1f a0 be 63 f0 91 3e
       -0.11834381 -0.41085652 -0.3127405 0.28503713
000250 2e 85 66 be e3 ca 84 bd 36 4a f4 bd cd 7a a5 3d
       -0.22511742 -0.0648401 -0.11928217 0.08080063
000260 67 fd df 3e 79 c5 ce 3e cd 30 7f 3c c7 d8 b5 be
       0.43748018 0.40385035 0.0155756 -0.3551695
000270 c1 4f bc be 3a 4a 0b be 92 95 87 be d8 aa e7 be
       -0.36779597 -0.13602534 -0.264813 -0.4524753
000280 57 3e 00 3f 9e f8 ba 3e 26 cd 6d bc ef b3 69 3e
       0.50095123 0.36517805 -0.014514243 0.22822545
000290 47 b1 17 3e 1a da 4f bd 84 8f 01 bf ce 17 8d 3e
       0.1481372 -0.050745107 -0.5060961 0.27557224
0002a0 6b 7f 82 be 97 e7 a4 3e ae 65 98 3e 4d bd c7 bd
       -0.25487837 0.3220794 0.29765075 -0.09752903
0002b0 c0 cb eb 3c f8 81 ca be 43 85 43 bb eb f6 6b 3e
       0.028783679 -0.39552283 -0.002983407 0.2304341
0002c0 4c bf 01 3e 7a 08 f8 3e 89 38 93 3e 4a d6 55 be
       0.1267063 0.48443967 0.2875407 -0.20882526
0002d0 a3 7d 09 be 75 4b 49 be af 14 1b 3e ae bc 35 be
       -0.13426833 -0.19657691 0.15144609 -0.17747757
0002e0 3c 4c 75 be 38 07 9c 3e b2 55 ee 3e fb 75 c0 3e
       -0.23954862 0.30474257 0.46549755 0.37590012
0002f0 99 2a b1 3d fe c9 15 3e db 7f 99 be 39 7c 35 be
       0.08650703 0.14627835 -0.29980358 -0.17723168
000300 29 5e 82 be 56 3a f0 bc ca 6c 94 bd 45 d0 73 3e
       -0.25462463 -0.029324692 -0.07247312 0.23809917
000310 4a e0 a0 be 68 c3 fa 3e 9d 07 aa be ef 50 53 be
       -0.3142112 0.48977208 -0.33208933 -0.20636342
000320 46 d9 dc be f5 7a f8 3e 90 77 2a be ee c9 c1 3d
       -0.43134516 0.4853131 -0.16647172 0.09462343
000330 be 3b 4d 3b 01 86 9f 3e 1b 03 c9 3e a0 28 b7 bd
       0.0031316127 0.31156924 0.39260182 -0.089432955
000340 03 aa 29 be 06 d8 83 be 1b 63 93 be 56 19 93 3e
       -0.1656876 -0.2575075 -0.2878655 0.28730267
000350 80 47 17 be 8f d0 f8 be b6 3c fe 3e 79 96 5b 3e
       -0.14773369 -0.48596618 0.49655694 0.2144412
000360 e5 e5 93 ba 15 fd b0 3d f9 e4 39 3e e8 e0 a5 3e
       -0.0011283724 0.086420216 0.18153752 0.32398152
000370 96 71 35 be fb 0d 50 3d 4b 3a df 3c b0 b8 53 be
       -0.17719111 0.050794583 0.027249476 -0.20675921
000380 aa 45 a5 3e c0 be ec bd ce af 52 be 48 5f cd 3e
       0.32279712 -0.1155982 -0.20574877 0.40111756
000390 bd f3 d6 be df f4 9f 3e 45 21 40 3e 08 d4 65 bd
       -0.41982833 0.3124151 0.18762691 -0.056110412
0003a0 e0 f2 ba be fc aa d1 be 76 c0 97 be dc 40 91 3d
       -0.36513424 -0.40950763 -0.29639024 0.07092449
0003b0 6a f8 bf be ce 98 ab be cf 14 c9 be bb 13 1b 3d
       -0.37494212 -0.33515018 -0.39273688 0.037860613
0003c0 e7 ed df be 95 b0 ff be 6c fb 8d bc bd ab 37 3e
       -0.43736193 -0.4993941 -0.017331801 0.17936607
0003d0 c8 14 90 bd f5 bd 3a bc 50 6b 22 3d 0e 5f 2c be
       -0.07035214 -0.011397828 0.039653122 -0.16833135
0003e0 10 63 c7 bd db a5 0f be 20 25 71 3d 33 c1 ed be
       -0.097356915 -0.14028113 0.058873296 -0.46436462
0003f0 75 3b 2c 3e 8b ff f6 bc 7a 32 06 3e 67 57 ae 3d
       0.16819556 -0.03015115 0.13105193 0.085127644

first_layer.linear.bias f4 [256]
000000 dd ba e4 be 62 16 ac be 13 ba 74 3e cb aa 7e 3e
       -0.44673815 -0.33610827 0.23899107 0.2486984
000010 53 47 02 3f f5 47 33 3f bb 7c ba 3c 7c 1f 07 3e
       0.5089008 0.7003167 0.022764554 0.13195604
000020 a6 a2 8e 3e 5c be 29 3f 05 b9 25 3f 4f 99 e2 3d
       0.27858466 0.6630609 0.6473544 0.110643975
000030 35 88 0f bf 13 72 94 3e 6e 89 0c bf 4b d2 e7 bc
       -0.5606721 0.28993282 -0.548972 -0.028298518
000040 81 41 97 be dc d7 02 3f ea fa 39 3e c0 4d fb 3e
       -0.29542163 0.51110625 0.18162122 0.49082756
000050 24 ef a4 3e d9 0f e2 3e 04 2a a9 be 3d 3a 6d 3e
       0.322137 0.44152716 -0.33039868 0.23166747
000060 b3 30 93 be d2 45 f2 3e ce dc 24 3f 13 32 be be
       -0.28748092 0.47318894 0.6439942 -0.3714758
000070 db d8 d4 be d2 dc d6 3c 72 1d a4 3c 4d c9 e3 bc
       -0.41571698 0.026228342 0.020033572 -0.027805949
000080 36 e5 d2 3e 14 b9 6a be c2 12 69 3e c5 dd 87 be
       0.411905 -0.22922164 0.22761062 -0.26536384
000090 f9 d1 46 3d 98 42 1e bf d8 49 2a bf c7 cd 14 3e
       0.04854009 -0.61820364 -0.66518927 0.14531623
0000a0 e1 13 69 3e de d1 f9 be 42 14 2b bf 9e f5 00 bf
       0.2276149 -0.48792928 -0.66827786 -0.5037478
0000b0 0e d5 bb bd b7 76 10 3e 06 7a e0 bd af be 18 bf
       -0.09171496 0.14107786 -0.10960774 -0.5966596
0000c0 60 fd 17 bf ab 88 0d 3f 63 aa ac 3e a3 0d ff bd
       -0.59370995 0.55286664 0.33723745 -0.12453773
0000d0 05 40 13 be 19 12 f3 3d ef 83 f6 be 41 cb 2d 3e
       -0.1437989 0.11868686 -0.48147532 0.16972066
0000e0 c5 a2 c3 3e 52 20 ed be 23 57 00 3e 3a bd c2 bd
       0.3821012 -0.4631372 0.1253324 -0.09508748
0000f0 de 1f fe 3c a8 17 68 3e 76 ad 75 bd 0a 49 86 3e
       0.031021055 0.22665274 -0.05997988 0.262276
000100 02 b3 84 bb b6 99 4e be d7 8c 13 bf 2a 1d 29 bf
       -0.0040496597 -0.20175824 -0.5763678 -0.66060126
000110 bb 50 8c bd 83 d0 ed be 80 7c 55 3e a4 2b 47 3e
       -0.068513356 -0.46448144 0.20848274 0.19450241
000120 9b 94 f0 bd 4b 5c 10 3f 57 f8 0b bf 53 4a 96 3e
       -0.11747094 0.5639083 -0.5467581 0.2935358
000130 1f db 4a be aa ac 0c 3e 83 ab 25 be 72 e2 bd 3e
       -0.1981015 0.13737741 -0.16178708 0.37086827
000140 d0 92 66 be 8b 4c d6 3e 81 83 1a bf da ac 27 be
       -0.22516942 0.41855273 -0.6035691 -0.16374531
000150 08 b8 d3 be b7 9a 2d bf aa ae 2e 3f 33 ed e4 be
       -0.41351342 -0.678142 0.68235266 -0.4471222
000160 d1 2c f9 3e 6b f4 8a be 81 83 34 3d 1a 3f 94 3e
       0.48667005 -0.271396 0.044070724 0.28954393
000170 5a e0 42 3e de 26 bf 3e 5a 39 43 3e 90 b1 31 3f
       0.19030896 0.3733434 0.19064847 0.69411564
000180 2d 27 7b 3e e3 2d 12 bf fd 70 14 3f 39 f4 1d bf
       0.24526663 -0.5710127 0.57984906 -0.6170078
000190 d2 e6 2b bf a5 47 dc bd f4 89 2a bd aa 01 ca be
       -0.6714908 -0.107558526 -0.04163547 -0.39454395
0001a0 50 8e db 3e 6d 7e 35 3d e6 9a ac be ec f9 4a bd
       0.42882013 0.044310022 -0.33711928 -0.04955475
0001b0 95 65 6e be a3 c1 08 3c 47 95 b7 3e d3 da c1 3e
       -0.23280938 0.008346948 0.35856077 0.37862262
0001c0 5e d7 08 bf 83 5b 8f be 18 e9 0b 3f 47 35 26 bf
       -0.53453624 -0.27999505 0.5465255 -0.64925045
0001d0 57 67 20 bf 27 26 d6 be c0 92 de be a6 92 2f 3f
       -0.62657684 -0.41825983 -0.43471336 0.6858314
0001e0 dd 6f 08 bf a9 a6 81 be cb be 22 bf 3d dc f4 3e
       -0.5329569 -0.25322464 -0.63572377 0.47824278
0001f0 be 1c dc 3d 30 10 03 3e da af d5 3e fb 7a 1c bf
       0.1074767 0.12799144 0.41735727 -0.61125153
000200 fe 60 58 3e 9e 87 47 3e 1f 5b 2c 3d f9 6a 0d 3f
       0.2113075 0.19485328 0.042079087 0.5524135
000210 26 51 33 be 73 5d dd 3d 08 28 1f 3f 08 f8 7d be
       -0.17511424 0.1080884 0.6217046 -0.24801648
000220 36 ae 71 3e c2 83 04 3f db f0 e5 be 8e e1 31 39
       0.23601612 0.51763546 -0.4491032 0.00016964061
000230 0a 71 27 3f 09 e5 21 bf b8 19 2c bf 18 8f 30 3f
       0.6540686 -0.63240105 -0.67226744 0.68968344
000240 f8 f0 77 3e df 55 0b 3f a4 fa 9c bd f3 c7 b1 be
       0.24213016 0.54427904 -0.076649934 -0.34722862
000250 e9 04 52 be ee f6 87 3d f8 2c 36 3f 66 18 1e 3f
       -0.20509686 0.06638895 0.71162367 0.6175598
000260 2f b2 9b 3d ed 35 6b 3e c7 f5 fb 3e 96 14 10 3f
       0.07602345 0.2296979 0.4921095 0.5628141
000270 82 bf 3d 3e d1 f6 1e be 4d 43 1a bf e0 1f cb 3e
       0.18530086 -0.1552384 -0.6025894 0.39672756
000280 90 40 e2 be b5 03 36 3f 01 0a a6 3e e0 4d 65 be
       -0.44189882 0.71099406 0.32429507 -0.22392988
000290 7a 53 e1 be 80 72 1e be 9c 2b 68 be 35 9b 27 bf
       -0.44009 -0.15473366 -0.22672886 -0.654712
0002a0 fe df f4 be f5 bc b5 be 9a e8 11 3f cc 3c 07 3f
       -0.47827142 -0.35495725 0.56995547 0.52827144
0002b0 6e 45 a9 be 9e a1 03 bf 00 5b 28 bf 40 07 ee be
       -0.33060783 -0.51418483 -0.65763855 -0.46489906
0002c0 ad c6 31 bd 84 d1 49 be a0 81 29 be 99 72 32 bf
       -0.043402363 -0.1970883 -0.16553354 -0.6970611
0002d0 4c d9 21 be 05 5b 1b 3f 48 14 82 3c 77 2e bf be
       -0.15805548 0.6068576 0.015878811 -0.37340137
0002e0 72 4c 3f be 54 64 8f be 71 92 e1 be 1e e6 0a 3f
       -0.18681505 -0.28006232 -0.44057038 0.5425738
0002f0 a8 a1 a8 be c4 b3 b7 3e 7f 10 dd 3e 65 1d 16 bf
       -0.32935834 0.35879338 0.43176648 -0.586386
000300 ad e6 d0 3e 4e 15 0f bf 59 fc 19 3f 41 a5 08 be
       0.40800992 -0.55891883 0.60150677 -0.1334429
000310 8e 3e bd 3e 16 a6 8a 3e 39 ad 12 3f d8 b2 b3 bd
       0.36961788 0.2707984 0.57295567 -0.08774346
000320 9f af 3e be 27 9c 19 be 75 c6 ce be f9 73 db be
       -0.18621682 -0.15000974 -0.40385786 -0.42861918
000330 4e 9a 26 3e b0 e1 14 bf cf f4 a5 3e bd 19 17 3f
       0.162698 -0.5815687 0.32413337 0.5902365
000340 5a 8c b0 be 0a dc 05 3f c0 dd 54 be 03 c0 14 bf
       -0.3448208 0.5228888 -0.20787716 -0.58105487
000350 d4 cf 16 be 72 1e d7 3e 3a 0c da 3e c7 bd 21 bf
       -0.14727718 0.42015415 0.42587453 -0.631802
000360 34 54 dc bd e3 73 9b 3e 68 da e6 3e 59 50 f6 3e
       -0.10758248 0.30361852 0.45088506 0.48108175
000370 fb 5d f4 be b5 29 1a bf 29 bd 8b 3d 5b c5 1f 3f
       -0.4772795 -0.6021989 0.06823189 0.62410516
000380 96 6b f2 3e bd 8c 1a 3e 56 61 1f be b9 bf 99 3e
       0.47347707 0.1509275 -0.15564474 0.30029085
000390 a7 8f bf 3e b5 49 e9 be 82 f1 1f bf 65 91 ea 3e
       0.37414286 -0.45564047 -0.62477887 0.45814052
0003a0 fa 94 15 3f 9b 46 5e 3e 81 aa ef bc 33 3b 40 3d
       0.58430445 0.21706621 -0.029256107 0.046931457
0003b0 3e f0 fe 3e 94 d8 c4 3c e4 8e 86 3e 01 d6 d9 3e
       0.49792665 0.024029054 0.26280892 0.42546085
0003c0 f3 bf 0b 3f 85 d6 70 be 84 23 fb bd d8 18 b9 3e
       0.54589766 -0.23519333 -0.122626334 0.36151767
0003d0 e7 98 31 bf d4 47 2f 3f e6 dc cc 3e a8 3f d6 3e
       -0.69373935 0.68468976 0.40012282 0.4184544
0003e0 1c a7 1c bf 5b 9b 0e bf 53 23 1c be f0 3c 9e be
       -0.6119249 -0.55705804 -0.1524785 -0.30905867
0003f0 82 c9 f2 3e f4 b3 c2 3e e2 75 f0 be aa de 2c 3f
       0.47419363 0.38027918 -0.46964937 0.6752726

hidden_layers.0.linear.weight f4 [256, 256]
000000 71 1b a2 3b a8 e2 7a bb 73 e1 e8 ba 5e 0c 50 b8
       0.004947119 -0.003828207 -0.0017767384 -4.9602582e-05
000010 b9 d7 35 3b 57 86 65 3b eb 61 ef 39 20 7d de bb
       0.002774699 0.00350227 0.00045658587 -0.0067898184
000020 b9 87 ad 3a 1e 8a 1b bc 65 76 a2 bb a2 b7 ec 3b
       0.0013239301 -0.009493379 -0.0049579614 0.007224039
000030 49 7c 07 3c c3 75 90 3b ab e2 a5 b9 28 67 4c 3b
       0.008269378 0.0044085695 -0.00031640133 0.0031189416
000040 0d 83 d8 ba 3e 38 46 3b 7f 3d 93 3a c1 70 95 3b
       -0.0016518548 0.0030245925 0.0011233537 0.0045605605
000050 5a 9c a5 3a 44 d1 4d bb cb c3 df 3b fc 83 d3 ba
       0.0012635097 -0.003140525 0.0068287603 -0.0016137357
000060 32 96 06 3b 8f ae 8d bb 6a 8f 34 bb c5 f3 87 3b
       0.00205363 -0.0043237875 -0.0027551302 0.0041489326
000070 d9 fb 20 bb db 03 0a ba 36 bf f6 39 4b dd 38 3b
       -0.0024564175 -0.0005264857 0.0004706324 0.0028208073
000080 84 6e ff bb 48 df 94 3b 90 c2 9b 39 c8 ad 51 3b
       -0.007795157 0.0045432188 0.00029708864 0.003199445
000090 3c 2c 94 ba 69 fe bf ba 15 e8 f3 bb b9 5e 20 3b
       -0.0011304687 -0.0014647964 -0.007443438 0.0024470522
0000a0 fc 9c 9f ba 11 d5 e1 3b b4 f3 ac bb 55 42 41 ba
       -0.0012177522 0.0068918546 -0.005278075 -0.000737225
0000b0 36 9d 07 3c 68 eb 4d 3b dc 9c cf ba 96 9a 93 3b
       0.008277228 0.003142083 -0.0015839594 0.004504512
0000c0 0e 83 a2 3b d3 8d 39 bb b9 63 28 bb e3 6e b0 ba
       0.0049594706 -0.0028313294 -0.0025694205 -0.0013460781
0000d0 96 9c 57 3b 90 bd e7 3b 0e 84 85 3b bf ce 33 3a
       0.003289973 0.007072158 0.00407458 0.00068591157
0000e0 4d 5b ca ba 46 7a 22 ba 77 f8 20 3a 28 23 8d 3b
       -0.0015438587 -0.000619803 0.000614054 0.0043071695
0000f0 27 64 74 bb a9 32 ce 3b 0d bb b1 3a b4 2c 82 3b
       -0.003729114 0.0062926603 0.0013559774 0.003972614
000100 ab 6f f8 ba 1e 1c 15 39 03 71 ff 3a bd 4a a1 3b
       -0.0018954178 0.00014220222 0.0019488636 0.0049222396
000110 f0 a5 4d bb 83 54 b7 3b 35 3d 18 ba 48 ad 70 3a
       -0.0031379424 0.0055947914 -0.00058074604 0.00091810944
000120 a8 92 10 3b 40 18 c7 3a bc e0 53 bb 74 dd 10 bb
       0.002206007 0.0015189722 -0.0032329997 -0.0022104653
000130 61 8c 72 bb c8 d7 89 bb 78 8c b0 3b da 63 cd ba
       -0.0037009942 -0.0042066313 0.005387839 -0.0015670017
000140 84 48 76 b9 f0 d2 c7 3b 9e 46 a4 bb 94 2b e9 bb
       -0.00023487402 0.0060981438 -0.005013301 -0.0071157906
000150 55 23 03 bb 66 ae 43 ba 5b 71 ad 3a b1 a3 25 3a
       -0.0020010073 -0.0007464647 0.0013232635 0.00063186424
000160 03 2d f9 3b 28 2b 25 ba be 4f 8b bb ad 6e 43 bb
       0.007604243 -0.0006300681 -0.0042514494 -0.0029820607
000170 33 13 d3 3b 72 34 9d ba ac a6 c9 38 3c 33 cc ba
       0.0064414977 -0.0011993779 9.615472e-05 -0.0015579234
000180 1c 90 f0 ba fc 7e 93 bb a6 ac 90 39 09 ad 63 3b
       -0.0018353495 -0.0045012217 0.00027594453 0.0034740588
000190 24 2d 73 3a 0c 33 cc 3b f3 54 44 3b e2 7c c1 3b
       0.0009276441 0.006231671 0.002995786 0.00590478
0001a0 e1 a0 1c 3b a8 3a e5 3b 8c 78 c6 3a 07 a0 28 bb
       0.0023899602 0.0069955178 0.0015142127 -0.002573015
0001b0 0c ac 66 b9 8c 29 e4 3a fa 2c 98 3a 9c e9 39 bb
       -0.00021998602 0.0017407401 0.0011610084 -0.0028368002
0001c0 93 13 b0 b9 7b 50 04 3a 56 be 30 3a 7c 50 59 bb
       -0.0003358392 0.0005047393 0.00067422295 -0.0033159545
0001d0 da fc 33 3c 08 48 eb 3a 02 dd 38 3c 51 3d af bb
       0.0109855775 0.0017950544 0.011283161 -0.0053478857
0001e0 8b 6d 75 ba 34 47 8c 3b 16 6c fd b9 ab 7c 6c bb
       -0.00093623315 0.004280949 -0.0004833645 -0.003608505
0001f0 94 40 cf 3b 2b c8 95 3a ab 26 ee ba 25 8c c6 ba
       0.006324837 0.0011427453 -0.0018169483 -0.0015147967
000200 74 56 60 3b 09 a8 35 bb db 05 f5 3b 2d d6 4d 3b
       0.0034231218 -0.0027718565 0.0074775047 0.0031408176
000210 43 72 95 bb c2 c8 01 3b 5c 8b 12 3b d3 b3 ad 3a
       -0.00456074 0.00198035 0.0022360897 0.0013252444
000220 90 95 d9 ba 65 f1 b8 bb 20 77 95 3b 87 7d 0d 3a
       -0.0016600359 -0.005644011 0.00456132 0.0005397428
000230 1b be e8 bb d9 f7 01 3a 19 b2 11 bb d2 bd 32 bb
       -0.0071027405 0.00049578917 -0.0022231399 -0.0027273786
000240 4c 0e fd 3b d8 42 45 bb 00 4f 17 bb 07 86 d2 bb
       0.0077226516 -0.0030099656 -0.002308786 -0.0064246687
000250 5d 01 e4 ba 76 e3 3c bb 51 74 62 ba 87 0b 9c bb
       -0.0017395426 -0.00288221 -0.00086385483 -0.0047621164
000260 d6 7d b3 3b a3 6f 1a 3c 74 d5 81 bb 42 81 97 bb
       0.0054776473 0.00942603 -0.003962213 -0.004623563
000270 e8 ad 09 3b 7f 88 4d ba e8 5f 60 ba 1f 53 87 bb
       0.0021008197 -0.0007840469 -0.0008559213 -0.004129782
000280 2d d9 c4 3b 20 ea c3 3a f9 e7 ba ba 91 1d 45 3a
       0.0060073347 0.0014947094 -0.0014259807 0.00075193594
000290 03 aa 01 bc f4 bc be 3b 5d 0e 9b 3b 06 7c 81 3b
       -0.007914069 0.005820865 0.004731937 0.0039515523
0002a0 6c 76 bc 3a dd dc 27 3a 1b c3 be bb ad 1c fc 3a
       0.0014378554 0.00064034556 -0.005821598 0.001923462
0002b0 69 4b 5e 3b 18 8b 37 bb b7 4a b5 3b 3b 28 d2 bb
       0.003391946 -0.002800649 0.0055325883 -0.0064134873
0002c0 ab 04 f2 3a f2 94 a6 3b 1f 07 b7 3a a1 60 87 bb
       0.0018464526 0.0050836736 0.0013963914 -0.004131392
0002d0 37 de 46 3b 51 75 13 bb 71 ad 12 bc 54 62 1b bb
       0.0030344853 -0.0022500346 -0.0089524845 -0.0023709731
0002e0 43 70 58 bb 34 73 82 ba 32 12 97 3a ec df d5 3a
       -0.0033025898 -0.0009952546 0.0011525808 0.0016317344
0002f0 3b f6 da 3b 5c 10 56 3b 4e 5b 07 39 9e a9 fb 3a
       0.006682185 0.003266356 0.00012908617 0.001920033
000300 50 1d 88 37 e1 f3 5d 39 6a e0 61 bb 58 e8 67 3b
       1.6226113e-05 0.00021167054 -0.0034466037 0.003538629
000310 b0 ac 81 bb f1 00 5a bb ba 2c 23 3c 4b 48 e0 ba
       -0.0039573535 -0.0033264721 0.009959394 -0.0017111389
000320 d1 da 58 3b f3 fb 88 bb 8a 95 2a bc 06 77 6e 3b
       0.003308941 -0.0041804253 -0.010411629 0.0036386861
000330 45 3e 97 3b 4e 50 4e 3a b8 f6 c8 bb bf ba 31 3b
       0.0046155774 0.00078702427 -0.006132927 0.0027119366
000340 b3 4c f6 3a eb c0 0c 3b 82 2c ba 3a 23 9c e5 3b
       0.0018791169 0.0021477293 0.0014203938 0.0070071383
000350 30 db 26 bb 66 f0 8b ba e0 40 fe 37 c7 1f 7d b8
       -0.0025460236 -0.0010676503 3.030937e-05 -6.0349495e-05
000360 80 93 9f 3b 0f e3 e5 3b 49 60 64 3b 92 2e a9 bb
       0.0048698783 0.007015593 0.003484743 -0.0051630223
000370 8f 5d 2f ba 26 ad e7 3a 81 53 02 3c 0b d8 8c 3b
       -0.00066896615 0.0017675504 0.007954479 0.0042982153
000380 3d d0 95 3b 30 53 87 3b 03 33 23 bb 0d 1c d1 ba
       0.004571943 0.00412979 -0.0024902232 -0.0015953794
000390 98 da ac 39 9b e8 38 3b eb d7 48 3b e1 38 f1 3b
       0.00032969262 0.0028214816 0.0030646275 0.007361517
0003a0 61 0f 90 3b 28 d4 e8 39 6d 50 0f 3b 55 3e ac bb
       0.0043963646 0.00044408557 0.0021868006 -0.005256454
0003b0 07 41 26 3b dd 7d f5 3a 0f a3 c1 bb 4d f6 52 bb
       0.002536835 0.0018729527 -0.0059093307 -0.0032190264
0003c0 54 ef c7 3a 9d 9e 33 bb 5e 6d 3c 3a 94 f3 08 3b
       0.001525382 -0.0027407773 0.0007187928 0.0020897137
0003d0 ae 0d 71 bb c9 fa 69 3b d3 ce e2 3b a9 a4 fe ba
       -0.0036781835 0.0035702458 0.006921628 -0.0019427735
0003e0 b9 e4 c8 bb 57 db 3f 3a 3d 39 ec ba 53 a4 d0 3b
       -0.0061307815 0.0007318756 -0.001802243 0.006367245
0003f0 13 ab 09 bc 6b b6 9a bb a7 b1 30 ba 0c c7 75 ba
       -0.008402604 -0.004721453 -0.00067403394 -0.00093756686

hidden_layers.0.linear.bias f4 [256]
000000 09 54 fa bc 29 80 f1 bc c2 76 55 3d 69 42 9c 3c
       -0.03055765 -0.029480057 0.05211521 0.019074636
000010 f9 06 24 bd e2 55 3d bd 77 c8 12 3d 36 a2 4c 3d
       -0.040045712 -0.046224482 0.03583571 0.049959384
000020 f9 99 b0 bc db fb 00 3d 2d 74 74 3d 03 f7 47 3d
       -0.021557795 0.031490188 0.059681106 0.048819553
000030 41 6d 35 3d 39 8d 35 bd 92 09 1d bd 8b 83 90 3c
       0.044293646 -0.044324134 -0.038339205 0.01764085
000040 4e 8a 83 3c de d5 d2 bc ea 74 59 bd dc 8d 6a bd
       0.01605716 -0.025736745 -0.053090014 -0.057264194
000050 25 de 3f bd 76 99 3d bc 51 1c 2d 3d 70 f2 28 3d
       -0.046842713 -0.0115722325 0.042263333 0.04124683
000060 b2 8c 67 bd 68 d0 55 bd 41 cd b5 bc 9d fa 51 bc
       -0.056530662 -0.052200705 -0.0221926 -0.0128160985
000070 ac 04 42 bd e5 e9 65 bc d3 6b 71 3d 5e 18 81 bd
       -0.047367737 -0.014032816 0.05894072 -0.06303476
000080 bf e6 39 3b 3f 3b cc bc ae e5 86 bb d4 f4 fc 3c
       0.0028366295 -0.024930594 -0.0041167354 0.030878462
000090 5b cb f1 bc 70 cc e3 3c ad 71 15 3d 13 5d b8 bc
       -0.029515913 0.027807444 0.036485363 -0.022505319
0000a0 b4 87 2f 3d b1 cc 7e 3d 8a ae 1b 3d a4 e5 47 3b
       0.042854026 0.062206928 0.03800825 0.0030501867
0000b0 31 73 d2 3a e8 17 b9 bb 73 19 27 bd f2 81 66 bd
       0.0016056058 -0.005648602 -0.040795755 -0.05627627
0000c0 9a 18 2a bd 64 9b 76 3d d5 13 1d bc 7c 67 51 3d
       -0.041527368 0.060206786 -0.009587248 0.05112408
0000d0 12 9c 1a bc be 49 11 3d cf 86 e4 3c 2d a5 03 bd
       -0.009436624 0.035470717 0.027896313 -0.032139946
0000e0 49 3c 12 bd 2d ae c9 bc fd b3 a7 3b 07 6b 05 bd
       -0.035702024 -0.024619186 0.005117892 -0.032572772
0000f0 5f 2d 44 bd d8 d6 7d bd be 14 6e b9 d3 87 74 bd
       -0.04789483 -0.06197247 -0.00022705176 -0.059699845
000100 0c 98 9d bc 87 d2 ef 3c 45 aa 4f 3d f9 bd 01 bd
       -0.01923754 0.029275192 0.05069949 -0.031675313
000110 cf d0 36 3d bb 19 27 3a 9c 4d 07 3d 73 41 07 bd
       0.04463273 0.00063743786 0.033033 -0.0330214
000120 13 f7 a0 3b 17 fc 4d bd b1 2a 0e bd 9b 66 13 3d
       0.004912266 -0.05028924 -0.034708682 0.035986524
000130 5a c2 47 3d e7 d2 10 3d 04 04 20 3d c8 32 46 3d
       0.048769332 0.035357382 0.03906633 0.048388273
000140 04 35 3e 3d 27 a8 07 bd ae 37 d1 bc 72 f9 ad 3c
       0.04643728 -0.033119347 -0.025539245 0.021237109
000150 08 2f 48 3d ab 6a 70 3d f0 48 28 bd 2f 0b fd b8
       0.048872977 0.058695477 -0.041085184 -0.00012066063
000160 d9 f3 1d bd ad c4 ed 3c 0d 37 05 bd ff e8 74 3b
       -0.03856263 0.029024446 -0.032523204 0.0037370322
000170 51 d5 a3 bc 05 a6 ac ba 6a 2f c8 bb cb 3f 6b bd
       -0.019999178 -0.0013172036 -0.006109168 -0.057433885
000180 c2 e6 c8 bc 14 9e 48 bd 58 f4 3c 3c 90 9a 29 bc
       -0.024524096 -0.04897888 0.011532865 -0.010351792
000190 f9 96 5f 3c 8c 3e 9f 3c 76 d4 1a bd 86 3b 4d 3d
       0.0136468345 0.019439004 -0.037800275 0.050105594
0001a0 e5 b1 98 bb c2 ec 44 3d ef 1d 62 3d 0f 5e b3 bc
       -0.0046598786 0.048077352 0.05520433 -0.021895437
0001b0 74 c0 16 3d 52 39 53 3c f9 e8 5f 3c 4a 3a 72 3c
       0.03680463 0.012892084 0.013666385 0.014784405
0001c0 e8 4f 3a bd 2b 38 14 bd b4 2f 6c bd 5b ec 2a bd
       -0.04548636 -0.03618638 -0.05766268 -0.041729312
0001d0 df 62 c1 bc fc 2d f7 3c db 98 52 bd 0b 5d f4 bc
       -0.023606716 0.030173294 -0.051415306 -0.029829523
0001e0 d4 f9 fa 3c 18 83 51 3d 95 8d 5b bb 8c f2 26 3d
       0.030636705 0.05115041 -0.0033501138 0.040758654
0001f0 17 9f b2 bb 4c db 7a bc cb 8a 43 3d a6 d3 ad bc
       -0.005451094 -0.0153110735 0.047739785 -0.021219086
000200 cb d4 d4 3c d8 4b b6 bc 63 51 09 bd 70 e3 2e 3d
       0.025980374 -0.022252962 -0.033524882 0.04269737
000210 b8 33 86 3c 70 0e 97 3c 25 aa 4a bd 8c 96 40 3d
       0.016382083 0.018439502 -0.04947867 0.047018573
000220 b4 df 61 3c d7 f4 07 bc a1 ca cd b9 ca 7b bc 3b
       0.013786245 -0.00829812 -0.00039251617 0.0057520615
000230 5c c1 28 3d 86 b9 28 bd cf 7b fd 3c 42 89 b6 bc
       0.041200027 -0.041192554 0.030942826 -0.022282247
000240 53 4e 26 3c 8a 44 bb 3c dd 05 5c 3c 61 f1 e4 3c
       0.01015051 0.02285983 0.013429132 0.02794713
000250 b3 9a fd bc 99 66 42 bc 74 02 b1 bb 58 2e 11 3d
       -0.030957555 -0.0118652815 -0.0054019038 0.035444587
000260 33 53 fc bc 8b 05 8a bc 5b 9e 31 bd eb 7b ea bb
       -0.030801391 -0.016848346 -0.04336391 -0.0071558855
000270 aa 3e a1 bb d5 86 42 3c 64 62 61 3d 6a 15 5c 3d
       -0.0049208 0.011872967 0.055025473 0.05373136
000280 64 24 9d bc be 8e 92 bc 9c 42 07 3d cd d8 94 3b
       -0.019182391 -0.01789033 0.033022508 0.004542446
000290 b1 31 1a 3d cd 43 f7 3c dc 9d 7d 3c 96 e4 87 3c
       0.037645046 0.030183697 0.015479531 0.01658849
0002a0 d1 9c 75 3d 6d 88 48 3d e1 df 5e bc 63 0e 21 bd
       0.059964005 0.04895823 -0.013603182 -0.03932036
0002b0 cf ab 5a 3d e7 f4 43 bd 5a 04 86 bd c5 e4 ab 3c
       0.053386506 -0.04784098 -0.06543799 0.02098311
0002c0 75 c5 38 3d a4 90 8c 3c 59 93 64 bd c8 ef 50 3d
       0.045110185 0.017158814 -0.055804584 0.051009923
0002d0 ea e7 8a 3c 9e 15 94 bc ac 23 83 3b 08 f2 64 3d
       0.016956288 -0.018076714 0.004002055 0.05589488
0002e0 ea 74 1c bd 2a 9f 49 bd f0 c6 33 bd c7 1c 3c 3c
       -0.038197435 -0.049224056 -0.043890893 0.01148147
0002f0 ad 43 8b 3c a6 5a 66 3d cd 48 ec 3c 88 eb 20 3d
       0.017000044 0.056238793 0.028843308 0.03928712
000300 ee 4c a0 3c a2 91 cf bc 08 00 12 3d 6a d5 6c bd
       0.019567933 -0.025337998 0.03564456 -0.057820715
000310 0f 93 a4 bc 19 64 e8 bc 52 21 ee 3c 51 40 70 3a
       -0.020089654 -0.028368043 0.029068623 0.00091648573
000320 c6 50 24 3d 20 ff 0c bd fe 16 74 3d 99 83 eb 3c
       0.040116094 -0.034422994 0.05959224 0.028749274
000330 b3 de 94 bb a2 d7 f4 bc db ec 0f 3d 1c 45 32 3d
       -0.0045431494 -0.029887978 0.035137992 0.04352294
000340 71 d5 41 3d 2b 6e bf bc 3f 5b 23 3d 93 56 ae bc
       0.047322694 -0.023367962 0.03988194 -0.021281516
000350 1f e4 61 bb 75 b3 4d bd ac 2a 4f 3d 42 dc 2e bd
       -0.0034468246 -0.05021997 0.050577804 -0.042690523
000360 31 67 0a 3d 8f 2c 6a bd c6 77 66 bd 37 53 31 3d
       0.033789817 -0.0571714 -0.05626657 0.04329225
000370 ff c1 08 3d a9 2b e3 3a 15 eb 5c 3d bd 0c 09 3d
       0.033388134 0.0017331737 0.05393513 0.033459414
000380 89 cb 48 3d f9 40 67 3d 4c 4c ed bc b8 20 dd bb
       0.04902223 0.056458447 -0.028967045 -0.006748285
000390 a9 4a 25 3d 78 b9 0e 39 7e 49 38 bd 7c 82 ff 3c
       0.040354405 0.00013611268 -0.044991963 0.03119015
0003a0 42 1e 3e bd a1 54 64 bd d4 92 a7 bc cc c0 35 bd
       -0.046415575 -0.05574477 -0.020455755 -0.04437332
0003b0 75 d2 49 bd f8 14 d1 bc e0 b7 e0 bc 46 9e c1 bc
       -0.049272973 -0.025522694 -0.027431428 -0.023635041
0003c0 e5 cf fd bc b1 81 11 bd 77 41 62 bd f0 ae a4 bb
       -0.03098292 -0.035524074 -0.055238213 -0.005025737
0003d0 51 f2 84 bd ef 50 81 bd b0 21 25 bd 15 5d 2b bd
       -0.06491531 -0.06314265 -0.04031533 -0.041836817
0003e0 cf 69 d1 3b f4 3b a5 bb 46 0e e6 bc 86 83 b9 3c
       0.006390787 -0.0050425474 -0.028082978 0.022645723
0003f0 53 73 e3 3c 16 4c 1d bd 6f 14 92 3c 3e 25 45 bd
       0.027764952 -0.03840264 0.01783201 -0.04813122

hidden_layers.1.linear.weight f4 [256, 256]
000000 a0 5d 55 3a 47 45 be 3b 67 44 80 3b 44 cc 8e 3b
       0.00081392564 0.0058065983 0.003914404 0.0043578465
000010 f3 9d a1 bb 8d 87 d4 39 68 ee 75 bb 7c 19 87 3a
       -0.004932159 0.00040536784 -0.0037526134 0.0010307278
000020 51 ad ac 3a 2b 96 de ba 16 43 2b 3a 9a 38 90 bb
       0.0013174211 -0.0016982009 0.0006533129 -0.0044012787
000030 f4 94 7e 3b 68 78 84 bb 0d 84 3f 39 07 48 0f 3a
       0.0038846107 -0.004042674 0.00018264372 0.000546575
000040 7a 30 94 ba b6 6a 87 3b 09 04 c9 3a 1c 5e 84 bb
       -0.0011305951 0.004132594 0.0015336286 -0.004039539
000050 2c 24 11 3b 07 8b 2f bb 69 e5 81 ba 43 3d 83 ba
       0.0022146804 -0.0026785748 -0.0009910288 -0.0010012764
000060 5d 90 63 3b 75 bb ae 37 7e 52 a5 ba 2a 75 f1 b7
       0.0034723498 2.0829708e-05 -0.0012613086 -2.8783998e-05
000070 ff 8b cc 3b dd 22 c7 bb d2 b2 2f 3a 0b f9 13 bc
       0.006242275 -0.006077154 0.00067023665 -0.009031544
000080 6f 17 b9 3b 81 e9 30 3b 19 2d ae b9 5d 7b 08 3a
       0.0056485455 0.0026994648 -0.00033221467 0.0005206371
000090 5d c7 11 3b ec 6c 19 3b c9 d4 62 3b 08 03 62 3a
       0.0022244074 0.002341087 0.0034611693 0.00086216675
0000a0 98 f4 3f b9 1e c6 8e 3a 43 36 a9 3a fa cd 25 bb
       -0.00018306298 0.0010892784 0.0012909848 -0.0025299774
0000b0 1a 8b 96 bb 8c 60 99 bb 3d 12 b3 3b 2a 7d 16 bb
       -0.004594219 -0.0046806987 0.0054648207 -0.0022962787
0000c0 20 14 3e bb e2 45 28 bb ed ab 69 bb 54 e4 f5 3b
       -0.0029003695 -0.002567642 -0.0035655454 0.0075040255
0000d0 39 af 80 3b 8e 85 2d 3a 85 32 83 3b 2b fc 0f 3c
       0.003927138 0.00066193275 0.004003825 0.008788149
0000e0 81 08 ca 3b bb 07 59 ba 98 08 11 3b 0d 77 25 ba
       0.0061655645 -0.0008279045 0.0022130366 -0.00063119904
0000f0 52 a5 b6 3b bf 2d 93 3a 03 8c ad 39 7d 4a 91 3b
       0.005573907 0.0011228843 0.00033101448 0.0044339285
000100 31 ea 60 bb 50 3c 34 3b 03 1e c1 bb 3e 3c 1c 3b
       -0.0034319276 0.002750177 -0.0058934703 0.0023839618
000110 d5 37 47 bb b6 6d cc 3a b7 61 ba 3b f5 cf cc ba
       -0.0030398269 0.0015596661 0.005687918 -0.0015625941
000120 84 40 41 3b 8e 71 34 bb 5b 4a 2b 3a 68 55 8c 3b
       0.0029487917 -0.0027533504 0.0006534212 0.004282642
000130 5a f9 ba bb 11 a4 f4 bb fa 2d 67 bb 54 1f 81 bb
       -0.0057059946 -0.0074658473 -0.0035275207 -0.003940502
000140 4f dd 20 3b c2 73 8e 3a e2 41 70 ba b4 0b 63 3a
       0.0024545973 0.0010868239 -0.0009165091 0.00086611067
000150 b2 21 aa ba b6 15 09 bb 26 52 d9 ba a0 56 97 ba
       -0.0012980013 -0.0020917482 -0.0016580268 -0.0011546202
000160 9e 1f 39 3b 42 37 b7 bb 4d dd 03 3c eb 54 37 3b
       0.0028247605 -0.005591304 0.008048368 0.00279742
000170 69 a1 8b bb a0 6c 9e 3b 13 96 90 3b 65 24 8a 37
       -0.004261185 0.0048347265 0.0044124215 1.646783e-05
000180 be 9d 99 3a 5f 17 b7 ba ee b7 29 bb 7e 8d 2a 3a
       0.0011719984 -0.0013968757 -0.0025896984 0.00065060693
000190 bf a7 b4 3b d1 3c bb b9 b1 f2 6a bb ea bd 8b bb
       0.005513161 -0.0003571273 -0.0035850222 -0.004264583
0001a0 49 ef 2c 3b 77 0a 70 bb 23 9c d4 3b 30 8c db ba
       0.0026387742 -0.0036627331 0.0064883395 -0.0016750153
0001b0 6c b5 2c bb 94 17 13 bb 42 3a b0 3b c2 7b 10 3c
       -0.0026353253 -0.0022444474 0.0053780386 0.008818569
0001c0 0d ee 8f bb 30 67 3a bb 8b 4a bf bb 73 bd 45 3b
       -0.0043923915 -0.0028442852 -0.0058377436 0.0030172735
0001d0 d7 7b d9 ba 14 73 84 ba 48 2b 9b b9 8b 28 8e ba
       -0.0016592693 -0.0010105097 -0.0002959615 -0.0010845823
0001e0 47 45 48 3b 00 f0 15 bb ce 43 de b9 33 1b 3f 3b
       0.003055887 -0.0022878647 -0.00042393658 0.00291605
0001f0 06 8f af ba 4f 88 de 3a ed 4d f1 3b 68 94 a7 bb
       -0.0013394065 0.0016977879 0.007364026 -0.005114127
000200 f3 78 12 3b 10 4d d7 ba 66 ff 5a bb 8c e5 92 3b
       0.0022349923 -0.0016426165 -0.003341639 0.0044829305
000210 93 e6 6f bb 4c e9 e8 b9 a1 2c ba 3b f9 ab ac 3b
       -0.0036605939 -0.00044424308 0.0056815897 0.005269524
000220 9b bf 3a 3b 24 07 5c bb d9 05 ff bb 4c 88 82 3b
       0.0028495553 -0.0033573592 -0.0077826795 0.003983533
000230 2a b6 e1 bb 56 6a 8d b9 27 96 f8 39 d0 4b a7 bb
       -0.0068881707 -0.00026972842 0.00047414118 -0.005105473
000240 f6 0e 54 3b 81 b1 1b bb 74 cc ad bb 30 2a f4 3b
       0.003235755 -0.0023756924 -0.0053039137 0.007451318
000250 4b fc 49 bb e8 fe da ba ba e6 92 bb a4 c2 54 bb
       -0.0030820544 -0.0016708048 -0.004483071 -0.0032464648
000260 4b c8 34 bc ba 9c 69 ba 06 fa a4 3b 74 f9 25 bb
       -0.011034082 -0.00089115987 0.005034688 -0.0025325688
000270 c8 d3 6b 3a 62 2a 7a bb 2b c6 92 bb 48 0b 4f 3b
       0.00089960964 -0.0038172235 -0.00447919 0.0031592418
000280 14 03 6b bb ea 4b 20 bb 01 af 2f ba 7b 88 b4 3b
       -0.003585999 -0.002445931 -0.0006701798 0.005509434
000290 40 16 c2 ba 89 9e 8b bb 9b 5f dd ba 96 78 a2 ba
       -0.0014807656 -0.004260842 -0.0016889455 -0.0012395557
0002a0 a1 b3 25 3a 1d ff cb 3a 2c 7a be 3a 94 75 aa 3a
       0.0006321017 0.00155637 0.001453226 0.0013005012
0002b0 19 e8 de 3b 72 e9 8c ba d2 9c fc 38 1a c1 ad bb
       0.0068025705 -0.0010750724 0.000120455064 -0.0053025605
0002c0 cf 63 d4 3b 6a 40 c3 3a e7 9d 76 3b 3a 61 64 3b
       0.0064816247 0.0014896516 0.0037630738 0.003484799
0002d0 1a e9 b5 3b a7 39 7d 3b a6 96 94 3b ed 91 1c ba
       0.0055514695 0.00386391 0.0045345603 -0.00059726724
0002e0 8d 50 3c bb c7 c5 8c b8 ec 67 20 3b a1 a3 e2 bb
       -0.0028734535 -6.712559e-05 0.0024476005 -0.0069164787
0002f0 77 6b b7 3b 78 7c 8c 3b 12 6a 61 bb e3 fe f9 bb
       0.0055975276 0.004287299 -0.0034395498 -0.007629262
000300 fa e0 29 bb 7b 19 e7 bb e2 65 2a bb fb 0b 55 3b
       -0.002592145 -0.007052598 -0.0026000668 0.0032508362
000310 49 13 46 bb a0 4a dc 3a d9 02 98 3b 19 7b d7 ba
       -0.0030223897 0.0016806908 0.0046390113 -0.0016439884
000320 d1 2a 47 3b 27 39 40 ba f2 0b fa ba 6d 2a 56 bb
       0.003039051 -0.0007332735 -0.0019077046 -0.0032679096
000330 59 fc 79 b9 9c db b1 37 99 d5 81 ba 48 29 b4 ba
       -0.00023840497 2.1202308e-05 -0.0009905576 -0.0013745213
000340 39 ea fc bb 43 12 23 3b 85 79 cd 3b b0 51 8a 3a
       -0.007718351 0.002488271 0.00627059 0.0010552909
000350 31 af a7 bb 5a af 1a b9 a1 c8 af bb f9 ef fb bb
       -0.00511732 -0.00014751908 -0.005364493 -0.007688519
000360 68 23 7c 3b ef b7 c4 ba 5c 93 0d bb d6 8f 6d 3a
       0.0038473252 -0.001500843 -0.0021602726 0.0009062266
000370 19 f7 19 3a 8a f9 b2 ba cf 4f b4 ba 52 63 ac bb
       0.0005873307 -0.0013654691 -0.0013756695 -0.0052608633
000380 b9 ab 91 ba 3b 9f a6 3a 74 b4 5e bb 08 f9 ee 3a
       -0.0011113799 0.0012712249 -0.003398207 0.0018232176
000390 39 1d 53 bb 8e 7a 63 ba dd 3e 65 bb ad 70 00 bb
       -0.0032213463 -0.0008677625 -0.0034980096 -0.001959841
0003a0 fe 24 1a 3b eb 90 08 3b d8 a5 d1 3a 6d 99 1a 3b
       0.0023520584 0.002083833 0.001599486 0.0023589984
0003b0 13 91 bd ba 28 54 cd ba ff c7 a2 bb 88 db ef 39
       -0.0014462791 -0.0015665339 -0.004967689 0.00045749196
0003c0 70 c5 6b bb 89 c4 b3 3b 47 e2 38 bb 22 f3 ca 3a
       -0.0035975836 0.0054860753 -0.0028211044 0.0015483836
0003d0 f0 0f 22 3b c0 99 98 bb 60 cd 2b b9 ce 02 96 ba
       0.0024728738 -0.0046570003 -0.00016384339 -0.0011444928
0003e0 a1 17 04 3b a2 94 ba ba bb 50 f7 3b 7b f7 23 3c
       0.0020155685 -0.001423497 0.0075474656 0.010007734
0003f0 a4 56 99 3b 05 e2 e3 38 63 5b 11 b9 73 e6 b0 39
       0.004679518 0.00010866303 -0.00013862322 0.00033741034

hidden_layers.1.linear.bias f4 [256]
000000 bc 12 9a bc ca 7d 6d bd 8c e3 83 3d e2 7b 31 bd
       -0.018807761 -0.05798129 0.064398855 -0.043331034
000010 0d b6 6e 3d 1f 01 2e 3d 1b dd b5 3c a4 1e 8f bc
       0.058279086 0.042481538 0.022200158 -0.017470665
000020 ce ad 07 bc 0e 3e f4 bb be 86 27 3d 58 3a ab 3c
       -0.008281184 -0.0074536866 0.040899985 0.020901844
000030 0d 17 89 bc 63 03 30 bb 2a 94 7d 3d d7 27 41 bc
       -0.016734624 -0.0026857487 0.06190888 -0.011789284
000040 b2 79 24 3d 18 83 64 bd d3 1c c6 bb 29 4b b1 3c
       0.04015512 -0.055789083 -0.0060459166 0.021642284
000050 4c 25 5b bd ed dc 68 3d 0d 79 5a bd 9e 69 1e bd
       -0.053502366 0.056851316 -0.0533381 -0.038674943
000060 e5 2f f9 3c 5b 69 18 bd 96 ce 3c 3c 8b 6b 14 bd
       0.030418346 -0.03720985 0.011523863 -0.036235373
000070 4d c7 00 3d 4d af 7e 3c 60 15 38 bc 9e 6e 0d 3d
       0.031440068 0.015544725 -0.011235565 0.03452932
000080 11 00 83 3d c8 19 5e bd 9d 92 3e bd 46 ef 12 3c
       0.06396497 -0.054223806 -0.04652654 0.00896818
000090 21 8c 64 3d b7 32 58 3d 01 6c d8 3b c5 8c 3c 3d
       0.0557977 0.05278274 0.006604672 0.046032686
0000a0 b1 65 62 bd ae 9a 48 bc 26 4c 40 bd 34 7f 62 bc
       -0.05527276 -0.01224391 -0.04694762 -0.013824273
0000b0 63 3f 74 bd 94 87 3a 3b 3a a8 55 3d 30 d2 8c 3c
       -0.059630763 0.0028462159 0.052162386 0.017190069
0000c0 a8 d8 cd bc e7 e2 31 3a e3 ef 44 3d f7 19 5c bb
       -0.025127724 0.0006785825 0.048080336 -0.0033584812
0000d0 92 61 d7 bc 2f 86 74 3d f9 b5 62 bd 17 5f b2 bb
       -0.026291642 0.05969828 -0.055349324 -0.0054434645
0000e0 3b 38 d2 bc b6 fe 05 bc c5 33 23 3d 1b d9 69 bd
       -0.025661578 -0.008178404 0.039844293 -0.057091814
0000f0 16 d1 2e bd c0 95 1b bd 4d c4 2a bb e6 be 22 bd
       -0.04267987 -0.03798461 -0.0026056946 -0.039732836
000100 f1 d5 55 bd 5d 3b 31 bc 41 76 0f bd 37 2f 58 bd
       -0.052205984 -0.010817376 -0.035024885 -0.052779403
000110 49 fd c5 3b e7 34 68 3d fd 4e 1d bd 6d 0d 5b 3c
       0.006042157 0.056691077 -0.038405407 0.0133699
000120 74 44 aa 3b 1b 12 9a bc a2 54 1f 3d b9 9f 28 3d
       0.0051961485 -0.018807461 0.03889907 0.04116795
000130 61 3c 07 3d e7 64 41 bd 01 bb 35 3d d9 a1 d0 3c
       0.033016566 -0.04721537 0.044367794 0.0254678
000140 18 6f fb 3c 5e e4 79 3c 8b 29 8a 3b cd fd 78 3d
       0.030692622 0.015252201 0.004216378 0.06078892
000150 95 f8 bd ba e0 e3 60 3d 05 d9 e0 3c 8f 39 f0 3c
       -0.0014493639 0.05490482 0.027447233 0.029324321
000160 be c4 00 3d 80 14 9b bc e2 23 9a bc 61 87 6d 3d
       0.031437628 -0.018930674 -0.018815938 0.057990436
000170 ea 1d 8e 3c dc cf 36 bd 55 c1 78 3c eb 50 ec bb
       0.017348249 -0.044631824 0.015182813 -0.0072117946
000180 ef b5 dd 3c 7c 56 c4 bc fb 4a d7 bc b0 5d 32 bd
       0.027064292 -0.02396702 -0.02628087 -0.04354638
000190 a3 6d aa bc 51 6d 77 bd 5f c9 63 3d 10 b0 3b bd
       -0.020804232 -0.060406987 0.055611964 -0.045822203
0001a0 19 ad 12 3d 95 f6 34 bd d5 35 0d bd 7f 35 76 bd
       0.03580961 -0.04418047 -0.034475166 -0.06010961
0001b0 ac f3 02 bc 03 46 71 3d 06 4e e4 3c 9d 4e 43 bd
       -0.007992666 0.05890466 0.027869236 -0.047682393
0001c0 ce f5 43 3d d9 85 2b 3b 91 05 01 3c be c3 07 3d
       0.04784184 0.0026172309 0.007874862 0.03314566
0001d0 95 8d 3d bd 6a 87 2e bc bb 52 6f 3d 4d 82 31 bd
       -0.0462776 -0.010652402 0.058428507 -0.043337155
0001e0 e3 ea 6e 3d 75 d2 26 3d 1f f8 39 bd 17 cd 32 bd
       0.058329474 0.04072805 -0.045402642 -0.04365262
0001f0 a2 70 8d 3c c8 a3 df 3c 27 ac 23 3d d3 c1 50 bd
       0.017265622 0.027299777 0.0399591 -0.050966095
000200 10 d4 d0 3c bc 98 3f 3d 2a 58 b8 bc c0 73 a8 3c
       0.025491744 0.04677652 -0.022502977 0.020563006
000210 ab 0f 95 bb 08 24 1d 3d 2f fe 17 bd fa 6e 5e 3d
       -0.004548987 0.03836444 -0.037107643 0.054305054
000220 57 cd 3a 3a 58 f6 17 bd e0 00 de 3c 89 96 da 3c
       0.0007125935 -0.037100166 0.027100027 0.026683109
000230 58 d8 5b bd 62 d6 30 bd 96 97 2a 3d 43 3f e3 3c
       -0.05367312 -0.0431732 0.04164847 0.027740126
000240 dd d8 df 3c ae 76 bc 39 0d 89 16 3d f6 fb bb bb
       0.027325088 0.00035946578 0.036751796 -0.005736823
000250 3c ca 58 3d 50 8e 4e bc 86 2d 04 bd 1e be 4e bd
       0.05292724 -0.012607172 -0.032269977 -0.05047428
000260 62 55 6b 3d b0 6e 05 3d 7e dc d1 bc 4e 1f 98 bb
       0.057454474 0.032576263 -0.025617834 -0.0046424037
000270 f8 55 27 bd ab 80 4c 3d 12 e2 31 bc b1 5f ff bc
       -0.04085347 0.049927395 -0.010857122 -0.031173559
000280 fe de 5d 3d 1f ea 28 3d 42 4f d4 bc 0e 5a aa ba
       0.05416774 0.0412389 -0.0259167 -0.0012996809
000290 6d ea 83 bd 42 47 3b bd df 9d da bc 9c 6e 72 bd
       -0.064411975 -0.045722254 -0.026686607 -0.059187517
0002a0 b4 b0 c2 3c e3 54 8c 3c ce fe 30 3d 3b c5 3a bd
       0.0237659 0.01713032 0.04321175 -0.04559825
0002b0 a6 8b a4 bb 01 a9 2a bb eb dc cd 3c c0 7e 85 bc
       -0.00502153 -0.0026040676 0.025129756 -0.01629579
0002c0 aa 13 15 3b 3d d2 f3 bc d6 28 80 3d 2d 89 fe 3c
       0.0022747316 -0.029763335 0.06257789 0.03107127
0002d0 5e e7 1d bd 80 98 8a 3a 14 8c 31 bb 33 62 e3 3b
       -0.038550727 0.0010574013 -0.002709155 0.0069391965
0002e0 3d c4 e0 bc fc 2b 65 3d dd c7 a7 bc 1f 89 68 bc
       -0.027437324 0.05595015 -0.020481044 -0.0141928485
0002f0 f2 a9 47 bd b4 10 83 bc a3 c7 46 3d 47 7f 3e 3d
       -0.048746057 -0.015999176 0.048530232 0.0465081
000300 e6 1b 73 3d e3 51 2a 3d ff 68 51 3d 99 b4 9c bc
       0.059352778 0.041582 0.051125523 -0.019129084
000310 4e a8 a7 3c da ba c7 bc a3 a8 42 3d 64 2b 90 3b
       0.020465996 -0.02438109 0.047524106 0.004399704
000320 f1 48 6a bd 93 53 77 3d 1c 98 00 3d f5 bd 8c bc
       -0.05719847 0.060382437 0.031395063 -0.017180422
000330 a5 2c 6f bd 61 a7 41 3d ee a2 60 bc 1d f2 62 bd
       -0.058392186 0.047278766 -0.01371072 -0.05540668
000340 38 f7 84 3c 44 87 3f bd 53 6e 7e 3d 5f be 45 bd
       0.016231164 -0.04675986 0.062116932 -0.048277255
000350 1b 4b 6c 3d 95 69 fb bc 91 a0 e0 3c fa cd 72 3d
       0.057688814 -0.030689994 0.027420314 0.059278466
000360 fb 7d 79 bc 11 b8 01 3d 4e 47 8b 3c ef 0e fa bc
       -0.01522779 0.03166968 0.017001774 -0.030524699
000370 7c 2c 04 bc 08 51 92 bc 46 c7 89 bb a1 f7 2b bd
       -0.0080672465 -0.017860904 -0.0042046634 -0.041984204
000380 06 cb 66 bd 93 48 1a bd dc 1d 29 3d 0f 36 63 3c
       -0.056345962 -0.03766687 0.04128824 0.013867869
000390 75 56 29 bc d4 60 31 3d 04 26 31 bd a5 55 47 3d
       -0.010335554 0.043305233 -0.043249145 0.04866566
0003a0 14 e8 49 3d ef 8c 68 bd 1f 59 29 3d 5a c3 5e bd
       0.049293593 -0.05677503 0.041344758 -0.05438552
0003b0 e9 3b 5d bd 9a ba db bc 1c 04 05 bd bf 6e 5c bd
       -0.054012213 -0.026822377 -0.032474622 -0.053816553
0003c0 f0 1a 82 bd 88 43 0e bd 31 db 80 bb b9 6b 87 bc
       -0.06352794 -0.03473237 -0.0039323797 -0.016530858
0003d0 91 1c 2a bd f4 83 31 3d a2 9d c3 bc d8 fc 4a 3d
       -0.04153115 0.04333873 -0.023878876 0.049557537
0003e0 ae 73 74 3d 19 9f 2b 3c 2b 43 79 bd 81 69 2b bd
       0.059680633 0.010474944 -0.060855072 -0.041848663
0003f0 f4 cc 63 3d b0 a5 e5 3c ad 09 3c bc de 51 90 bb
       0.05561538 0.028033108 -0.011476916 -0.0044042906
