My-Siren/result/image_fit/tanh/model_final.pth (torch, 796935 bytes, 9 tensors)

first_layer.linear.weight f4 [256, 2]
0	0xbe8e5254	-0.27797186
1	0xbd242513	-0.04007442
2	0xbd668126	-0.05627551
3	0x3f845d08	1.0340891
4	0xbf6bbb7e	-0.92082965
5	0x3d78a2ff	0.06070232
6	0xbdd401d7	-0.103519134
7	0xbe33b795	-0.175505
8	0xbf3ce825	-0.73791724
9	0xbee4c229	-0.44679382
10	0xbed7570a	-0.42058593
11	0xbda28316	-0.07935159
12	0xbf642fe6	-0.8913559
13	0x3d7b5b76	0.06136652
14	0xbe0484aa	-0.12941232
15	0x3d9af184	0.07565597
16	0xbec95e92	-0.39329964
17	0xbe91233b	-0.2834719
18	0xbea972b4	-0.33095324
19	0xbf2705ec	-0.6524341
20	0xbf2c2a36	-0.6725191
21	0x3f09175e	0.5355128
22	0x3e056c7a	0.13029662
23	0x3e94c5f1	0.29057267
24	0xbe963e1c	-0.2934426
25	0xbdf590df	-0.119905226
26	0x3ea03141	0.31287578
27	0x3e6ff0e2	0.23431733
28	0x3e1cac74	0.1530016
29	0xbef47fc3	-0.47753724
30	0x3ef5110c	0.47864568
31	0xbe418ce6	-0.18901405
32	0x3ea236aa	0.3168233
33	0x3dc19013	0.09451308
34	0x3effcdcb	0.49961695
35	0x3ec6ac83	0.3880349
36	0xbea6c6bd	-0.325735
37	0xbe1fdf8c	-0.1561262
38	0x3c369419	0.011143708
39	0xbe0a7777	-0.13522135
40	0x3ec5cf6f	0.38634822
41	0xbf0efb6f	-0.5585241
42	0x3d7a3312	0.06108386
43	0x3e99c990	0.30036592
44	0x3e8bf103	0.27332315
45	0x3fafe559	1.3741866
46	0x3cfb523d	0.030678863
47	0x3f1f4572	0.6221534
48	0xbe200f2a	-0.15630785
49	0xbed5cab8	-0.41756225
50	0xbec5d8ac	-0.3864187
51	0x3ea15bca	0.31515342
52	0xbe38c648	-0.18044388
53	0x3e209182	0.15680507
54	0xbce1c64e	-0.02756038
55	0xbe4888a1	-0.1958337
56	0xbf1417dc	-0.57848907
57	0xbf4abf5d	-0.7919825
58	0x3eac42b5	0.33644643
59	0x3e69d6c1	0.22835828
60	0xbea29ce1	-0.31760314
61	0xbdaf7ed4	-0.085691124
62	0x3ea56cf8	0.323097
63	0x3d22d948	0.039757997
64	0x3f2bc882	0.67102826
65	0xbe8723e4	-0.2639457
66	0xbe8a7acb	-0.2704681
67	0x3e9380f8	0.28809333
68	0x3e0b789d	0.13620229
69	0x3f45c894	0.7725918
70	0x3e3c76c5	0.18404682
71	0x3ef41cd0	0.47678232
72	0xbdb7ef10	-0.089811444
73	0x3ea6d21b	0.32582173
74	0x3ec7c9ca	0.3902114
75	0x3da44ed5	0.080228485
76	0xbe7a4734	-0.24441224
77	0xbc67fb9e	-0.014159111
78	0xbf04a3c8	-0.5181241
79	0xbf2ebea7	-0.6825966
80	0xbe85de16	-0.26146
81	0x3e59b398	0.21259916
82	0x3f0673f9	0.5252071
83	0xbe04a37f	-0.12952994
84	0xbedc9a1d	-0.4308633
85	0x3f23fcea	0.6405779
86	0x3f617e65	0.8808349
87	0xbe8bb4e8	-0.27286458
88	0xbeec33c3	-0.4613324
89	0x3e2f0f8b	0.17095773
90	0xbd467af9	-0.04845712
91	0xbde6e423	-0.112739824
92	0x3ea4e7c1	0.32208064
93	0x3f12a6ca	0.5728575
94	0x3e22db57	0.15903984
95	0xbe249061	-0.16070701
96	0x3dc0947b	0.094033204
97	0x3e2d0f59	0.16900386
98	0xbe5e65b2	-0.21718481
99	0x3de79708	0.11308104
100	0xbeaf1be7	-0.34200975
101	0x3d8c2aa1	0.06844068
102	0xbf223c48	-0.6337323
103	0x3ee83452	0.45352417
104	0xbe84b1b2	-0.2591682
105	0xbe88aed0	-0.2669587
106	0xbf067257	-0.5251822
107	0x3e611cca	0.21983638
108	0x3ee89c41	0.45431712
109	0x3e9bd61e	0.30436796
110	0xbe64c5f0	-0.22341132
111	0xbf048489	-0.5176473
112	0x3b17a5de	0.0023139636
113	0xbed1376c	-0.40862596
114	0xbe86d406	-0.26333636
115	0xbe50e1d9	-0.20398654
116	0x3f4b0fdf	0.7932109
117	0x3eb49aea	0.3527444
118	0xbf88b85e	-1.0681264
119	0x3e7edf28	0.24889815
120	0x3f067002	0.5251466
121	0xbeb7df4c	-0.3591255
122	0x3e471b0e	0.19443914
123	0x3d574b6f	0.052562173
124	0x3f354383	0.7080614
125	0x3e43035d	0.19044252
126	0x3f84789f	1.0349311
127	0xbe4eff83	-0.20214657
128	0x3f3ca9e9	0.7369676
129	0xbe246179	-0.16052808
130	0xbed7e403	-0.42166147
131	0xbe06c7a5	-0.13162096
132	0x3f09bcec	0.53803897
133	0xbd7860dd	-0.06063925
134	0xbd68ffa8	-0.056884438
135	0x3d6dd25e	0.05806195
136	0x3e5178cf	0.20456241
137	0xbde9c6ac	-0.11414847
138	0x3b8705e4	0.0041205753
139	0xbf0eb484	-0.55744195
140	0xbe0529c2	-0.1300421
141	0x3b4bbc19	0.0031087457
142	0x3f451ad0	0.7699404
143	0xbf7fe32c	-0.9995601
144	0xbeff91cc	-0.49915922
145	0x3ec88876	0.3916661
146	0x3f4d5b59	0.8021751
147	0x3e4b21ff	0.19837187
148	0x3efd2ce8	0.49448323
149	0xbf7b4bc7	-0.981625
150	0xbe82e3c8	-0.25564408
151	0x3da9df08	0.08294493
152	0xbee63c74	-0.44967997
153	0xbf0985fd	-0.53720075
154	0x3f0cf1d6	0.5505651
155	0x3f368c58	0.713079
156	0xbe89450f	-0.268105
157	0xbe252ebd	-0.1613111
158	0xbe00c515	-0.12575181
159	0xbe16448e	-0.14674589
160	0x3f604d67	0.87618107
161	0x3dbb1c1b	0.0913622
162	0x3d93e543	0.072214626
163	0x3dcc6339	0.09979863
164	0x3e872e8e	0.26402706
165	0x3e271ce1	0.1631961
166	0x3f47af4a	0.78001845
167	0xbee11e08	-0.43968225
168	0xbec61e40	-0.38694954
169	0xbdbea81e	-0.093094096
170	0x3dae9691	0.08524812
171	0xbf44d664	-0.76889634
172	0x3ec35853	0.38153324
173	0xbf1027cc	-0.56310725
174	0xbf90e7f2	-1.1320784
175	0x3f4bb255	0.7956899
176	0x3f27cf58	0.65550756
177	0xbf19305e	-0.5983943
178	0x3c238492	0.009980338
179	0xbdc0d79a	-0.09416123
180	0x3f47ca10	0.780427
181	0x3f311d8d	0.69185716
182	0x3dd8df84	0.10589507
183	0x3e25e27c	0.16199678
184	0x3f44a2d0	0.7681093
185	0xbd312440	-0.04324746
186	0xbcb24b38	-0.021764383
187	0x3eb6fe1b	0.35740742
188	0xbe09c48d	-0.13453884
189	0x3e91e568	0.28495336
190	0xbf1daaa1	-0.61588484
191	0xbd4f8db0	-0.050672233
192	0xbf6c03c8	-0.9219327
193	0x3e9d214e	0.30689472
194	0x3e5640db	0.20923178
195	0x3c0d4c3d	0.008624134
196	0x3e06e189	0.13171972
197	0x3f788f0b	0.97093266
198	0xbd8b2ae0	-0.06795287
199	0x3e233fdb	0.15942328
200	0x3f2c617e	0.6733626
201	0x3e1de1f5	0.15418227
202	0x3f174401	0.5908814
203	0xbe92a7e2	-0.2864371
204	0xbe7e8187	-0.24854098
205	0x3e58a04d	0.211549
206	0xbeeb35c7	-0.45939466
207	0xbef3e296	-0.4763381
208	0xbf4c8414	-0.79889035
209	0x3defe714	0.117139965
210	0xbeeac021	-0.45849708
211	0x3fb0512b	1.377477
212	0xbf124320	-0.57133675
213	0xbdb5873d	-0.08863685
214	0x3d013ae4	0.031550303
215	0xbe524447	-0.20533858
216	0x3d1f3928	0.038872868
217	0xbdc55da4	-0.09637001
218	0x3f0753b9	0.52862126
219	0xbf074bbe	-0.5284995
220	0xbdbb795b	-0.09154006
221	0xbf1e46ec	-0.6182697
222	0x3dbdcd2f	0.09267651
223	0xbdd5ebee	-0.10445391
224	0xbd41b980	-0.047296047
225	0xbf288b2e	-0.6583737
226	0x3e3522ad	0.17689009
227	0xbf7c7aac	-0.9862468
228	0xbf196414	-0.5991833
229	0x3f124570	0.57137203
230	0xbd8fd3ab	-0.07022794
231	0xbee99260	-0.45619488
232	0x3f552926	0.8326591
233	0x3e322082	0.17395213
234	0xbeadd78f	-0.3395352
235	0x3eb2dea2	0.3493548
236	0xbea7879e	-0.32720655
237	0x3e7618d9	0.24032916
238	0x3eb31500	0.3497696
239	0xbea5bae0	-0.32369137
240	0x3f31b1e7	0.6941208
241	0x3e14ca39	0.14530267
242	0x3f4e5d7e	0.8061141
243	0x3ef1cb9f	0.47225663
244	0xbebbeb89	-0.36703137
245	0xbe45493b	-0.19266216
246	0xbf0cee5a	-0.55051196
247	0xbf848b9b	-1.0355104
248	0xbedc59fd	-0.43037406
249	0x3e43abe6	0.19108543
250	0xbf6dfbdf	-0.9296245
251	0xbec4a68a	-0.3840831
252	0xbcb06717	-0.021533532
253	0x3f98dc14	1.1942163
254	0x3f3c9854	0.73669934
255	0x3ee73b30	0.45162344

first_layer.linear.bias f4 [256]
0	0xbe877b9d	-0.26461497
1	0xbeff4ecf	-0.49864814
2	0x3ecfa8c0	0.40558434
3	0xbee881d5	-0.45411554
4	0xbd2a2a5a	-0.041544296
5	0xbf2fff8e	-0.6874932
6	0x3f230727	0.6368279
7	0xbf268905	-0.65052825
8	0xbeac0e69	-0.33604744
9	0xbd4af4eb	-0.04954998
10	0x3d5b1d82	0.053494938
11	0x3e7fa004	0.24963385
12	0xbf20eb01	-0.6285859
13	0x3d4e5369	0.050372515
14	0xbe655b75	-0.2239817
15	0xbe8afdef	-0.2714686
16	0x3e4202c8	0.18946373
17	0xbe145a0e	-0.14487478
18	0xbe8ecd7c	-0.27891147
19	0xbf249368	-0.64287424
20	0xbebb1987	-0.36542913
21	0x3e8c2b06	0.27376574
22	0xbea47da4	-0.32127106
23	0x3e398f7f	0.18121146
24	0xbef09f61	-0.46996596
25	0x3ea2096e	0.3164782
26	0x3f16c228	0.5889001
27	0x3eff011b	0.4980553
28	0x3eb69c32	0.35666043
29	0xbf39e772	-0.7261878
30	0xbf0f4f76	-0.5598062
31	0x3e8db754	0.2767893
32	0xbd95b878	-0.07310575
33	0xbeb9454c	-0.36185682
34	0x3d42dc04	0.047573105
35	0x3f33dc63	0.7025816
36	0xbf36a181	-0.71340185
37	0x3f2d1e27	0.67624134
38	0xbe5444dc	-0.20729393
39	0x3ee2fca4	0.44333375
40	0x3eef2cab	0.46713766
41	0xbeaa4b65	-0.33260646
42	0xbe85d3b0	-0.26138067
43	0xbee10829	-0.43951538
44	0xbda63307	-0.081152014
45	0xbf27003c	-0.6523473
46	0xbe445ca2	-0.19175962
47	0x3f33e527	0.70271534
48	0x3f40d64e	0.75327003
49	0x3f29dcf4	0.6635277
50	0x3ed001f6	0.40626496
51	0x3e562280	0.20911598
52	0xbdc9e76c	-0.09858593
53	0xbe7679cc	-0.240699
54	0x3dfefd02	0.12450601
55	0xbf32f507	-0.6990513
56	0x3eb1dccb	0.34738764
57	0x3f453593	0.7703487
58	0x3d90d125	0.07071141
59	0x3ef982db	0.48732647
60	0xbf1930b5	-0.59839946
61	0x3f13876a	0.576285
62	0xbe5a096a	-0.21292654
63	0xbeecf728	-0.46282315
64	0xbedcc625	-0.43119922
65	0xbe8a795a	-0.2704571
66	0x3ef5487c	0.47906864
67	0x3f058e43	0.521702
68	0xbea9061b	-0.3301247
69	0xbed907a6	-0.42388648
70	0xbf022a32	-0.50845635
71	0x3cd26aae	0.025685634
72	0xbdea8b7f	-0.11452388
73	0xbe8dd591	-0.27702
74	0xbd261bb7	-0.040553775
75	0xbea18d48	-0.31553102
76	0xbc6f6ae5	-0.014612888
77	0xbd9b86f3	-0.07594099
78	0xbd9892d5	-0.07449881
79	0xbf150333	-0.58208007
80	0xbf365a4a	-0.7123152
81	0x3ec4bb1e	0.3842401
82	0x3edca1e1	0.43092254
83	0x3e8fdf74	0.2810017
84	0xbf1e8ded	-0.6193531
85	0xbe933ba2	-0.28756434
86	0xbf2ae918	-0.6676192
87	0xbdf807bd	-0.12110851
88	0x3eae89c0	0.3408947
89	0xbf1bd211	-0.6086741
90	0xbeb7dbb6	-0.35909814
91	0xbf1e5796	-0.61852396
92	0xbe0f77b8	-0.14010513
93	0x3e9848cf	0.2974305
94	0xbe080fa6	-0.1328722
95	0xbda53fb7	-0.08068793
96	0x3d683add	0.05669676
97	0x3f13c642	0.5772439
98	0xbdfbcce7	-0.122949414
99	0x3e95c4e9	0.29251793
100	0xbf3516ce	-0.7073792
101	0xbf311c77	-0.6918406
102	0x3e47e741	0.1952181
103	0xbe3abb22	-0.18235448
104	0x3ef34576	0.47513932
105	0xbdc9c43f	-0.09851884
106	0x3e8870ec	0.26648653
107	0x3f172838	0.59045744
108	0x3f3628fa	0.71156275
109	0xbed698c1	-0.41913417
110	0xbdcfdc94	-0.10149494
111	0x3f068114	0.5254071
112	0xbea5250e	-0.32254833
113	0x3e07fdce	0.13280413
114	0xbf07f830	-0.5311308
115	0xbe9b395c	-0.303172
116	0x3d8532d0	0.06503832
117	0xbee3b206	-0.4447176
118	0xbed9e232	-0.42555386
119	0x3f3c6cf7	0.7360377
120	0xbf249949	-0.64296395
121	0x3d44d6b5	0.048056323
122	0xbf34df6b	-0.7065341
123	0x3ecccf8b	0.40002093
124	0x3e8f9a5d	0.28047457
125	0x3c8c3136	0.01711331
126	0xbde99959	-0.11406202
127	0xbda4f2b5	-0.08054105
128	0x3e929434	0.28628695
129	0x3ed32959	0.41242483
130	0xbe632b0e	-0.22184393
131	0xbe8413a0	-0.25796223
132	0xbd929463	-0.07157209
133	0x3f1ee83d	0.6207312
134	0x3eb713ee	0.35757393
135	0xbeb73a87	-0.3578684
136	0xbeb9acfe	-0.36264795
137	0x3e275b6a	0.16343465
138	0x3e10e7f7	0.14150988
139	0xbe8a8f84	-0.2706262
140	0x3d9a4a82	0.075337425
141	0xbd535722	-0.05159677
142	0xbf4f59f3	-0.80996627
143	0x3ec7ffbb	0.39062294
144	0xbee7bb85	-0.45260254
145	0xbe4cd2d5	-0.20002301
146	0xbf01712e	-0.50563323
147	0x3f2f2191	0.68410593
148	0x3f0a8c23	0.5412008
149	0xbe8f2ffd	-0.279663
150	0xbde222cf	-0.110417955
151	0x3ec48335	0.38381353
152	0xbf0aee8e	-0.54270256
153	0xbf2335c1	-0.63753897
154	0xbd2bd0dc	-0.04194723
155	0x3ef658e0	0.4811468
156	0x3f1c1c23	0.60980433
157	0x3efa41c4	0.488783
158	0xbf161716	-0.58628976
159	0xbec4152b	-0.382974
160	0xbe840573	-0.25785407
161	0x3e80c2b2	0.2514854
162	0xbeb92c75	-0.3616673
163	0x3ebe7ac2	0.37203032
164	0xbf0d41f2	-0.5517875
165	0x3e4e4328	0.20142806
166	0x3f41535c	0.7551782
167	0xbed41839	-0.4142473
168	0x3e4cd2a4	0.20002228
169	0x3ebceda3	0.36900052
170	0xbe60cdf6	-0.21953568
171	0xbf39a459	-0.725164
172	0x3e9cb053	0.30603275
173	0xbd2bb610	-0.041921675
174	0xbdb7fb77	-0.0898351
175	0x3f1fb869	0.6239076
176	0x3ee97ce8	0.45603108
177	0x3dd593f8	0.104286134
178	0x3f0184f3	0.5059349
179	0x3f1908b8	0.5977893
180	0xbf1070fe	-0.5642241
181	0xbecfea49	-0.40608433
182	0x3eab5000	0.33459473
183	0xbe996717	-0.29961464
184	0xbee53793	-0.44768962
185	0xbe49b933	-0.19699554
186	0xbf2108c6	-0.6290401
187	0x3f2f42e4	0.6846144
188	0xbf0e093f	-0.5548286
189	0x3f2c04ef	0.6719503
190	0x3f2e7ecb	0.6816222
191	0xbd115bf8	-0.0354881
192	0xbf22baed	-0.63566476
193	0xbf001675	-0.50034267
194	0x3ebe47ca	0.37164146
195	0x3effc348	0.49953675
196	0xbf1251d4	-0.5715611
197	0xbf2b8141	-0.669941
198	0xbd4565d1	-0.048192803
199	0xbe927cd1	-0.28610852
200	0x3f22bdaf	0.63570684
201	0xbe8f63f4	-0.28005946
202	0x3de8a8bb	0.11360308
203	0xbf39ed9b	-0.7262818
204	0x3f3e5bdf	0.74358934
205	0x3d6511cf	0.055925187
206	0xbea4c05e	-0.32178015
207	0xbe2f2859	-0.17105235
208	0x3ead9cfc	0.33908832
209	0xbf2cf46c	-0.6756046
210	0xbefd5ea7	-0.49486277
211	0x3ce0cd47	0.027441634
212	0x3e385033	0.17999344
213	0x3f014283	0.50492114
214	0xbeaef7a7	-0.3417332
215	0xbdafd561	-0.08585621
216	0x3df45a52	0.1193129
217	0x3e8d0af9	0.27547434
218	0xbd82bd16	-0.063837215
219	0xbdee8282	-0.11645986
220	0xbdb13669	-0.08652956
221	0xbf05dd55	-0.5229085
222	0x3ead81cb	0.33888087
223	0x3f0b2456	0.5435232
224	0xbe7a99a6	-0.24472675
225	0xbf0e14eb	-0.5550067
226	0x3f24fae9	0.6444536
227	0x3f2dc2d9	0.6787544
228	0x3f34a9b7	0.70571464
229	0xbee84553	-0.4536539
230	0x3e8a9b63	0.27071676
231	0x3eec60db	0.46167645
232	0x3e2c87c5	0.16848667
233	0x3f17b895	0.59266025
234	0x3f3434f8	0.70393324
235	0xbeb5d409	-0.35513332
236	0xbe6993c1	-0.2281027
237	0xbf086017	-0.5327162
238	0x3e90abe1	0.28256133
239	0x3e35e6bf	0.17763804
240	0x3e958bab	0.2920812
241	0x3ef5c404	0.4800111
242	0xbed7b429	-0.4212964
243	0x3d46766e	0.048452787
244	0xbf107365	-0.5642608
245	0x3ed5d896	0.41766804
246	0x3f0928d2	0.5357791
247	0x3f21a96a	0.6314913
248	0x3f10422a	0.5635096
249	0x3d07fb57	0.03319868
250	0xbdc2e209	-0.09515769
251	0x3e6215e2	0.2207866
252	0xbe9519b3	-0.2912117
253	0x3ea342da	0.3188694
254	0x3e9ec672	0.31010777
255	0x3ed2107e	0.41028208

hidden_layers.0.linear.weight f4 [256, 256]
0	0x3e10efe7	0.14154015
1	0xbd313b3a	-0.043269373
2	0x3dd1dbf8	0.10247034
3	0x3d8a35ce	0.06748544
4	0x3e0f7223	0.14008383
5	0x3c39bed0	0.011336997
6	0x3cdc14b6	0.026865344
7	0x3df54f09	0.119779654
8	0xbdbd80f8	-0.092531145
9	0xbba3f636	-0.005003716
10	0xbd2b306d	-0.04179423
11	0xbd6e55aa	-0.058187164
12	0xbdf2df2b	-0.11858972
13	0xbd6974c6	-0.05699613
14	0xbde74e8a	-0.11294277
15	0xbd341c8c	-0.043972537
16	0x3bd07fcf	0.006362892
17	0xbe0bc0d3	-0.13647775
18	0x3d84e5cc	0.06489143
19	0xbca914d0	-0.020639807
20	0xbe16154b	-0.1465656
21	0x3bdbdfeb	0.0067100427
22	0xbd8c5dc4	-0.06853822
23	0xbd1ddc08	-0.038539916
24	0x3db0af33	0.086271666
25	0xbc9923dc	-0.018693857
26	0x3daeaf3e	0.085295185
27	0x3cb0bc71	0.02157423
28	0xbd13b104	-0.036057487
29	0xbcc391cb	-0.02387323
30	0x3c7de807	0.015497214
31	0x3d2d8f44	0.042372957
32	0xbd5b42f5	-0.053530652
33	0x3d18d3fa	0.03731153
34	0xbdaa4848	-0.08314568
35	0xbd7ecec6	-0.062208913
36	0xbca04c43	-0.019567614
37	0x3db890e7	0.09012013
38	0x3d1a216d	0.037629534
39	0xbd36dcaf	-0.044644054
40	0x3bfffdd4	0.007812241
41	0xbd55c391	-0.05218846
42	0xbc35eb8c	-0.011103522
43	0xbe2d5fb0	-0.16931033
44	0x3dcd35c6	0.10020022
45	0x3d1127da	0.035438396
46	0xbd81b326	-0.06332998
47	0xbc5fb2e1	-0.013653488
48	0xba0cf481	-0.000537701
49	0x3cc48455	0.023988882
50	0xbd832d3c	-0.06405112
51	0xbd928b54	-0.07155481
52	0x3cd01a79	0.025403248
53	0xbc3d637c	-0.011559363
54	0x3d29e40c	0.041477248
55	0xbcadb703	-0.02120543
56	0x3e03463f	0.12819766
57	0x3bd79c27	0.006579894
58	0xbdf8eb96	-0.121543095
59	0x3d3fee0e	0.046857886
60	0x3dcd1a43	0.10014775
61	0xbc80cb5d	-0.015721971
62	0xb9b4341e	-0.00034371106
63	0x3b3b19be	0.002854928
64	0xbe0a14bd	-0.13484474
65	0xbd728c93	-0.059216093
66	0x3d986e5a	0.07442923
67	0xbb0ceeed	-0.0021504716
68	0xbd8c4ddd	-0.06850789
69	0x3d717d74	0.058957532
70	0xbda97d15	-0.08275811
71	0x3c33a6b5	0.010965039
72	0xbcfc1e3a	-0.030776132
73	0xbe1437b4	-0.14474374
74	0xbcfd3d19	-0.030912923
75	0x3bab4ade	0.0052274307
76	0x3e36285a	0.1778883
77	0x3d1d231f	0.038363572
78	0xbb9e043b	-0.0048222817
79	0x3d8435cf	0.06455576
80	0x3cc5ea81	0.024159672
81	0x3c3ad15b	0.011402453
82	0x3cc9a405	0.024614343
83	0x3dd96753	0.10615411
84	0x3cfbe71f	0.030749856
85	0x3dbec05e	0.09314035
86	0x3c407ea8	0.011748947
87	0x3e10d381	0.14143182
88	0xbda2a557	-0.07941692
89	0xbd8a0202	-0.06738664
90	0xbe3562e1	-0.177135
91	0xbcfcbb21	-0.030850949
92	0xbd7fe05c	-0.062469825
93	0x3dab6868	0.08369523
94	0xbc47bdbf	-0.012191235
95	0x3d814947	0.06312805
96	0x3e2a6235	0.16639026
97	0xbdee298e	-0.1162902
98	0xbdb43f7e	-0.08801173
99	0x3d95570b	0.07291993
100	0xbd3ad6d2	-0.045615025
101	0x3e09b33d	0.1344728
102	0xbd1af4d0	-0.037831128
103	0xbd7e50c8	-0.062088758
104	0x3d2883ec	0.041141436
105	0x3d1898cd	0.037255097
106	0x3e0a2080	0.1348896
107	0xbb60b97a	-0.003429024
108	0x3ca6091e	0.02026802
109	0x3d094273	0.033510637
110	0x3dfd7614	0.12376037
111	0x3daf55ef	0.085613124
112	0xbdf4582c	-0.1193088
113	0x3d3fa205	0.046785373
114	0xbb608d72	-0.0034263995
115	0x3c022dc7	0.0079454845
116	0xbd8a7dbe	-0.06762265
117	0xbd919b03	-0.07109644
118	0x3c80a233	0.015702343
119	0x3de74d66	0.112940595
120	0x3c1f89e8	0.009737469
121	0xbe57c0bc	-0.21069616
122	0x3e07abe2	0.13249162
123	0x3e6f50fb	0.23370735
124	0xbcf86eac	-0.03032621
125	0x3e57ac7b	0.2106189
126	0x3c8a3966	0.016873073
127	0xbd9ca261	-0.07648159
128	0x3bba9193	0.0056936233
129	0x3df78f80	0.12087917
130	0x3b6768d2	0.003531028
131	0xbd55079d	-0.052009214
132	0xbe2e8442	-0.1704264
133	0x3b65fd7a	0.003509371
134	0x3d01a941	0.031655554
135	0xbc992a37	-0.018696887
136	0x3c4dd08c	0.0125619285
137	0x3be4f55a	0.006987256
138	0x3d241835	0.040062148
139	0xbca8feeb	-0.020629367
140	0xbd9e3ad0	-0.07726061
141	0x3d0f9724	0.03505625
142	0xbd9c6a0a	-0.07637413
143	0xbcad9910	-0.02119115
144	0xbcfcd65e	-0.030863937
145	0xbc7e77e6	-0.015531516
146	0x3d80022a	0.06250413
147	0x3d86635f	0.06561922
148	0x3d6a3793	0.057181906
149	0xbcae445a	-0.021272827
150	0xbd550ec1	-0.052016024
151	0x3d4fa4ab	0.05069415
152	0xbdb8603c	-0.0900273
153	0xbd2c42ac	-0.04205577
154	0x3e5a1ca3	0.21299987
155	0x3da96a2a	0.08272202
156	0x3dd423fa	0.103584245
157	0x3be0064c	0.006836688
158	0xbd89e494	-0.06733051
159	0xbb79a629	-0.0038093424
160	0x3d0a3ccb	0.033749383
161	0xbcf29b9b	-0.029615214
162	0xbe09d6e4	-0.1346088
163	0xbcea7b55	-0.028623262
164	0x3d86068a	0.06544216
165	0x3b1371b3	0.002249819
166	0xbd3db4c9	-0.04631499
167	0xbd375c69	-0.044765864
168	0xbc32d2ee	-0.010914547
169	0xbcb45ee6	-0.022017907
170	0x3d8c6e39	0.06856961
171	0x3dc0119b	0.09378358
172	0xbd11bf76	-0.035582982
173	0xbcfbd4f0	-0.030741185
174	0x3da4c153	0.08044686
175	0x3ca7b4de	0.020471986
176	0x3cf5eed1	0.030021103
177	0x3c0125bf	0.0078825345
178	0xbc1c2db9	-0.0095323855
179	0xbad331dd	-0.0016112883
180	0x3d38d7b9	0.045127604
181	0xbc1cfd0e	-0.009581817
182	0xbe2fc476	-0.17164788
183	0xbd98e27a	-0.07465072
184	0xbc8cfc8a	-0.017210264
185	0x3d1f5511	0.038899485
186	0xbc120bc8	-0.008913942
187	0x3dacde2f	0.08440816
188	0xbdb061c0	-0.08612394
189	0x3b2848d7	0.0025678182
190	0xbd71df35	-0.059050757
191	0x3d9cf780	0.076643944
192	0x3cc5ce17	0.024146123
193	0x3dab0550	0.08350623
194	0x3de95e17	0.11394899
195	0xbce79f71	-0.02827427
196	0x3da0ff94	0.07861248
197	0xbc53be70	-0.012923822
198	0xbd6d31fe	-0.057909004
199	0x3c9e487d	0.019321674
200	0xbce2960f	-0.027659444
201	0xbcce0e72	-0.025153372
202	0x3d218f9b	0.039443593
203	0x3aa1781f	0.0012319124
204	0x3da10f61	0.078642614
205	0x3caf897b	0.02142786
206	0x3df50a31	0.119648345
207	0x3d2a4b6d	0.041575838
208	0x3ccd4223	0.02505595
209	0x3d18a4e8	0.03726664
210	0xbce11a91	-0.027478488
211	0x3d751c01	0.05984116
212	0x3d4bcc68	0.049755484
213	0x3dd978da	0.10618754
214	0xbd0a4f69	-0.033767138
215	0xbd3b3647	-0.04570606
216	0xbd8135c0	-0.0630908
217	0x3dbf2bf1	0.09334553
218	0xbabdf121	-0.0014491418
219	0x3e1d67c1	0.1537161
220	0x3d9a7422	0.07541682
221	0xbdaff28a	-0.085911825
222	0x3c9732ff	0.018456934
223	0xbd8b58ce	-0.068040475
224	0x3b922440	0.0044598877
225	0x3d11fe05	0.035642643
226	0x3b3c0f78	0.0028695744
227	0x3c264572	0.010148393
228	0x3b0bf7a1	0.0021357315
229	0x3d33fdd2	0.043943234
230	0xbdd531bd	-0.104098774
231	0xbd255d78	-0.040372342
232	0xbd836905	-0.06416515
233	0x3d106921	0.03525651
234	0x3db85920	0.09001374
235	0x3ce6a7bf	0.02815616
236	0x3d1fc2f7	0.039004292
237	0x3d3f0484	0.046635166
238	0xbdb56c43	-0.0885854
239	0x3b762761	0.0037560093
240	0x3cacef34	0.021110155
241	0x3c34264f	0.010995462
242	0xbc32dc3e	-0.010916768
243	0xbe0c2391	-0.13685443
244	0xbd9941e8	-0.07483274
245	0xbcb5cd1e	-0.022192534
246	0x3c18cb4c	0.0093258135
247	0x3c8db877	0.017299874
248	0xbd4639a6	-0.04839482
249	0xbda36ad1	-0.07979358
250	0xbd8452f5	-0.06461135
251	0x3dfb7521	0.122782
252	0x3c7d17fe	0.015447615
253	0x3d571ce9	0.052517805
254	0xbbfc7fe9	-0.0077056778
255	0x3c0b0c67	0.008486844

hidden_layers.0.linear.bias f4 [256]
0	0xbc57392b	-0.0131361885
1	0x3b946906	0.0045291213
2	0xbdcf5f46	-0.10125594
3	0x3d7150f9	0.058915112
4	0xbd4b104a	-0.04957608
5	0xbcca28a1	-0.024677576
6	0x3d65aa8a	0.05607084
7	0x3c7db7f9	0.015485757
8	0xbcda18b6	-0.026623111
9	0x3d05a4aa	0.03262774
10	0xbd5e5df0	-0.054288805
11	0x3c622133	0.013801861
12	0x3b17b41a	0.002314812
13	0x3d78e6e2	0.060767062
14	0x3de3bfb8	0.11120552
15	0x3cad72dc	0.021172933
16	0xbc8a0a12	-0.016850505
17	0x3cdbeb95	0.026845733
18	0x3d0f75a1	0.03502429
19	0x3cb5fa70	0.022214144
20	0xbcb2f47a	-0.021845091
21	0xbc1435a5	-0.009045993
22	0xbd119ea2	-0.035551675
23	0x3bcd6eeb	0.006269326
24	0x3d3ac6d7	0.045599785
25	0x3d281cab	0.041042965
26	0xbd1ae0b5	-0.037811954
27	0xbd7ec59b	-0.06220017
28	0x3da9fb79	0.08299918
29	0xbdabf3ac	-0.08396086
30	0x3d27bc06	0.040950797
31	0xbd2a1150	-0.041520417
32	0x3d81ffe7	0.063476376
33	0xbcfbc282	-0.030732397
34	0x3d45106e	0.04811137
35	0xbcc562cf	-0.024094967
36	0x3c119d01	0.00888753
37	0x3c610e6e	0.01373635
38	0x3cfcffef	0.030883757
39	0x3d7c0b58	0.061534256
40	0xbe9043e9	-0.2817681
41	0xbd6340d8	-0.05548176
42	0xbd894bbf	-0.067039005
43	0x3d167d3b	0.036740523
44	0xbcb5958e	-0.02216604
45	0x3cacc065	0.021087835
46	0xbd4ff952	-0.05077488
47	0x3d3a782a	0.045524754
48	0x3e1a72c7	0.15082847
49	0xbd3aaba2	-0.045573838
50	0xbd25cb64	-0.04047717
51	0x3d142e77	0.036177125
52	0x3cc3faac	0.02392324
53	0xbc592619	-0.013253712
54	0x3c8e59f2	0.017376874
55	0xbd28979e	-0.04116022
56	0x3d3e7779	0.046500657
57	0x3d574611	0.052557055
58	0x3da47e83	0.08031943
59	0x3d5cc474	0.05389829
60	0xbd646dab	-0.05576865
61	0xbc896d33	-0.016775703
62	0x3d00281b	0.031288248
63	0x3d56dc60	0.05245626
64	0x3d8a60ee	0.06756769
65	0xb9ec638d	-0.000450876
66	0x3cf2fc6c	0.02966138
67	0x3c85b270	0.016320437
68	0x3c0d2f39	0.008617216
69	0x3cac9fc0	0.021072268
70	0xbca00bda	-0.019536901
71	0xbcff1957	-0.031140013
72	0x3d122b00	0.03568554
73	0xbdd777bd	-0.10520885
74	0xbd2f95d4	-0.042867497
75	0xbccd47c5	-0.025058636
76	0x3cb587e3	0.022159522
77	0xbcb0c767	-0.021579457
78	0x3d6bebb4	0.05759783
79	0x3c8b6a05	0.017018327
80	0xbd6d69cf	-0.057962235
81	0x3d118d21	0.03553498
82	0x3ce9692f	0.028492538
83	0x3d81a229	0.06329758
84	0xbd354384	-0.04425384
85	0xbc987d51	-0.018614443
86	0xbdbc16b6	-0.09184019
87	0xbcc8be7b	-0.02450489
88	0x3d4eae50	0.050459206
89	0xbcd6ec6b	-0.02623578
90	0x3cc8a1c6	0.024491202
91	0x3a0ea025	0.00054407335
92	0x3dcd2d25	0.10018376
93	0xbc219daf	-0.009864255
94	0xbcfd1d1e	-0.030897673
95	0x3d1ef0a6	0.03880372
96	0x3c369f7e	0.011146424
97	0x3cb86bb1	0.022512289
98	0x3d6be6cc	0.057593152
99	0xbd6cdad5	-0.057825882
100	0x3d7c8b71	0.06165642
101	0x3c4bdd0b	0.0124428375
102	0x3dae577d	0.08512781
103	0x3d4e5ee9	0.050383482
104	0x3cfa3aa0	0.030545533
105	0xbcc8f4e7	-0.024530841
106	0x3c9fefe3	0.019523567
107	0xbc547b25	-0.012968813
108	0x3d48fec1	0.049071077
109	0xbd287f86	-0.04113724
110	0x3d86baab	0.06578573
111	0xbda30221	-0.079593904
112	0xbc9d7db3	-0.019224977
113	0xbd8ef643	-0.069805644
114	0x3d1fa6c5	0.038977403
115	0x3cc1e094	0.023666658
116	0xbcc13c53	-0.023588335
117	0xbd5b003f	-0.05346703
118	0x3c10de6f	0.008842095
119	0x3bf1dc0e	0.007380969
120	0xbb2c863c	-0.0026325127
121	0x3c63585b	0.013876046
122	0x3c1088b9	0.00882166
123	0x3d434297	0.047670927
124	0x3d9e3395	0.07724682
125	0xbd80f4ff	-0.06296729
126	0x3caca195	0.021073142
127	0xbcc4b13d	-0.024010295
128	0xbcfa0689	-0.030520694
129	0xbcffa055	-0.031204382
130	0x3bb8baa6	0.0056374846
131	0xbb1439c3	-0.0022617436
132	0xbc384165	-0.01124606
133	0x3bde95f5	0.0067927786
134	0x3d52ab4d	0.051432896
135	0x3ca634ca	0.020288844
136	0x3d998f4a	0.07498033
137	0x3c5f1897	0.0136167025
138	0xbd8de1f5	-0.069278635
139	0x3d523fe9	0.05133048
140	0xbb876fc1	-0.004133195
141	0x3d14cd96	0.036328875
142	0x3d6c4616	0.057684027
143	0xbd669ffe	-0.056304924
144	0xbd79c825	-0.06098189
145	0x3d70fe4d	0.05883627
146	0xbd1aa5c8	-0.037755758
147	0x3daebe8c	0.08532438
148	0xbbaa70ea	-0.0052014487
149	0xbd14f8b6	-0.03637
150	0xbc9d5e76	-0.019210082
151	0x3d628da2	0.055310853
152	0xbce04445	-0.027376303
153	0xbcb55771	-0.022136422
154	0xbb658188	-0.0035019834
155	0x3c8fb40b	0.017541906
156	0xbd6a9f6d	-0.057280947
157	0xbbc7d482	-0.006098331
158	0x3d08b0fe	0.033371918
159	0xbaf81cae	-0.0018929446
160	0x3d95dd5e	0.07317613
161	0xbd53c08d	-0.051697303
162	0xbc9b0947	-0.018925322
163	0xbd641d8d	-0.055692244
164	0xbbbbcf25	-0.0057314807
165	0xbd90ad61	-0.070643194
166	0xbd40d248	-0.04707554
167	0x3c6fb64c	0.014630865
168	0xbcfe19db	-0.031018188
169	0xbb83b7b9	-0.004019704
170	0x3d2dd8c6	0.04244306
171	0xbd2636e9	-0.04057971
172	0x3cba5000	0.022743225
173	0x3d5caa30	0.05387324
174	0xbd2376f0	-0.03990835
175	0xbb2384b7	-0.002495093
176	0x3d79c1d5	0.06097587
177	0xbd11597e	-0.035485737
178	0x3ab86d71	0.0014070702
179	0xbddc2387	-0.10748964
180	0xbd21bc7d	-0.039486397
181	0xbd53f5f3	-0.051748227
182	0x3d5270ae	0.05137699
183	0xbd18a1ed	-0.0372638
184	0x3d420440	0.047367334
185	0xbca41ac0	-0.020032287
186	0xbd25b904	-0.040459648
187	0x3d431bb2	0.047633834
188	0xbd52075a	-0.051276542
189	0x39992260	0.00029208045
190	0xbd7b0479	-0.061283562
191	0x3d51e6dc	0.051245555
192	0xbcfc0371	-0.03076336
193	0xbd521c78	-0.05129668
194	0x3cad3bd7	0.021146698
195	0x3c816b71	0.015798302
196	0x3d06bce6	0.03289499
197	0xbd9564e4	-0.07294634
198	0xbc40dd6f	-0.011771544
199	0x3c6f6916	0.014612457
200	0xbd100fca	-0.035171308
201	0x3d829357	0.06375759
202	0x3cebba3d	0.028775329
203	0xbb4694f2	-0.003030118
204	0xbc90a3c2	-0.01765621
205	0x3d16520c	0.03669934
206	0x3c386d06	0.011256462
207	0xbd01ce45	-0.031690855
208	0x3e204eb7	0.15655027
209	0xbb7a7527	-0.00382168
210	0xbe04548e	-0.1292288
211	0xbcbf44a0	-0.023348153
212	0xbbb0bbce	-0.005393482
213	0xbd5cf6d6	-0.05394634
214	0x3d3d026c	0.046144888
215	0xbd8efd89	-0.06981952
216	0xbc553f6a	-0.013015607
217	0x3c5868b1	0.013208554
218	0x3cbedaa9	0.023297625
219	0x3d5139d6	0.051080547
220	0x3c16e07b	0.009208794
221	0xbc2a1f34	-0.010383416
222	0xbde83524	-0.11338261
223	0x3b844f34	0.004037762
224	0xbc9a4765	-0.018832872
225	0x3d9307d8	0.071792305
226	0xbd4c6c56	-0.049908005
227	0xbd407d13	-0.04699428
228	0x3d8fcd27	0.070215516
229	0x3d44e87c	0.048073277
230	0x3d1ebfb6	0.03875705
231	0x3d53bc0e	0.051693015
232	0xbc9950e7	-0.018715335
233	0x3c94d7a2	0.018169228
234	0xbd2034f1	-0.03911299
235	0xbd2e9e2d	-0.042631317
236	0xbd8861fd	-0.06659315
237	0x3cf62a83	0.030049568
238	0xbd409700	-0.047019005
239	0x3d3eaebc	0.04655336
240	0xbd594435	-0.053043563
241	0xbbb008e5	-0.005372154
242	0x3ca68511	0.020327123
243	0x3c50fed7	0.012756071
244	0xba94b60f	-0.0011345762
245	0x3ab3254c	0.0013667732
246	0x3b9b94a4	0.004747944
247	0xbd5d3e96	-0.054014765
248	0xbdb4fe79	-0.08837599
249	0xbc9229ae	-0.01784214
250	0xbd52ddd3	-0.05148108
251	0x3cebd2b3	0.028786993
252	0x3c2f36b5	0.0106941955
253	0x3d3f1b70	0.046657026
254	0x3d2c0aea	0.042002596
255	0x3b4462e6	0.0029966175

hidden_layers.1.linear.weight f4 [256, 256]
0	0xbdc2cdf1	-0.095119365
1	0x3d4263fd	0.047458638
2	0x3aead2f6	0.0017915654
3	0xbd148d47	-0.036267545
4	0xbd795aeb	-0.06087772
5	0xbe072bb5	-0.13200267
6	0xbd7f9f71	-0.062407915
7	0x3e06d034	0.1316536
8	0x3cebf07f	0.0288012
9	0x3c335ac4	0.010946933
10	0xbcf9811a	-0.030457068
11	0x3afcb895	0.0019281084
12	0x3b1fbad2	0.0024372828
13	0x3c7f611b	0.015587117
14	0x3cfeafb0	0.031089634
15	0x3c525a2e	0.012838883
16	0x3cced399	0.025247382
17	0xbd528875	-0.051399667
18	0xbcec8644	-0.028872617
19	0x3cf262f4	0.0295882
20	0x3d6fc987	0.0585418
21	0x3d93fc4b	0.072258554
22	0xbdb3938d	-0.087683775
23	0xbce47ce6	-0.027891587
24	0x3c695b07	0.014242894
25	0xbd9841f9	-0.07434458
26	0xbd29124c	-0.041277215
27	0x3d9a2da0	0.075282335
28	0x3da2b481	0.07944585
29	0x3d1fa1c7	0.038972642
30	0xbb2484a7	-0.002510348
31	0xbd57b69c	-0.052664384
32	0x3cafa61b	0.02144151
33	0xbcb189db	-0.02167218
34	0x3c2cbea5	0.0105435
35	0x3da20de9	0.079128094
36	0x3d5ab009	0.053390536
37	0x3d20f6a4	0.039297715
38	0xba0e5723	-0.00054298545
39	0xbbd3b8fa	-0.00646126
40	0x3ebf9481	0.37417987
41	0x3dbc518e	0.09195243
42	0x3e05b324	0.13056618
43	0x3db561a8	0.08856517
44	0x3ba57ee0	0.005050525
45	0x3d4fb1b9	0.0507066
46	0xbde44ca4	-0.111474305
47	0xbd926620	-0.07148385
48	0xbf222b99	-0.63347775
49	0xbd9b0054	-0.07568422
50	0xbda0072c	-0.07813868
51	0xbcd36ee9	-0.025809722
52	0xbc61d478	-0.013783567
53	0x3db190db	0.08670207
54	0xbdb57015	-0.088592686
55	0x3d8b639f	0.068061106
56	0xbda01d67	-0.07818108
57	0xbde80782	-0.11329557
58	0xbd2398f3	-0.039940786
59	0x3d776a99	0.060404394
60	0xbd2c6ff4	-0.042098954
61	0xbd4f763f	-0.050649878
62	0x3de74d63	0.11294057
63	0x3a01a1e5	0.00049450836
64	0x3d6b641c	0.05746852
65	0xbc22ff04	-0.009948496
66	0xbd8fd182	-0.07022382
67	0xbd40227e	-0.046907894
68	0x3d8b668f	0.06806671
69	0xbce97826	-0.028499674
70	0xbccae5a4	-0.024767704
71	0xbe079987	-0.1324216
72	0x3d19223c	0.037386164
73	0x3ddc9c56	0.10772006
74	0x3d005185	0.031327743
75	0x3ddb6563	0.10712697
76	0xbd478a8c	-0.048716113
77	0xbd3f3926	-0.04668536
78	0xbca2bc86	-0.019865286
79	0xbd1f2629	-0.03885475
80	0x3d55bca6	0.052181862
81	0x3b0201d8	0.0019837525
82	0x3d81dcba	0.063409284
83	0x3d4b2d20	0.04960358
84	0xbd807543	-0.06272366
85	0xbcbac94b	-0.022801062
86	0xbd973028	-0.07382232
87	0xbdadbd9d	-0.084834315
88	0xbd464b6f	-0.048411783
89	0xbc567bed	-0.01309107
90	0x3df65b18	0.120290935
91	0x3d1b79e4	0.03795804
92	0xbd64df18	-0.05587682
93	0x3d48a3da	0.048984386
94	0xbd197d9a	-0.0374733
95	0x3d89fa01	0.067371376
96	0xbc2446a2	-0.010026606
97	0xbcbec45b	-0.023286989
98	0x3d4df80f	0.050285395
99	0x3c5a7df9	0.013335698
100	0xbe29fb52	-0.16599777
101	0x3ca573ad	0.02019676
102	0x3ccc88cd	0.024967575
103	0x3bc51c1c	0.006015314
104	0x3d0226e8	0.031775385
105	0xbda651c8	-0.08121067
106	0xbe9060d8	-0.28198886
107	0xbd925701	-0.07145501
108	0x3e0499e8	0.12949336
109	0x3a0e4c14	0.00054282066
110	0xbd22cd9b	-0.039746862
111	0xbc0dbe24	-0.00865129
112	0x3c9496b0	0.01813826
113	0x3dcd74bc	0.10032031
114	0x3ceaa5e9	0.028643565
115	0xbe056f1a	-0.13030663
116	0xbd841b11	-0.06450475
117	0xbd8bc236	-0.06824152
118	0x3d7e99e9	0.0621585
119	0xbd9c1ef6	-0.07623093
120	0x3bd52215	0.006504307
121	0x3d7b5a40	0.061365366
122	0xbd954e8b	-0.072903715
123	0xbdf112e4	-0.11771181
124	0xbd3184bb	-0.043339472
125	0xbe116ac5	-0.14200886
126	0x3c0f21a2	0.008736046
127	0x3df823f7	0.12116235
128	0x3d55bd56	0.052182518
129	0xbcbb5479	-0.022867428
130	0xbe12b29f	-0.14325951
131	0x3d7fa215	0.062410433
132	0x3c33b094	0.0109673925
133	0xbc3d386f	-0.011549099
134	0x3da8c90f	0.08241474
135	0x3c3174b2	0.010831045
136	0xbe00bd00	-0.12572098
137	0xbd36bfe0	-0.04461658
138	0x3c593e55	0.01325949
139	0xbcd3527c	-0.025796168
140	0x3ba13db5	0.004920686
141	0x3d4582ec	0.04822056
142	0xbc818b2c	-0.015813433
143	0xbd4f5397	-0.050616827
144	0x3d1ee248	0.038790017
145	0x3cc62359	0.024186777
146	0xbc93886d	-0.018009389
147	0xbba7ab6b	-0.00511687
148	0xbcb5ae1c	-0.022177748
149	0x3c170130	0.009216592
150	0x3c93458b	0.017977497
151	0x3cefc101	0.029266836
152	0xbd45dba6	-0.048305176
153	0xbd0c8061	-0.03430212
154	0x3d1c64d4	0.038182095
155	0xbdb41a48	-0.08794075
156	0xbd84cad7	-0.06484001
157	0xbe16e959	-0.14737453
158	0xbd978ad7	-0.073995285
159	0xbcbc4a43	-0.02298463
160	0xbd0dfee0	-0.034666896
161	0x3caff2e4	0.021478124
162	0x3d8791f1	0.06619633
163	0x3cb3a215	0.021927873
164	0x3d7ff2a3	0.062487256
165	0x3c982da4	0.01857645
166	0x3d3786be	0.044806235
167	0x3de0c25c	0.10974571
168	0x3dbe1cb0	0.092828155
169	0x3d4daeb5	0.05021544
170	0x3d4e8da5	0.05042805
171	0xbcd03781	-0.025417091
172	0xbd9756e3	-0.07389619
173	0xbd462924	-0.04837908
174	0x3c57f1de	0.013180224
175	0x3cc76bed	0.024343455
176	0xbc43492b	-0.0119193
177	0x3dae93a2	0.085242525
178	0xbd17c2ab	-0.037050884
179	0x3ce9cb00	0.02853918
180	0x3dea52ad	0.114415504
181	0xbbd3c49e	-0.0064626476
182	0xbb473299	-0.0030395149
183	0x3d6f1077	0.05836531
184	0xbde21086	-0.11038308
185	0x3d4110db	0.047135215
186	0xbd0e19a5	-0.034692425
187	0xbd3e216c	-0.046418592
188	0xbdaa5aa8	-0.083180726
189	0xbe45255d	-0.19252534
190	0x3d2731f1	0.040819112
191	0xbb03844f	-0.0020067876
192	0xbce128ed	-0.027485335
193	0xbdf35b39	-0.11882634
194	0x3dfbd8f5	0.12297241
195	0xbdd42617	-0.103588276
196	0xbbc3d40a	-0.0059762048
197	0xbe1ca466	-0.15297088
198	0xbbab19a4	-0.0052215625
199	0x3c04b991	0.008100883
200	0x3d0a4b3b	0.03376315
201	0xb94c54b4	-0.0001948651
202	0xbdfe925a	-0.12430258
203	0x3caa08ba	0.020756114
204	0xbd0b02dc	-0.033938274
205	0x3da6f296	0.08151738
206	0x3d0b816e	0.03405898
207	0xbc38beef	-0.011275991
208	0x3d45b421	0.048267487
209	0x3d44ab16	0.048014723
210	0x3e28c3ab	0.16480891
211	0xbd728bc7	-0.059215333
212	0xbd1b7119	-0.037949655
213	0x3d450ad1	0.04810602
214	0xbd9e0cdc	-0.077172965
215	0x3cb5edd0	0.022208124
216	0xbe1644ba	-0.14674655
217	0xbd5ac9da	-0.053415157
218	0xbd083214	-0.033250883
219	0xbdb04c1e	-0.08608268
220	0xbdb0c49f	-0.086312525
221	0xbc9b72df	-0.018975673
222	0xbd5f7079	-0.05455062
223	0xbd916441	-0.070992
224	0xbd4834f1	-0.048878614
225	0xbd7bcbd2	-0.061473675
226	0xbd8f99e6	-0.07011776
227	0xbba4f6cb	-0.005034303
228	0x3dbf4e77	0.09341138
229	0xbd60febe	-0.05493044
230	0xbc33a730	-0.010965154
231	0x3dc07fe6	0.09399395
232	0xbe1ae6cd	-0.15127106
233	0x3d7e2e0a	0.062055625
234	0x3c9d8fd6	0.019233625
235	0xbbdfb017	-0.0068264115
236	0xbcba99d4	-0.02277843
237	0x3dfc4172	0.1231717
238	0xbd312a03	-0.043252956
239	0x3db12a4a	0.08650644
240	0x3d9a7704	0.07542232
241	0xbc6b2361	-0.014351697
242	0xbd869ad5	-0.065725006
243	0x3cb401e2	0.021973554
244	0x3d9a47f6	0.07533257
245	0xbcac903f	-0.021064876
246	0xbc11d5b2	-0.008901047
247	0xbce7f220	-0.028313696
248	0xbd280042	-0.04101587
249	0x3ba690eb	0.0050831935
250	0x3d00fff3	0.031494092
251	0xbce0de83	-0.027449852
252	0x3d8de56a	0.06928523
253	0xbd8f4289	-0.069951124
254	0xbb9d8f79	-0.004808363
255	0x3c05cc81	0.008166433

hidden_layers.1.linear.bias f4 [256]
0	0x3ce031bc	0.027367465
1	0xbd78324a	-0.060594834
2	0x3ca8c245	0.020600447
3	0x3d3e7d5f	0.046506282
4	0x3d7a5c62	0.06112326
5	0xbd1b884c	-0.03797178
6	0x3d8afcd4	0.067865044
7	0xbb619c76	-0.0034425533
8	0xbd693a70	-0.056940496
9	0x3cbfd1f0	0.023415536
10	0x3c887477	0.016657097
11	0xbcbc2e8a	-0.02297141
12	0xbd596fd9	-0.05308518
13	0xbd4425da	-0.04788766
14	0xbd5ad8f5	-0.053429563
15	0x3d815c5e	0.06316446
16	0x3d2f1f62	0.04275454
17	0x3d02bbc4	0.03191735
18	0xbc35cdc3	-0.011096421
19	0xbd03c793	-0.03217275
20	0x3cc764ae	0.02434
21	0xbcf7e3a5	-0.030259917
22	0x3c52f455	0.012875636
23	0x3d048151	0.03234989
24	0x3d029fd0	0.03189069
25	0xbd0bf8e9	-0.034172926
26	0xbd078769	-0.03308812
27	0x3d34e222	0.04416097
28	0x3cf75c83	0.03019548
29	0x3c041872	0.008062469
30	0x3d87aa92	0.066243306
31	0xbca6773c	-0.020320527
32	0xbcf23d61	-0.029570283
33	0x3cf882be	0.03033578
34	0xbd6e1f91	-0.058135573
35	0xbd25cd41	-0.04047895
36	0x3cfa87e7	0.030582381
37	0x3d4ab687	0.049490478
38	0x3b6bc129	0.0035973287
39	0xbd0fd94f	-0.03511935
40	0x3d1cf21c	0.03831683
41	0xbd4fc1c1	-0.050721887
42	0x3d824667	0.063610844
43	0xbba3fd16	-0.0050045354
44	0xbd10a3e6	-0.035312556
45	0xbd164ee0	-0.036696315
46	0xbd22f523	-0.03978456
47	0xbd532aaf	-0.051554378
48	0xbc2f01ad	-0.010681552
49	0x3af273c3	0.0018497634
50	0x3bf1e289	0.0073817414
51	0xbd7838fe	-0.060601227
52	0x3c53caff	0.012926816
53	0xbd0697e0	-0.032859683
54	0xbc7b9196	-0.015354535
55	0x3db41c67	0.0879448
56	0xbd1f3c65	-0.038875956
57	0xbd7d27fd	-0.061805714
58	0xbba252d0	-0.0049537197
59	0xbda46438	-0.08026928
60	0x3bf63daa	0.007514675
61	0xbbff3e72	-0.0077894265
62	0x3d13ae17	0.036054697
63	0x3a0d6bf9	0.00053948123
64	0xbdabfd00	-0.08397865
65	0xbd81e0ee	-0.0634173
66	0xbd734397	-0.05939063
67	0xbde2c534	-0.1107277
68	0xbcdf85de	-0.027285513
69	0x3da0ff31	0.07861174
70	0x3d1d7368	0.038440138
71	0x3c39790f	0.0113203665
72	0xbcec294b	-0.028828284
73	0xbcbe3354	-0.023217835
74	0x3ceeaeb2	0.029136036
75	0x3d650c6a	0.055920042
76	0xbca6b44f	-0.02034965
77	0x3d551119	0.05201826
78	0xbd232b0d	-0.03983598
79	0xbd3e4d8f	-0.046460684
80	0x3dc78c39	0.09743542
81	0xbcdcdac0	-0.026959777
82	0xbc8345d5	-0.01602451
83	0x3d608300	0.05481243
84	0xbd0b3a2c	-0.033991024
85	0x3cdd0f86	0.026984941
86	0xbd857849	-0.06517083
87	0x3c852780	0.016254187
88	0x3c9afd20	0.018919528
89	0xbd360d37	-0.044446196
90	0xbc8c8dcd	-0.01715746
91	0x3ca096b8	0.019603118
92	0xbb6562dc	-0.0035001552
93	0xbd506e46	-0.050886415
94	0x39d0de50	0.00039838487
95	0xbae14c02	-0.001718879
96	0x3d81346a	0.06308825
97	0xbd2e9805	-0.042625446
98	0xbd5ce024	-0.053924695
99	0xbcbf404c	-0.023346089
100	0x3c89aee8	0.016807035
101	0xbba2257b	-0.0049483157
102	0xbcbf4713	-0.02334932
103	0xbd529531	-0.05141181
104	0xbc308725	-0.0107744085
105	0x3da2741d	0.07932303
106	0xbd888a73	-0.06667032
107	0xbc62825a	-0.013825024
108	0xbb169ebd	-0.00229828
109	0xbd4a616f	-0.049409326
110	0xbc5fa04f	-0.01364906
111	0x3ce7915b	0.028267553
112	0x3d7586ae	0.059942894
113	0x3cb27031	0.021782013
114	0xbcb19ad6	-0.021680277
115	0x3d3f57d9	0.046714637
116	0x3cba987f	0.022777794
117	0x3d19a9a1	0.037515286
118	0xbc26b7cc	-0.0101756565
119	0xbd7c7698	-0.061636537
120	0xbcc7b261	-0.02437705
121	0xbc2b49e5	-0.01045463
122	0xbd956aa6	-0.07295732
123	0x3d83bbe1	0.064323194
124	0x3d37093b	0.044686537
125	0xbd897aba	-0.06712861
126	0xbd11f272	-0.035631604
127	0x3d0082b7	0.03137466
128	0x3c44d89e	0.012014536
129	0xbd35f002	-0.044418342
130	0x3cc2c043	0.023773318
131	0x3caa37fd	0.02077865
132	0x3d413d19	0.047177408
133	0xbac4b00a	-0.0015006077
134	0x3d6d79d4	0.057977512
135	0xbcd22370	-0.025651664
136	0xbcd2398e	-0.02566221
137	0x3d339e1e	0.043851964
138	0x3cdadb86	0.026716005
139	0x3d284317	0.041079607
140	0x3e16ed6c	0.14739007
141	0xbd1bdc29	-0.038051758
142	0x3cd84236	0.02639876
143	0x3dcd26fb	0.100172006
144	0xbcbeb7df	-0.023281036
145	0x3bba323b	0.0056822575
146	0xbc45c98d	-0.012071979
147	0xbc9edc2e	-0.0193921
148	0x3b7e41b3	0.0038796484
149	0x3ca8ae76	0.020591002
150	0x3cce1c40	0.025159955
151	0xbde69565	-0.112589635
152	0xbb8956cb	-0.0041912547
153	0xbd496665	-0.049169917
154	0x3c6be9d9	0.014399015
155	0xbd2d6153	-0.042329144
156	0x3d1cb3b0	0.0382573
157	0xbb72d4ef	-0.0037053188
158	0x3d853a5c	0.06505272
159	0x39679476	0.00022085183
160	0x3d5a094f	0.053231534
161	0xbe1a5b21	-0.15073825
162	0x3cc26ca2	0.02373344
163	0xbd4326a6	-0.04764428
164	0x3d0d0c19	0.034435365
165	0xbce16737	-0.027515037
166	0xbd275dd3	-0.040860962
167	0xbd528654	-0.051397637
168	0xbd557756	-0.05211576
169	0x3c0f57aa	0.008748928
170	0x3c9e4689	0.019320743
171	0xbba26943	-0.004956396
172	0x3c54b99a	0.012983704
173	0xbcdc42aa	-0.026887257
174	0x3d153d7d	0.036435593
175	0x3d511f7b	0.051055413
176	0x3c5469b2	0.012964653
177	0xbba37f42	-0.0049895355
178	0x3cb319e2	0.021862928
179	0xbacf1cdb	-0.0015801446
180	0xbc642cf7	-0.013926736
181	0xbcf1d45e	-0.02952021
182	0xbd4a3ee6	-0.04937639
183	0x3cb9d685	0.022685299
184	0x3d085497	0.033283796
185	0x3cce6aec	0.025197469
186	0x3c89363f	0.0167495
187	0xbd3568cb	-0.04428939
188	0xbd8778bb	-0.066148244
189	0xbd1a7f42	-0.03771902
190	0xbd53c87b	-0.051704865
191	0xbd1d7a65	-0.038446803
192	0xbd6e0afd	-0.058115948
193	0x3d41aae8	0.04728213
194	0xbd52a96e	-0.051431112
195	0xbd135346	-0.035968088
196	0xbd3708e9	-0.04468623
197	0x3d2b407a	0.041809537
198	0x3d1b010e	0.037842803
199	0x3dfcee56	0.123501465
200	0xbc182b4d	-0.009287667
201	0x3c99cca0	0.01877433
202	0xbd0055f9	-0.03133199
203	0xbc87cceb	-0.016577205
204	0xbd0126fb	-0.031531315
205	0xbc4cd3b4	-0.012501646
206	0x3ce184e0	0.02752918
207	0x3c0fe238	0.008781962
208	0xbb49bd07	-0.0030782835
209	0xbd33a39b	-0.0438572
210	0xbd3c4dad	-0.045972515
211	0xbc983383	-0.01857925
212	0xbde1bd35	-0.110224165
213	0x3c004a98	0.007830285
214	0x3d0c88f6	0.034310304
215	0xbc2ae7c6	-0.010431236
216	0x3d8da2c6	0.06915812
217	0xbcaa6d24	-0.020803995
218	0x3d694715	0.056952555
219	0x3d1154b3	0.035481166
220	0xbca7f893	-0.020504272
221	0xbcf09465	-0.029367635
222	0xbbfa9733	-0.007647419
223	0xb60e2bd1	-2.1185153e-06
224	0x3d02dab8	0.031946868
225	0x3d0cc558	0.03436789
226	0xbd832193	-0.06402888
227	0x3cab4a7b	0.020909538
228	0xbc86107c	-0.016365282
229	0x3d2ddb50	0.04244548
230	0x3d93e706	0.072217986
231	0xbb468aca	-0.0030295127
232	0xbd29b293	-0.041430067
233	0x3d03c974	0.032174543
234	0x3d04ce06	0.03242304
235	0xbd844097	-0.06457632
236	0x3d381d70	0.04494995
237	0xbd800501	-0.062509544
238	0xbd28c370	-0.04120201
239	0xbd8ecadc	-0.06972286
240	0xbd53d533	-0.051716994
241	0xbc9a88b3	-0.018864011
242	0x3c47fb00	0.012205839
243	0xbc9d7db9	-0.019224988
244	0xbcc3dd31	-0.023909183
245	0x3d5facda	0.054608203
246	0x3d2d7cb3	0.04235525
247	0xbd2e2d27	-0.04252353
248	0x3d909847	0.070602946
249	0x3cc6683c	0.024219625
250	0xbcadc70c	-0.021213077
251	0xbd6a4b14	-0.057200506
252	0x3d4e8fd8	0.05043015
253	0x3bffff70	0.007812433
254	0xbc950a04	-0.018193252
255	0x3cbe3abe	0.02322137

hidden_layers.2.linear.weight f4 [256, 256]
0	0xbbd20e1a	-0.0064103724
1	0xbd0154df	-0.03157508
2	0x3d8e60ec	0.0695208
3	0xbdfd5f5b	-0.12371703
4	0xbdce698f	-0.100787275
5	0x3d8a6ae4	0.06758669
6	0xbdadac5a	-0.08480139
7	0xbdb40018	-0.087890804
8	0x3e27d4a3	0.16389708
9	0x3cba7c82	0.022764448
10	0x3de2fa72	0.11082925
11	0x3d8ba394	0.068183094
12	0x3cdd5bd3	0.027021324
13	0xbd23a100	-0.039948463
14	0xbd1649b2	-0.036691375
15	0xbcb5de0e	-0.02220061
16	0xbd923789	-0.07139499
17	0xbc47c755	-0.012193521
18	0x3d618a9a	0.05506382
19	0xbdc8849d	-0.09790919
20	0x3c77ca32	0.015123891
21	0x3d1522a9	0.036410008
22	0x3e136cd2	0.1439698
23	0x3e0370bb	0.12835972
24	0x3cbc6e7a	0.023001898
25	0xbc6e9cc3	-0.014563742
26	0x3bb6a979	0.005574402
27	0x3ad67e8b	0.0016364617
28	0xbda1ad00	-0.07894325
29	0x3d0d4d9c	0.034497842
30	0x3d834874	0.06410304
31	0xbda16615	-0.07880799
32	0x3d9eea87	0.07759576
33	0xbd577ec7	-0.05261114
34	0xbb1b1ffc	-0.0023670187
35	0xbd458d3d	-0.0482304
36	0x3c706966	0.014673566
37	0xbd131290	-0.035906374
38	0xbd8ccd44	-0.06875089
39	0x3bb3c987	0.0054866704
40	0xbc52ea4a	-0.012873242
41	0x3ba9dead	0.0051840157
42	0xbdd5a3ec	-0.10431656
43	0x3d78beef	0.060728963
44	0x3e07b3ee	0.13252231
45	0xbca33c8f	-0.019926338
46	0x3d38f270	0.04515308
47	0xbd98b21f	-0.07455849
48	0xbdddc79d	-0.10829089
49	0xba507d82	-0.00079532724
50	0x3d13d19f	0.036088582
51	0x3c81799e	0.015805062
52	0xbca16564	-0.019701667
53	0xbc9ef8b5	-0.019405702
54	0x3d5132e6	0.05107393
55	0xbd313129	-0.043259773
56	0x3dae6cc5	0.0851684
57	0xbd763ae5	-0.06011476
58	0xbd918e9d	-0.071072794
59	0x3c9eadfb	0.01937007
60	0x3d981d35	0.07427446
61	0xbd029bcf	-0.031886872
62	0x3dc0d126	0.09414892
63	0x3cbfd13f	0.023415206
64	0xbdd41af3	-0.10356703
65	0xbe38a655	-0.180322
66	0xbd83f987	-0.06444078
67	0x3c800d6e	0.015631404
68	0xbd899658	-0.06718129
69	0xbcaba5fc	-0.020953171
70	0xbd9944ae	-0.07483803
71	0xbd5eb2d5	-0.054369766
72	0xbd7b04b1	-0.06128377
73	0x3d359914	0.04433544
74	0x3db51032	0.0884098
75	0x3db46900	0.0880909
76	0x3d611ea5	0.054960866
77	0xbcb16d1a	-0.021658469
78	0x3c165ec5	0.009177868
79	0x3d46a31e	0.048495404
80	0xbdafd52f	-0.085855834
81	0x3cf247d1	0.02957526
82	0xbd3acff7	-0.045608487
83	0xbe1b02ad	-0.1513774
84	0xbc8472d9	-0.016168045
85	0xbba57fc6	-0.005050632
86	0xbc82a743	-0.015948897
87	0x3d6f6911	0.05844981
88	0xbc71eb50	-0.0147655755
89	0xbe0f081d	-0.13967939
90	0x3c8d351f	0.017237244
91	0x3e52e68b	0.20595758
92	0x3e7260ec	0.23669785
93	0xbd03d8ef	-0.032189306
94	0xbd79fabc	-0.061030135
95	0x3ccb79b4	0.024838306
96	0xbd28f7aa	-0.041251816
97	0x3bc93598	0.006140422
98	0xbd25b45b	-0.040455204
99	0x3d94886a	0.072525814
100	0xbd327dac	-0.04357688
101	0xbc7907e8	-0.015199639
102	0x3a915747	0.0011088633
103	0xbc44cee3	-0.012012216
104	0xbbca5578	-0.0061747395
105	0xbdc4029c	-0.0957081
106	0x3d91cade	0.07118772
107	0x3cc6f449	0.024286406
108	0x3ca46e79	0.020072209
109	0xbca3ef70	-0.020011634
110	0xbd542236	-0.05179044
111	0xbd19f853	-0.037590336
112	0x3e1d578e	0.1536543
113	0xbe39b52f	-0.18135522
114	0x3cefd210	0.02927497
115	0xbcead087	-0.028663887
116	0xbd2cd871	-0.042198602
117	0xbe3b42b3	-0.18287162
118	0xbe07d920	-0.1326642
119	0xbca25c25	-0.019819329
120	0x3c816c2c	0.01579865
121	0x3d800fce	0.062530145
122	0xbd7e829c	-0.062136278
123	0xbc95f304	-0.018304355
124	0x3d2a6e21	0.041608933
125	0x3e2fa265	0.17151792
126	0xbe20dbb1	-0.15708806
127	0x3d2dcdc1	0.04243255
128	0xbd5bb158	-0.053635925
129	0x3df4bd4d	0.11950169
130	0xbd0611ab	-0.032731693
131	0x3d02ef88	0.031966716
132	0xbb6437cb	-0.0034823294
133	0xbda0d411	-0.078529485
134	0x3d75e903	0.06003667
135	0xbc985092	-0.018593106
136	0xbd4e6df9	-0.050397847
137	0xbdb68817	-0.08912676
138	0x3d9dcc5b	0.07704993
139	0xbd421e5f	-0.047392245
140	0xbcdfe137	-0.02732907
141	0xbcce11eb	-0.025155028
142	0xbe04ff0f	-0.12987922
143	0xbdd15833	-0.10221901
144	0x3cd6ebf0	0.02623555
145	0x3d83b9ff	0.0643196
146	0xbd51220c	-0.05105786
147	0x3b4a1ab5	0.0030838673
148	0x3d254a1c	0.04035388
149	0x3c993581	0.01870227
150	0xbd44a21b	-0.04800616
151	0xbe3bf4a0	-0.18355036
152	0x3d83779c	0.06419298
153	0xbd1f0710	-0.038825095
154	0x3a445bc4	0.0007490481
155	0xbcc97723	-0.024592942
156	0x3cd47298	0.025933549
157	0xbd61e23f	-0.055147406
158	0xbd8e7974	-0.06956759
159	0xbce654ac	-0.028116547
160	0xbd36d596	-0.044637285
161	0x3db9b2dd	0.090673186
162	0x3e3fabb6	0.18717846
163	0x3dc6a8ae	0.09700142
164	0x3de7e542	0.11323024
165	0x3b234d6c	0.0024917973
166	0xbd90ee3e	-0.07076691
167	0x3d39a997	0.04532775
168	0xbb24b0e8	-0.0025129858
169	0x3b2627e6	0.0025353371
170	0xbda32c03	-0.07967379
171	0x3d172dd9	0.036908958
172	0xbdc23a2b	-0.09483751
173	0x3c941a42	0.018078927
174	0x3c69899e	0.014254002
175	0x3dfafa1b	0.12254735
176	0xbdcdbe0e	-0.10046016
177	0x3d9da2c1	0.076970585
178	0x3dae28a5	0.08503846
179	0xbdc96dfb	-0.0983543
180	0xbd81b100	-0.06332588
181	0xbd11a0a0	-0.035553575
182	0xbd761cc2	-0.06008602
183	0x3d842b7a	0.06453605
184	0x3c84611b	0.016159585
185	0x3d098df0	0.033582628
186	0x3c0146ee	0.007890446
187	0xbd802a50	-0.062580705
188	0xbdd603f8	-0.10449976
189	0xbc8de811	-0.017322572
190	0x3d886244	0.06659368
191	0xbbe1a7bf	-0.006886452
192	0xbd4b925d	-0.04970013
193	0xbd198d82	-0.037488468
194	0x3b2587da	0.0025257976
195	0xbdc70394	-0.09717479
196	0xbb847afd	-0.0040429817
197	0x3c57a761	0.013162465
198	0xbd21ebe7	-0.039531615
199	0xbe1512e6	-0.1455799
200	0x3def38c4	0.11680749
201	0xbd8beef9	-0.0683269
202	0x3b61edc0	0.0034473985
203	0x3bd4a37d	0.006489216
204	0xbc31cac1	-0.010851563
205	0x3d1e8269	0.038698588
206	0x3da89337	0.08231204
207	0x3e14f9fb	0.14548485
208	0x3d1c325d	0.038133968
209	0x3e0083d3	0.12550287
210	0xbce9721d	-0.028496796
211	0x3c8da6e5	0.017291496
212	0x3c85d04b	0.016334673
213	0x3da29dc3	0.07940247
214	0x3d400df1	0.046888296
215	0xbccfd07f	-0.025367973
216	0x3d7d166c	0.06178896
217	0x3c22d09c	0.009937432
218	0x3c9c72e2	0.01909775
219	0x3cc1462e	0.023593035
220	0x3e021d54	0.127065
221	0x3d6eb363	0.058276545
222	0xbd187088	-0.037216693
223	0x3d776f68	0.06040898
224	0x3ce0cae4	0.027440496
225	0xbdd3d23b	-0.10342833
226	0x3de27bad	0.110587455
227	0xbb6cd8a6	-0.0036139875
228	0x3d6e003f	0.058105703
229	0xbe0374af	-0.1283748
230	0x3e05e436	0.13075337
231	0xbd848ccb	-0.06472167
232	0xbd73964e	-0.059469514
233	0xbd2d9e98	-0.042387575
234	0x3db98f9f	0.09060597
235	0x3be6d749	0.007044707
236	0xbdba82f6	-0.0910701
237	0xbd944022	-0.07238795
238	0xbe1d06c2	-0.15334609
239	0x3d8614bf	0.06546926
240	0x3cc088f8	0.023502812
241	0x3d2dc01e	0.042419545
242	0x3dc7f79d	0.09764025
243	0xbc40faae	-0.011778517
244	0x3d720b8d	0.059093047
245	0xbbbe53d8	-0.005808335
246	0x3d8ba838	0.068191946
247	0xbd5b4509	-0.053532634
248	0x3d950144	0.07275632
249	0x3d82d079	0.06387419
250	0x3d339311	0.043841425
251	0x3d15549c	0.036457643
252	0x3cde82b0	0.027161926
253	0xbd4f8567	-0.05066433
254	0xbbb166f3	-0.005413884
255	0x3cab8381	0.02093673
