My-Siren/result/composite_grad/model_final.pth (torch, 796743 bytes, 9 tensors)

first_layer.linear.weight f4 [256, 2]
000000 89 5b fa 3e 42 d6 c8 be 00 28 69 be 68 57 6e be
       0.4889796 -0.39225966 -0.22769165 -0.2327553
000010 6f 66 af 3e 33 66 a9 be 62 3c 6b be c6 23 b2 3e
       0.34257838 -0.33085784 -0.22972253 0.34792918
000020 45 be a6 be 97 5a 19 bd ed c2 41 be 3e ca e9 3e
       -0.3256704 -0.03743991 -0.18922015 0.4566211
000030 42 a2 93 bc f9 f0 16 3d c4 30 29 3e c3 5e ab be
       -0.018021706 0.036850903 0.16522509 -0.33470735
000040 48 ea ab 3c b4 e8 be be e0 44 cb 3e c1 43 e5 be
       0.020985737 -0.37286913 0.39700985 -0.44778255
000050 33 d4 57 be f8 31 fc be 1d 0e 9b 3e 97 b0 62 3e
       -0.21077041 -0.49256873 0.30284205 0.22137676
000060 ac e0 b7 be 19 53 6a 3e e4 0a 00 3f 9f 6c d9 be
       -0.359136 0.22883262 0.5001662 -0.42465684
000070 ba 8f 23 3e 7c 44 d5 3d 1f 98 1b 3e 32 0f a1 3e
       0.15972796 0.10413453 0.15194748 0.31456906
000080 ac d8 06 3e 84 de d8 be 7c 1b 81 be eb ab 3e 3d
       0.13168591 -0.42357266 -0.2521628 0.046550673
000090 20 29 02 3e 41 ba 8f be 64 ff 8a be d4 62 6b 3e
       0.12711 -0.28071788 -0.27147973 0.22986919
0000a0 ae d7 c1 3e 73 03 d8 3e b6 9d 94 3c d2 f1 40 bd
       0.37859863 0.42190132 0.018141609 -0.047105618
0000b0 c2 07 d6 be ce e6 1f be e9 f7 94 be 65 a9 93 3d
       -0.41802794 -0.15615389 -0.2909539 0.07210044
0000c0 e9 24 be be b3 58 81 bd 7c 52 7e 3e 2d 6a 6c 3e
       -0.37137535 -0.06315746 0.24836153 0.23087378
0000d0 48 ee f1 be dc ba c4 3e 82 f0 d0 be ce f5 c2 be
       -0.47252107 0.38423812 -0.40808493 -0.3807816
0000e0 63 18 a7 bd a0 9d e6 3e 10 c3 86 3e 3b 0e 76 be
       -0.08158948 0.45042133 0.26320696 -0.24028866
0000f0 ce f2 9b 3e ac fd b1 3e 60 54 07 be 99 02 d7 be
       0.30458683 0.3476385 -0.1321578 -0.4199417
000100 df 77 7a 3e 1a 27 98 be fb 49 88 3e b5 00 81 3e
       0.2445979 -0.29717332 0.26618943 0.25195852
000110 14 4a e9 be 28 cd c9 be 46 cc 07 3e 88 53 15 3c
       -0.4556433 -0.39414334 0.13261518 0.009114154
000120 c6 3f ec 3e 70 bb 16 3e 86 fc 88 be 29 bc d5 3d
       0.46142405 0.14719939 -0.2675516 0.10436279
000130 1d da bb bd 92 32 78 3e f1 94 ae bd 52 4d c6 be
       -0.09172461 0.24238041 -0.08524502 -0.38730866
000140 c6 74 58 3e 27 fd ea 3d ce 05 58 3e a3 a6 ac 3e
       0.21138296 0.11474066 0.21095964 0.33720884
000150 a7 ad ab 3e f0 28 40 3e 0c 3d d5 be 8f ce 75 3e
       0.33530924 0.18765616 -0.41648138 0.24004577
000160 03 45 74 be 70 62 e4 3e 03 77 de be d3 3b 90 bb
       -0.23854451 0.44606352 -0.43450174 -0.004401663
000170 03 f1 2e 3e 41 e2 b5 be 9a bc d0 bd 46 d1 18 3e
       0.17084126 -0.3552418 -0.10192223 0.14923581
000180 3d 8e 2d 3c 3d 7b 99 be 8c cb f5 3d a6 ce da 3e
       0.010592994 -0.29976836 0.12001714 0.42735785
000190 78 05 b2 3e fb 0f 90 3e e7 ce af 3d b2 44 fe be
       0.34769797 0.28137192 0.08584385 -0.49661785
0001a0 6c 5c df 3e af 10 93 3e c6 f5 6e 3e 27 4a d8 3d
       0.436252 0.28723666 0.23335943 0.105610184
0001b0 c0 d2 bb 3d 84 67 4d bd 8a c1 b7 be fb 9e c3 3e
       0.09171057 -0.05014755 -0.35889846 0.3820723
0001c0 be 58 7e be 88 f0 c0 3e 77 35 8a 3e 0d 92 9a 3e
       -0.2483854 0.3768351 0.26993915 0.30189553
0001d0 61 fc e2 be 84 a2 ff be a9 3d c7 3e f0 c5 ea bd
       -0.44333175 -0.49928677 0.3891423 -0.11463535
0001e0 9e aa 2f 3e 45 0c 3e 3c 23 2b c1 be 1a 64 ac 3c
       0.17154929 0.011599605 -0.37728223 0.021043826
0001f0 f7 b1 9a 3e 0a b4 9e bd ab 4b ae be 93 c7 87 3e
       0.302139 -0.077491835 -0.34042105 0.2651945
000200 1f f6 c9 3e 0b 50 28 be fe a7 db 3e 65 dd a7 3e
       0.39445588 -0.16436784 0.42901605 0.32786098
000210 09 73 9d 3c 1b 27 a1 3e cd fb 5f be 6a 1e 40 3e
       0.019219892 0.31475148 -0.21873398 0.18761602
000220 d0 a3 01 bf f7 ba 95 be dd fe 18 3e 8f 23 b2 be
       -0.50640583 -0.29244205 0.14940973 -0.34792754
000230 8f 4c 01 bd 51 f8 ce 3e 29 31 f9 3d 4c 26 63 3e
       -0.031567153 0.40423825 0.1216758 0.22182578
000240 53 9c 1e bd 67 fe 29 be f3 a6 d4 3e b2 c0 72 3e
       -0.0387233 -0.16600953 0.41533622 0.2370632
000250 12 a5 46 be 8d e9 83 3e 6d 8e 33 3e 10 87 a8 bd
       -0.19398907 0.25764123 0.175348 -0.08228886
000260 46 34 cd 3e 9b da eb 3d d5 85 69 be cd c6 9d be
       0.40078944 0.11516305 -0.22804959 -0.30815735
000270 2b 84 2a 3e 48 1a ca 3e 91 52 b0 be 91 cf 12 38
       0.1665198 0.39473176 -0.34437993 3.5002424e-05
000280 73 35 43 3a 45 e1 ad be 84 32 dd be ac 1f 1b be
       0.0007446624 -0.3396093 -0.43202603 -0.151488
000290 fc 64 d0 3d 70 bc c3 be 5b 11 af bd a5 4f de 3d
       0.10175511 -0.38229704 -0.08548232 0.10855035
0002a0 c5 b0 ac 3e 26 3b a5 bc d3 14 1c 3e 0b 32 54 be
       0.33728614 -0.020169806 0.15242319 -0.20722215
0002b0 d0 83 d9 3e 25 bc 6a 3e ed ee f5 3e 73 a3 b0 bc
       0.42483377 0.22923334 0.48033848 -0.021562314
0002c0 7e 4d ed 3e 80 95 98 3e 06 db fd bd 0b 51 df be
       0.46348184 0.2980156 -0.12395291 -0.43616518
0002d0 61 d3 40 be 04 2b 00 3f b1 05 f7 be e0 1e 9f be
       -0.18830635 0.50065637 -0.4824653 -0.31078243
0002e0 88 64 28 bd 1a 8e e8 3e 70 92 c0 3e 7c ae 5d 3e
       -0.0411115 0.45420915 0.37611723 0.21648592
0002f0 51 f9 04 bd 27 c5 ab 3e fa 0b a4 3e be 6f 27 3e
       -0.03246433 0.33548853 0.32040387 0.1635122
000300 4a af 06 3d 2d 87 41 be ee 40 8c 3d 32 23 24 3e
       0.032882012 -0.18899222 0.06848322 0.16029051
000310 c7 ab 91 bd f4 c4 46 bd 9a ee b2 bc 04 91 85 be
       -0.07112842 -0.048527673 -0.02184229 -0.260872
000320 4e 4d 12 3e 96 57 88 3e 06 e2 fc be ae ef b8 3d
       0.14287302 0.26629323 -0.49391192 0.0903009
000330 82 2f cb be 10 16 a3 3e e3 f4 5f 3e 72 1e cc be
       -0.39684683 0.3185277 0.2187076 -0.39866978
000340 c7 0b d7 be ed 27 11 3e 4b 81 78 3e c2 5e e1 bd
       -0.42001173 0.14175387 0.24268071 -0.11004402
000350 43 ec cc be 93 1d 92 bd 00 1d d0 be ff 9a ff 3e
       -0.40024003 -0.07134547 -0.40647125 0.4992294
000360 35 70 b0 3e cd d7 de 3d 32 89 c3 be e4 f9 e2 3e
       0.34460607 0.108810045 -0.3819061 0.44331276
000370 70 ae d6 3c 3f bd 83 be 2b d6 bb 3e 3b 8a 00 bd
       0.026206225 -0.2573032 0.36686835 -0.031381827
000380 f4 63 5b be c6 73 e7 be e6 cb 16 be bc 7c e5 3e
       -0.21424848 -0.45205516 -0.14726219 0.44821727
000390 7d bb dc 3e 49 c6 cf be a0 b9 b0 bd 91 9c d7 3e
       0.43111792 -0.40580967 -0.08629155 0.42111638
0003a0 9f 9b e9 be 43 01 cc bd 0c 82 de 3e d5 78 0e be
       -0.45626542 -0.09961178 0.43458593 -0.13913281
0003b0 97 7d 91 be d6 12 8b be 68 88 30 3e e9 d0 61 bd
       -0.2841613 -0.27162808 0.17239535 -0.055130873
0003c0 8b 2a fa 3e 24 3f 56 be 54 15 c6 be 6a a6 71 3e
       0.48860583 -0.20922524 -0.38688147 0.23598638
0003d0 3c 5f 48 be c3 46 dc 3e fe c5 a5 be 2f c4 1e be
       -0.19567579 0.43022737 -0.3237762 -0.15504526
0003e0 25 f7 a0 3c b4 44 06 3e 19 aa a5 3e 36 bc a8 be
       0.019649098 0.13112146 0.32356337 -0.32956094
0003f0 5a 66 5d be 6f ee ee 3d 10 dd 40 3e 9e f8 60 3e
       -0.21621075 0.11666571 0.18834329 0.2196984

first_layer.linear.bias f4 [256]
000000 87 27 18 3f 74 d9 da bd 47 22 12 3f 20 5a 67 3e
       0.59435314 -0.10686007 0.57083553 0.22592974
000010 15 11 d3 bd 58 39 20 bf a2 e2 ba be 19 98 d0 3e
       -0.103059925 -0.625875 -0.36501032 0.4074104
000020 0b 9a 48 bd 94 d6 ee bd 6e 9b 06 bf b5 c0 ef bd
       -0.04897503 -0.11662021 -0.52580917 -0.11706678
000030 2e 84 92 be b2 63 d3 3e ab 2e e5 bd 1b 7c d8 be
       -0.2861647 0.41287 -0.11190542 -0.42282185
000040 8b b9 d7 3e 3e 00 9c 3e 16 e3 fb be 15 05 1e 3e
       0.42133746 0.30468935 -0.4919669 0.15431626
000050 ef de 05 3f dc 59 22 bf 10 18 f1 bd b9 f1 1f 3f
       0.52293295 -0.63418365 -0.11772168 0.62478215
000060 c6 36 f2 3e 89 7a 2a bf 80 49 e7 be 76 b5 30 bf
       0.47307414 -0.66593224 -0.45173264 -0.6902689
000070 7f 9a 35 bf 43 87 a5 be df d6 14 be dd 5e 1d bf
       -0.7093887 -0.3232976 -0.14535092 -0.61472875
000080 65 0f c6 be 51 4e fe be 2e 72 04 bf a1 e1 80 3e
       -0.3868362 -0.49669126 -0.51736724 0.2517214
000090 7e a3 24 3f 39 82 8a be 15 25 f1 be 07 c6 06 3f
       0.6431197 -0.27052477 -0.47098604 0.52645916
0000a0 14 1a 04 3f fe a9 cb be d6 ce 15 bf d7 90 2b be
       0.5160229 -0.3977813 -0.5851873 -0.16754471
0000b0 9f be ba be 2d ba 9d be ff da 9f 3e 69 20 7f 3d
       -0.36473557 -0.30806103 0.31221768 0.062286768
0000c0 37 ac 80 3e d3 2a 83 be 68 e3 af be ec bf a0 3e
       0.2513139 -0.2561861 -0.34353185 0.31396425
0000d0 3c 57 db 3c 85 bb 23 be c4 d7 83 be 5b 46 49 3e
       0.026774995 -0.15989502 -0.25750554 0.19655745
0000e0 b6 31 dd 3e 4d 17 b3 3e 93 67 e7 be 26 c8 22 bf
       0.4320199 0.34978715 -0.45196208 -0.6358665
0000f0 52 f4 d4 3e 3e 50 e3 3e 3f 37 61 3e ee 36 02 3f
       0.41592652 0.44397157 0.21993731 0.50865066
000100 89 29 1a 3f c7 fb d1 3e 6c 8a 4e 3e 1b 59 10 bf
       0.6021963 0.41012403 0.20169991 -0.56385964
000110 1c 72 62 3c f6 ca 28 3f 0f 88 f0 be 38 70 34 bf
       0.013821151 0.65934694 -0.46978804 -0.7048373
000120 00 4f 0b 3f 37 c4 2e be ae de 5a be 19 1c 17 be
       0.5441742 -0.17067038 -0.21374008 -0.14756812
000130 1e ef f4 3e 51 ea 9b 3e 06 60 09 3f 6e 9c 25 3f
       0.47838682 0.30452207 0.53662145 0.6469182
000140 4a 6a 16 3f 3d ac 23 3f be 2f 32 3e d4 69 d0 be
       0.58755934 0.6393469 0.17401025 -0.4070574
000150 3e ad 07 bf 1e 2b 32 be 4e b8 f4 3e 19 73 a1 3c
       -0.5299872 -0.1739926 0.47796863 0.019708203
000160 1c b5 f6 bd 96 ff a2 be 7a 6e d6 be 78 b6 12 bf
       -0.120462626 -0.31835622 -0.41881162 -0.57309675
000170 75 13 0a bf 09 0a be bd 19 10 66 3d 72 58 c1 be
       -0.5393594 -0.09279258 0.056167696 -0.3776279
000180 6e 65 b1 be c9 21 80 3d 65 57 21 3f 02 a3 17 3f
       -0.34647697 0.06256444 0.6302398 0.59233105
000190 22 c3 7b 3e 01 4b aa 3e 0b c9 9b 3e fc cc 0d bf
       0.24586156 0.33260348 0.3042682 -0.55390906
0001a0 a3 96 cd be 9d 8d 86 3e c7 0c 0e bf 41 c3 b3 3e
       -0.4015399 0.26279917 -0.55488247 0.35109904
0001b0 1c 5b 19 bf 43 ae 31 3f 82 ec 8e bd 26 ee b3 bd
       -0.59904647 0.6940653 -0.06978704 -0.087856576
0001c0 8f 5b 66 3e b8 98 94 be e1 69 07 bf a7 8b 1d bf
       0.22495864 -0.29022765 -0.52895933 -0.6154122
0001d0 66 a2 d7 3e d7 3c 3b bd df 59 18 bf c8 d1 c7 bc
       0.42116088 -0.04571232 -0.5951213 -0.024392024
0001e0 04 e5 52 3e 38 a1 12 3f 2d 98 24 bf 4f f4 1c bf
       0.20595175 0.5727725 -0.642947 -0.61310285
0001f0 b1 f3 9a be 35 da 88 3c 86 68 4b 3e ff 46 07 3e
       -0.30264047 0.016705612 0.19864091 0.13210677
000200 b8 41 98 be 02 d9 21 3f 17 f2 f1 bd 7a ce 18 bf
       -0.2973764 0.6322175 -0.11813753 -0.5969006
000210 8e 0e ed be 50 3e 81 3e 74 40 29 3f 9e ec 26 3e
       -0.46300167 0.25242853 0.6611397 0.163012
000220 cf fb 8d 3d 53 a6 f2 be 0c 33 70 3e 4e e5 56 3d
       0.06932794 -0.4739252 0.23456973 0.052464776
000230 25 21 13 be 50 9c fe 3e 5b 25 0f bf 22 41 01 3f
       -0.14368112 0.49728632 -0.55916375 0.5049001
000240 bc d7 04 bf 7e f8 25 bf 4e d0 1c 3f 48 a6 a7 3e
       -0.51891685 -0.64832294 0.6125535 0.3274405
000250 c4 e1 22 3f 06 b0 17 3f 68 2f 07 3d fa 25 aa 3e
       0.6362574 0.59252965 0.033004194 0.332321
000260 c5 df d5 be 89 1e 8e 3e 97 92 a1 3e 9c f4 cb 3e
       -0.41772285 0.2775767 0.31557152 0.3983506
000270 d5 d7 87 3e 11 f3 58 be 3a 2b ff 3d e6 88 e9 3e
       0.26531854 -0.21186472 0.12459417 0.45612258
000280 a1 32 65 be 89 a2 31 3f 69 3d 9d 3e 1a 5b 0a 3f
       -0.22382595 0.69388634 0.30710915 0.5404526
000290 4e 30 1b be 79 84 15 be 8c ab 07 3f 25 7b 69 be
       -0.15155146 -0.14601316 0.52996135 -0.22800882
0002a0 87 74 0e 3f 30 53 4f be 20 35 35 3f 53 7b 88 be
       0.55646557 -0.20246577 0.7078419 -0.2665659
0002b0 36 9c a0 3d ef 1a 29 bf 61 4c d0 3e f7 3f 19 bf
       0.07842295 -0.6605672 0.40683272 -0.5986323
0002c0 ab 0a 9f be 51 a2 58 3e 87 7b 00 bf cf 61 1b bf
       -0.31062827 0.21155669 -0.5018849 -0.6069612
0002d0 8f 16 fa be ef 34 39 3e ee 55 1b 3f 25 09 64 3e
       -0.48845336 0.18086599 0.60677993 0.22269113
0002e0 d7 f7 05 bf 3e 13 ab 3e 84 02 0e bf d2 bc b1 3e
       -0.523313 0.33413118 -0.5547259 0.3471437
0002f0 1d 03 c5 3e 7f 73 d0 3e e9 23 05 3e 5e 34 9b 3e
       0.38478938 0.40713117 0.1300198 0.3031339
000300 81 c2 c8 be ea 9b cd 3e 8f 9c a2 3e d7 e1 36 3f
       -0.39210895 0.40158015 0.3176007 0.71438354
000310 40 47 86 bd 27 02 6e be 3a c0 87 3e 2c f6 60 3e
       -0.065565586 -0.23243009 0.26513845 0.21968907
000320 97 8a eb 3e bb c3 03 bf 70 1b e1 3e 56 4d 0d 3f
       0.46004173 -0.51470536 0.43966246 0.5519613
000330 fb c1 fb 3d 5b 2b e1 be a6 d8 1c 3f 3c 71 74 bd
       0.12292858 -0.4397839 0.6126808 -0.0596783
000340 99 7a 7c be 7c 77 12 3f 43 d7 13 3e 6e 76 98 3e
       -0.24656142 0.5721357 0.14437585 0.29777855
000350 da ca 02 bf 02 44 08 bf 66 47 a4 3e c3 cb 37 3f
       -0.51090777 -0.5322877 0.32085723 0.7179529
000360 ac 3b 0a 3e 81 c8 2c 3d 21 7f ad 3e b0 6f c5 3e
       0.13499326 0.042183403 0.33886054 0.38561773
000370 b4 5e 16 bf 8e 32 70 3e 3f e9 36 bf 51 f4 99 3d
       -0.58738256 0.23456785 -0.71449655 0.07517303
000380 1d f7 96 be ba 1e fe be cb 4d 76 be 8c 65 92 3d
       -0.29485407 -0.49632818 -0.24053113 0.07148275
000390 d9 e4 32 3e e2 4e 87 be 78 2a 30 3f 5a 28 fd be
       0.17470111 -0.2642737 0.688148 -0.49444848
0003a0 cb 16 99 3e 9e 21 e6 3d 0e 46 01 3f ab 45 8f 3e
       0.29900202 0.11236881 0.5049752 0.2798284
0003b0 d4 5a 37 bf fe 75 22 3f 84 dc b4 3e cc f2 10 bf
       -0.7162297 0.6346129 0.3532449 -0.5662048
0003c0 80 35 cb 3e ff 25 23 3f 2b 66 0d be 38 4e 44 be
       0.39689255 0.6372985 -0.13808505 -0.19170463
0003d0 52 ec 79 be 0e e8 17 3f b8 e4 02 bf 94 95 f2 3e
       -0.24406555 0.5933846 -0.5113025 0.47379744
0003e0 88 25 29 bf d6 df 3e be 7e 1e b7 be 3f c6 73 be
       -0.66072893 -0.18640074 -0.3576545 -0.23806094
0003f0 7e ab 1a bf 3b 9e 16 3f 91 6f e4 be c4 41 e0 3d
       -0.60417926 0.5883519 -0.44616368 0.10950044

hidden_layers.0.linear.weight f4 [256, 256]
000000 2f 7e ba 3b 5b 57 33 3b e0 a0 58 bb 38 23 5f 3b
       0.005691312 0.00273653 -0.0033054873 0.0034048092
000010 9a 8f 41 bb d2 e4 ac bb 0c 31 84 bb 94 f0 6b 3b
       -0.0029535056 -0.005276301 -0.004034167 0.003600155
000020 0a 9a b1 ba 44 71 72 3b 2d 68 3e bb ae a2 94 bb
       -0.0013549936 0.003699378 -0.0029053793 -0.0045359945
000030 ed 14 0f 3b 39 03 0a 3b 01 11 b4 38 cb 02 30 bb
       0.002183254 0.002105905 8.586236e-05 -0.0026857133
000040 77 9d bd b8 94 89 8d bb 26 2d 90 bb 50 f4 39 3b
       -9.0415524e-05 -0.004319379 -0.0043999134 0.0028374381
000050 c0 a4 8c bb 15 9f a3 3a 66 f4 35 3b 83 c6 62 bb
       -0.0042921007 0.0012483323 0.002776408 -0.0034603185
000060 ee 58 77 3b 8e 10 3f 3b fb 37 f9 ba dc 96 72 ba
       0.0037742215 0.0029154154 -0.0019013876 -0.0009254047
000070 65 7a e0 bb ec d2 9b 3a d4 6c 95 bb 77 b7 0b bc
       -0.006850528 0.0011888421 -0.0045600925 -0.008527628
000080 6a 33 bb b8 64 c6 14 3b 63 a9 b7 bb cd 75 a6 3b
       -8.9264315e-05 0.0022701258 -0.0056049093 0.005079961
000090 f4 86 87 3b 01 1f a2 bb 41 a3 02 bb 1e e9 45 3b
       0.0041359607 -0.0049475436 -0.0019933733 0.0030198763
0000a0 db 0c b4 b9 ed aa db ba 58 9b a7 3b 32 4c 48 bb
       -0.00034341853 -0.0016759314 0.005114954 -0.0030562994
0000b0 e0 dd 86 ba 6b 5f ea 3b db c0 dc bb d9 8c 15 3b
       -0.0010289513 0.007152488 -0.0067368574 0.0022819547
0000c0 e6 8a 49 ba 2a 44 45 ba 8e 03 be bb 8e 57 54 3b
       -0.0007688239 -0.0007525111 -0.0057987636 0.003240082
0000d0 98 c0 1c ba 7b d8 38 3a b8 3d d5 3b 28 88 d7 bb
       -0.00059796264 0.0007051301 0.0065076016 -0.0065775104
0000e0 6a 5c 3f bb 23 c1 2a bb ca 69 ac bb 1f 4a 87 b9
       -0.002919937 -0.002605506 -0.0052616345 -0.0002580443
0000f0 12 a7 91 3b 9c 91 1b 3b a7 d3 b2 3b 44 fe 1b 39
       0.004444965 0.0023737913 0.00545736 0.00014876673
000100 51 02 10 3b 95 76 72 bb a3 ba 28 3b 18 b0 5d bb
       0.0021974037 -0.003699695 0.002574601 -0.0033826884
000110 c5 af 0e 3c fd 62 6a bb 98 cc 2d 3b 2d 1f 60 39
       0.008708899 -0.0035764568 0.0026519652 0.00021373919
000120 8c c7 98 ba 17 2d c1 3b 07 70 95 3b 55 8c 13 bb
       -0.0011656149 0.0058952677 0.004560474 -0.0022514064
000130 d6 15 3e 3b 2a 0d 59 3a 6f 01 c6 ba 98 e4 32 3a
       0.0029004714 0.00082798547 -0.0015106628 0.0006824224
000140 9a 84 01 bb 69 a4 34 3a c1 f6 f6 3a f4 80 dc bb
       -0.0019762875 0.0006890954 0.0018841849 -0.0067292396
000150 81 a7 2b ba 68 5e 3e 3b e5 53 32 3b 62 41 51 bb
       -0.00065480924 0.002904797 0.002721065 -0.003192984
000160 31 e6 39 3b 87 19 92 bb 62 a0 f5 bb 67 64 17 3b
       0.0028365965 -0.0044586095 -0.0074959258 0.0023100616
000170 34 d8 0d bb 7b 8e 7b b9 55 6d b7 ba c7 cd 8a 3b
       -0.002164376 -0.00023990303 -0.0013994375 0.0042359564
000180 a9 51 bb ba 8a 86 47 3b 85 3a 0b 3a e7 95 a9 39
       -0.0014291304 0.0030445182 0.0005311149 0.00032345878
000190 a7 49 bf 3b be 63 df bb 1a 0a 23 3a 73 30 02 bb
       0.0058376375 -0.00681731 0.0006219462 -0.0019865304
0001a0 36 fa 78 bb 33 bd d5 3b 1f ae a2 3a 51 18 75 39
       -0.0037990934 0.0065227984 0.0012411511 0.0002337408
0001b0 72 04 8d 3b 7b d1 0c ba c9 98 67 3b df 8a 87 bb
       0.0043035084 -0.0005371791 0.003533887 -0.004136428
0001c0 5f 15 9e 39 c6 23 da bb ed f0 3c 39 d5 3a 9a bb
       0.0003015203 -0.0066570966 0.00018018829 -0.0047067204
0001d0 19 ab 43 bb 2c 49 da 3a 51 aa a8 39 5a 76 80 3b
       -0.002985662 0.0016653887 0.00032170353 0.0039203586
0001e0 59 60 b1 3b 34 a2 84 3b 0f c6 48 bb 1b c5 0a 3b
       0.005413097 0.0040476564 -0.003063563 0.0021174613
0001f0 47 97 b4 bb 6e ae 2e 3b b4 70 65 bb a3 0e 45 3b
       -0.0055111977 0.0026654261 -0.0035009803 0.0030068539
000200 5b ae 90 3a b1 7d 43 bb b4 29 88 ba e8 30 3d 3b
       0.001103829 -0.0029829557 -0.0010388405 0.0028868262
000210 52 de 54 bb 57 bb b7 ba 26 97 05 bb 16 58 1d 3b
       -0.0032481146 -0.0014017624 -0.002038428 0.0024008802
000220 c2 e2 9a 3b 63 88 dd b7 5e 34 da 3a 4f 7a 4f 3b
       0.0047267387 -2.6408763e-05 0.0016647687 0.0031658595
000230 5a 06 06 3b 63 00 5d 3b 13 07 ed ba f1 e4 b2 bb
       0.0020450563 0.0033722154 -0.0018083773 -0.005459421
000240 90 04 79 3a d2 a4 96 ba 6a 3c b2 b8 35 39 06 bb
       0.0009499276 -0.0011493212 -8.4989544e-05 -0.0020480875
000250 7d f7 fa 3a 1e d1 90 bb fe 57 a0 3b 1c 30 c4 3a
       0.0019147244 -0.00441946 0.004893302 0.0014967951
000260 c8 42 9b 3b 9a 43 a6 ba fb 31 34 39 ea e8 71 ba
       0.0047381856 -0.0012684942 0.00017184757 -0.00092281273
000270 0d 6e fd ba 2a 37 88 3b d7 bd dd b9 3b 50 cb 39
       -0.0019335166 0.0041569667 -0.00042293846 0.00038778954
000280 89 dd 9d 38 93 66 46 3b 44 fe 2a 3b 85 cf bc 3b
       7.5276075e-05 0.0030273541 0.0026091496 0.005762043
000290 1a f5 d8 ba 15 d7 59 3a e6 85 8f bb 9c f8 6e 3b
       -0.0016552538 0.0008309943 -0.0043799756 0.00364641
0002a0 5f a4 af bb 94 06 20 ba 98 b3 78 3b 1f c4 c8 bb
       -0.0053601707 -0.0006104496 0.0037948843 -0.006126895
0002b0 35 13 ab ba 4f 8f 9c ba 55 ce a3 bb b7 3c 35 3a
       -0.0013051989 -0.0011944565 -0.004998962 0.0006913649
0002c0 fa f3 ce 3b b8 d1 cc ba 62 90 5f bb d9 49 be 3a
       0.0063157054 -0.0015626466 -0.0034113158 0.0014517858
0002d0 0d 37 01 bb 17 88 b4 3a ce 6f 83 3b 54 fb 4d 3b
       -0.001971665 0.0013773468 0.004011131 0.003143032
0002e0 08 0a 70 3b 24 86 a4 bb 14 4d 01 ba 94 a7 13 3b
       0.0036627073 -0.0050208736 -0.0004932445 0.0022530304
0002f0 f5 f6 cb bb e5 7f a4 3a aa db bb 3b ea 9a a8 3a
       -0.006224508 0.0012550323 0.005732973 0.0012863551
000300 08 e8 b9 3a 30 03 b7 3b 1b fd 8c ba 53 24 68 bb
       0.0014183531 0.005585097 -0.0010756584 -0.0035422042
000310 62 03 0e 3b 4e 2e 5c bb 8c e9 5f 3b cf e6 10 3b
       0.0021669497 -0.0033596936 0.0034166304 0.002211023
000320 9d 18 4c 3b e3 73 0a 3b 69 45 e9 3a 25 fd 97 3b
       0.00311426 0.0021126203 0.0017797175 0.0046383315
000330 cf 3c bd ba ea 14 14 bb c3 e7 a0 3b 08 04 7f bb
       -0.0014437678 -0.0022595474 0.0049104406 -0.0038912315
000340 5d 91 31 3b 52 bc 99 3b b9 8e 8e 3b f6 39 65 bb
       0.00270947 0.004691639 0.00435051 -0.0034977174
000350 a2 ac d9 bb e4 fa 8b ba b8 cf 6a 3a 23 47 4e 3b
       -0.006642894 -0.001067963 0.0008957344 0.0031475506
000360 25 b8 2e bb e9 3c 4a 3a e6 fa 56 3b b3 f5 23 3b
       -0.0026660052 0.0007714765 0.0032803356 0.0025018274
000370 3e 6d 38 ba db 79 ca 3b ae 9d 62 3b ff 73 1c bb
       -0.00070353213 0.006179077 0.0034578848 -0.002387285
000380 dc 0d b2 3a 42 14 08 3c cc c6 d8 3b 0f 94 1a 3b
       0.0013584453 0.008305611 0.0066154953 0.0023586785
000390 2a 3d 33 3b 0b 29 9c 3a 70 43 6e 3b dc 77 ab ba
       0.002734969 0.0011914087 0.0036356114 -0.0013081986
0003a0 aa a4 12 3b c6 93 5e ba 55 fd 2c ba 31 25 4e bb
       0.002237598 -0.0008490648 -0.0006599029 -0.0031455273
0003b0 4d 95 82 39 de 29 86 ba 97 65 ac 3b e7 43 56 3b
       0.0002490677 -0.0010235866 0.005261134 0.0032694282
0003c0 1b a8 c6 39 a5 0b 0f 3c 89 b9 b1 ba 5a 07 07 b9
       0.0003789075 0.008730804 -0.0013559322 -0.00012877342
0003d0 90 92 97 3b dc cd 3a 3b b9 d1 fd 3a 34 4b 05 bb
       0.004625626 0.002850405 0.001936487 -0.0020339014
0003e0 de 03 b1 3b 14 28 a4 3b 84 ae ff bb d2 30 14 3b
       0.0054020723 0.0050096605 -0.0078027863 0.0022612107
0003f0 2a 2f 76 bb e1 60 81 bb ab 9a a4 3b 65 d3 c3 bb
       -0.0037564733 -0.0039483164 0.0050233207 -0.005976128

hidden_layers.0.linear.bias f4 [256]
000000 8a ab 06 bc f7 15 7b 3d 5d 7b 85 3b b8 c1 d1 3c
       -0.008219609 0.061300244 0.004073544 0.025605068
000010 39 cb f6 bc 9b 44 60 bd 9f 12 e0 3b a4 d2 3b bb
       -0.030126201 -0.054752927 0.0068381573 -0.0028659487
000020 66 95 a5 3c b2 90 38 bc 52 72 d3 3c 37 45 c7 bc
       0.02021284 -0.011264967 0.025811348 -0.024324996
000030 46 9b 05 3d 54 c3 41 bd ae 40 0c bd 3c 03 43 bd
       0.032618783 -0.04730542 -0.03424137 -0.047610506
000040 f5 53 1c 3d 9c 38 e8 3c 49 aa 74 bd c2 0e bf 3c
       0.038166005 0.028347306 -0.05973271 0.023322467
000050 bd b2 09 3d 51 79 11 bd 95 42 68 3d 82 bd 73 bd
       0.033617724 -0.035516087 0.056704123 -0.0595069
000060 28 2d 0f 3d 1f b1 61 3d d5 68 f2 bc 2f a1 03 bd
       0.034955174 0.055100556 -0.029591003 -0.03213614
000070 c4 ad fc 3c 52 ea 39 bd 93 54 6f bd 55 2d 22 3d
       0.030844577 -0.04538948 -0.058430266 0.039594013
000080 c4 d8 3b 3d a7 d4 75 3d 57 2a 3b bd 0b 61 ea 3c
       0.04586102 0.060017254 -0.045694675 0.028610727
000090 ac a8 42 3d 35 15 4a 3d 0b d0 bb bc 51 96 b2 bc
       0.04752414 0.04933663 -0.022926351 -0.021800192
0000a0 99 f7 01 bd b1 11 28 bd 12 14 2f 3d 7c 2e 0e bd
       -0.03173027 -0.041032497 0.04274375 -0.0347123
0000b0 3b e5 5f 3a 5d 24 64 3d 4e ff 0d 3c 69 a5 62 bd
       0.0008540933 0.05569874 0.008666826 -0.05533353
0000c0 0c be 91 3c 17 e0 0e bd 13 f2 1b ba 23 d4 69 3d
       0.017790817 -0.034881677 -0.00059488526 0.057087075
0000d0 1c 20 0c 3d 4f cd 50 bd 1b ec 78 bd 1a d8 38 3d
       0.03421031 -0.050977048 -0.060772043 0.045127966
0000e0 92 90 82 bc 9e bb 63 bb 50 ef 54 bd a2 d0 b7 3c
       -0.015938077 -0.003474928 -0.05198604 0.022438351
0000f0 d8 ad b3 bc 96 d9 32 bd 47 78 c7 bc dc 57 7a 3d
       -0.021933481 -0.043664537 -0.024349345 0.061118945
000100 79 10 06 bd ba 35 7a bd a5 a0 82 3d 22 e6 52 bd
       -0.032730553 -0.061086394 0.06378297 -0.051489003
000110 a1 e4 b5 bc ab bd 53 3b df d2 64 3d 02 84 ea bc
       -0.022203745 0.0032309096 0.055865165 -0.0286274
000120 9a 18 4d bd 62 38 a3 3c 85 46 12 bd 21 a4 dd bc
       -0.05007229 0.019924346 -0.035711784 -0.027055802
000130 12 5f 40 bc 66 93 cf bc 10 a0 8a 3c fc d4 24 bd
       -0.0117414165 -0.02533884 0.016922027 -0.04024218
000140 97 8f 34 3d 53 4a 03 bd 90 14 ef bc 0d 9e 4e 3d
       0.04408225 -0.032053303 -0.02918461 0.050443698
000150 b0 60 76 bb 21 a1 c9 3c 43 60 46 bd ae 13 71 bd
       -0.0037594251 0.024612965 -0.048431646 -0.05885666
000160 9d 01 be 3a ba a7 cf bb 9f 5f 17 3c 03 a6 54 3d
       0.001449633 -0.0063371332 0.009239106 0.051916134
000170 33 be 52 3d a6 ce 81 bd 80 72 9a 3c 65 02 85 bb
       0.05145092 -0.06338243 0.018853426 -0.0040591233
000180 b4 d0 21 3d 76 43 ea bc 09 09 92 3b 79 fc f8 3c
       0.039505675 -0.028596621 0.0044566435 0.030393826
000190 af 84 3f bc b1 00 e2 3b 1e 3f 5f 3d 7c 8b 80 3d
       -0.011689349 0.006897055 0.054503553 0.062766045
0001a0 8a ee 15 bd 77 27 09 bd 81 8f 7f 3d 3c 6e 15 3d
       -0.03660444 -0.033484902 0.062392715 0.03648208
0001b0 be 9a 35 3d a9 d2 91 bc ff de 6f bd 2a 49 78 bc
       0.044337027 -0.017800646 -0.058562275 -0.015154162
0001c0 59 21 9f 3c 01 10 2d 3c 34 26 b0 3c 34 f5 e5 3c
       0.019425081 0.010562898 0.021502592 0.028071024
0001d0 68 5b 23 bd 59 12 0e 3d 66 bf 5b 3c 56 42 38 bc
       -0.039882094 0.034685466 0.013412332 -0.0112462845
0001e0 0b 94 9c bc f3 50 a0 3c d3 19 b7 bc 82 8f 3b bc
       -0.019113561 0.01956985 -0.022351181 -0.011447789
0001f0 c2 2a c5 bc 3b 50 f0 bc 0b fa 6c 3d df 01 dd bb
       -0.02406824 -0.029335132 0.057855647 -0.006744608
000200 b9 6a cf bc 2b 32 33 bd 4b d3 b4 37 3b 5a 88 bc
       -0.025319444 -0.043749016 2.1556063e-05 -0.016644588
000210 4a 3e ea bb 2a 0c 03 3d 60 da fe bc f7 cd 27 bd
       -0.0071485387 0.031994022 -0.031109989 -0.040967908
000220 9a a3 ab 3c 8a 28 0b bd 0a 6f 50 3c de 66 ff 3c
       0.020952035 -0.033974208 0.012721786 0.03117698
000230 73 7d 7d 3d cf a2 66 3d 99 c6 00 3d 56 b4 12 39
       0.061887216 0.05630761 0.031439397 0.00013990825
000240 ad 04 0b bd 31 49 73 bd af cd a3 bc e8 11 0b bd
       -0.033940006 -0.059395973 -0.019995539 -0.033952624
000250 a8 8d 10 bd 48 dd 3f 3d d9 96 18 bd cd 1c 33 bd
       -0.035291344 0.04684189 -0.037253235 -0.04372864
000260 c8 89 fa bc 57 bc 3d bc 71 29 80 bd 90 06 39 3d
       -0.030583277 -0.011580548 -0.06257904 0.045172274
000270 48 fb 42 3d e3 0e 66 3d bc ae 9e bc 27 d1 46 3d
       0.04760292 0.05616654 -0.01937043 0.048539307
000280 10 87 c6 bc 48 34 b7 3c 98 7c 05 3d 0f e5 2e bd
       -0.024234325 0.022363797 0.032589525 -0.042698916
000290 06 e0 fa 3c 9d da 1d 3d de 91 d1 3c 09 cd c3 bc
       0.0306244 0.038538564 0.02558225 -0.02390148
0002a0 6b 48 3b bd 85 c1 3d 3c 12 03 4f bd f1 19 02 3d
       -0.04572336 0.011581783 -0.050540037 0.03176302
0002b0 a9 ab 1e 3d 8d 47 b7 bb 9c 16 da bc 74 67 f8 bb
       0.038737927 -0.0055932463 -0.02662211 -0.007580692
0002c0 e2 53 50 3d fb 32 49 3b bf 4a 51 3d 79 76 15 bc
       0.050861247 0.0030700553 0.051096674 -0.009122484
0002d0 a8 f7 8c bb bf 6c c5 3c ea 04 48 bd ea 2f 14 bd
       -0.004301984 0.024099706 -0.04883281 -0.036178507
0002e0 9b 4d 2a bd 21 5e 0d 3d 01 c2 d4 bb 41 cb 36 bc
       -0.041577917 0.034513596 -0.0064928536 -0.011156858
0002f0 5a 62 54 bd 6b ef 67 bd fd 62 4e bb 91 38 82 3d
       -0.051851608 -0.05662481 -0.0031492107 0.063584454
000300 d1 ed 22 3d b1 29 4b bd 1e 1a 5e bd 2d 68 e7 bb
       0.03977758 -0.049600307 -0.054224126 -0.0070619793
000310 14 b0 07 bd 5a 6c d7 bc 69 d2 32 3d 93 6a 0e bc
       -0.033126906 -0.026296783 0.043657694 -0.008692401
000320 d5 34 dd 3a fd a5 21 3d f3 f4 4f bd d3 9b 64 3b
       0.0016876707 0.03946494 -0.05077071 0.0034882918
000330 e7 67 ee 3a e1 bd 59 bd 8d af 24 3a fa 8f 65 3d
       0.0018188924 -0.0531596 0.00062822626 0.05604551
000340 d6 8a 3d 3d f4 95 71 bc 86 76 68 bd cb 0a 73 3d
       0.046274982 -0.014745224 -0.056753658 0.059336465
000350 43 57 02 bd c1 e4 38 bc ef 9c 3f 3d 2f ea c4 bb
       -0.0318215 -0.011285008 0.046780523 -0.006009362
000360 73 13 ba bc 06 f3 7c 3c 9e b0 bf bc d4 82 11 bd
       -0.022714352 0.015438801 -0.023399647 -0.035525158
000370 e9 ba 25 3c 84 ba c7 3c c0 6f 9c 3b 64 85 bf 3c
       0.010115364 0.02438093 0.004774064 0.023379035
000380 91 1d 03 3d b5 6e 08 bc 7c 95 ce 3c 11 f3 ee bc
       0.03201062 -0.008327176 0.025217764 -0.029168637
000390 88 c8 67 bd f0 f9 51 bd a4 44 80 bd 99 b3 2c bc
       -0.056587726 -0.05126375 -0.06263092 -0.010540866
0003a0 62 64 59 bd 30 22 0c 3c 6c 18 10 bd 6e 57 80 bd
       -0.053074248 0.008553073 -0.03517954 -0.06266676
0003b0 07 ed 23 bd a0 86 bb bc 35 a8 3a 3d 06 3b 25 b9
       -0.04002097 -0.022891343 0.04557057 -0.00015757614
0003c0 bb 78 82 3c ee f9 75 3d f0 74 07 3d 07 cc 30 3d
       0.01592671 0.060052805 0.033070505 0.043163326
0003d0 5d a7 1d 3d 4d 69 0a bd b2 60 a6 3c 11 85 c1 ba
       0.03848969 -0.03379183 0.02030978 -0.0014764388
0003e0 3f 28 81 bd 2a 3e 3b 3d f0 e9 7a 3c 8d 68 0d bb
       -0.063065045 0.04571358 0.015314564 -0.002157721
0003f0 df d8 1c bd ae 76 3a 3d b4 65 9e 3c 99 a1 01 3d
       -0.038292762 0.045523338 0.019335605 0.031648252

hidden_layers.1.linear.weight f4 [256, 256]
000000 89 6b fb ba 28 ee c5 bb 65 52 52 3b 23 78 c5 3b
       -0.0019181828 -0.0060403533 0.0032092568 0.0060262843
000010 25 f4 bd bb c4 06 37 bb 9f ac ca bb ea 67 1d 3c
       -0.0057969266 -0.0027927617 -0.006185129 0.009607295
000020 2c 68 31 ba 35 99 1e bb 81 f4 e0 ba e6 9f c5 bb
       -0.0006767537 -0.0024200205 -0.0017162712 -0.0060310243
000030 5c c5 60 ba eb 3c 06 bc 95 c4 a3 3b 01 23 a0 bb
       -0.0008574331 -0.008193235 0.0049977996 -0.0048869853
000040 56 51 26 bb 90 7c d3 bb a9 e1 5e 3c 2e 8b ed ba
       -0.002537807 -0.006454058 0.013603606 -0.0018123144
000050 e3 bd 53 3b 5a 21 e2 ba 32 93 16 bc df c0 1a bc
       0.0032309226 -0.0017252371 -0.009190368 -0.009445398
000060 d1 a4 8c 39 82 ce 02 3c 08 a9 2b bc a6 e8 4d bb
       0.0002682568 0.007983806 -0.010477312 -0.0031419187
000070 76 43 84 38 ef 9b 12 3c 2c b4 dc 3b 26 91 31 bc
       6.306816e-05 0.00894831 0.0067353453 -0.010837829
000080 13 dc 98 3c 2b 82 37 3b 83 49 b5 3b 92 aa 2f bb
       0.018659627 0.002800117 0.005532445 -0.0026804549
000090 08 1c cf 3a 6e cc c8 3a 74 f5 3c bc 90 62 5a 3b
       0.0015801201 0.0015319714 -0.01153313 0.0033322908
0000a0 18 be 8a 3a e5 55 86 bb 34 e5 95 3b 42 75 a5 3a
       0.0010585217 -0.004099595 0.0045744423 0.0012623447
0000b0 69 8f a8 bb d6 cc 6e bb e8 f4 8a bb 29 8b 01 3c
       -0.005144049 -0.003643801 -0.004240621 0.0079067135
0000c0 bf 7f a0 3b e1 2c 0b 3c 8c cd 45 bb b8 db 82 bb
       0.004898041 0.008494587 -0.003018233 -0.0039934777
0000d0 ed 98 1c bb 67 db 80 3b 1b d9 26 3c bc dd 9e ba
       -0.0023894862 0.003932405 0.010183598 -0.0012120525
0000e0 f3 46 fd 3b d3 3c 23 3c 85 0d bb bb 5b eb b4 3b
       0.007729405 0.009963232 -0.0057083988 0.0055212206
0000f0 65 90 c3 b9 5c 28 f2 bb 11 64 a8 3b 94 52 30 3c
       -0.0003730088 -0.007390065 0.005138882 0.010761876
000100 19 b9 c7 bb c1 ba e8 3b 42 4a 29 3c 5f fe 7d 3b
       -0.0060950634 0.007102341 0.010332646 0.0038756353
000110 93 53 49 3b 7e 17 2b bb f8 f3 6a 3c d6 98 53 3c
       0.003071998 -0.0026106532 0.014340393 0.012914857
000120 6d 17 9a 3b 06 0b 05 3c 97 25 7a ba 6a b9 5a 3b
       0.0047024996 0.008120304 -0.00095423445 0.0033374676
000130 00 d1 ea b9 f7 5d 35 3c 5c 2a 30 3a d7 9a e3 3b
       -0.00044787675 0.011069766 0.0006720179 0.0069459486
000140 47 22 fe b9 d0 48 d8 3b 1e d3 5d bb a8 12 0d 3c
       -0.00048472194 0.006600477 -0.003384776 0.008610405
000150 68 27 1a 3a 33 f7 59 3b 06 41 2e 3b 70 c9 0d 3c
       0.0005880506 0.0033258914 0.002658905 0.0086539835
000160 35 a6 43 3c 85 26 9f ba c5 5d 01 3b 25 50 5f 3b
       0.011941482 -0.0012142217 0.001973973 0.003407487
000170 8e 7c 6b bb d2 bf 14 3c 8a da 12 3b 1a f3 0f ba
       -0.0035932395 0.009078937 0.0022408091 -0.0005491242
000180 ad a8 0e 3c a3 46 46 bb 00 a3 98 3b 0d 43 09 3b
       0.008707208 -0.0030254505 0.004658103 0.0020944506
000190 87 b1 c4 ba 0e 40 09 3c 85 e3 91 bb 5f 2a cc 3a
       -0.001500652 0.008377088 -0.0044521713 0.0015576592
0001a0 5d c0 76 3b 03 63 07 bb b1 ec 54 bc 86 d3 ba 3b
       0.0037651279 -0.002065838 -0.012995885 0.005701485
0001b0 b1 79 8d bb fe 90 20 3c e5 3b eb ba 99 cc ad 3b
       -0.0043174853 0.009800194 -0.0017946927 0.005303931
0001c0 76 37 06 3c 72 de 93 3b fc 8c 11 3c 92 a7 cd b9
       0.008191934 0.0045126015 0.008883711 -0.00039225497
0001d0 fa ac 44 bc 39 ab 2b b5 2c 34 eb 3b 62 a5 f7 bb
       -0.012004131 -6.3951626e-07 0.00717785 -0.007557557
0001e0 ff e6 17 3b e0 be 16 3c e5 5a 0f bc 99 8e 9a bb
       0.0023178456 0.009200782 -0.008749698 -0.004716706
0001f0 89 a5 6a 3b df 81 9d 3b 06 9c 30 bc 4e c6 de bb
       0.0035804233 0.0048067416 -0.010779386 -0.006798542
000200 91 6e f6 bb e6 71 a1 3b 8e 84 59 3b ad 69 a7 3b
       -0.0075205048 0.004926908 0.003319058 0.005109033
000210 e5 9c b8 3b 46 a0 c9 3b c4 72 38 3b d3 42 1b bb
       0.0056339377 0.0061531393 0.0028144578 -0.0023690953
000220 1f 66 ca bb 08 0f c8 bb ce bf 61 3a dd 24 19 bb
       -0.0061767246 -0.0061053075 0.000861165 -0.002336792
000230 a0 62 28 bb ec b3 77 3b 29 e9 51 bb 07 b7 3d bc
       -0.002569355 0.003779645 -0.0032029843 -0.011579282
000240 53 36 77 ba 47 d3 b3 bb e6 e4 a2 3b 50 91 a0 3b
       -0.0009430397 -0.0054878327 0.0049711345 0.004900135
000250 29 d1 d3 3b 44 cf 28 ba 83 75 04 bc 34 90 7f bb
       0.006464143 -0.00064395764 -0.008084658 -0.0038995864
000260 d2 9b 01 bc d8 bf 0f 3b 63 6d 7c bb 55 c2 09 bb
       -0.007910686 0.0021934416 -0.0038517348 -0.0021020372
000270 9b 35 d6 3b cd bd 5e ba 20 11 ff ba 36 5c f0 bb
       0.006537152 -0.00084969105 -0.001946006 -0.007335211
000280 1c 02 2e 3b be 02 28 3c d0 bd 06 3c 58 fe 41 bc
       0.002655155 0.01025456 0.008223966 -0.011840425
000290 b5 d3 d4 3b 2c d3 b6 bb eb c2 b5 b8 ce c9 91 bb
       0.006494964 -0.005579373 -8.667059e-05 -0.004449106
0002a0 d2 8c e8 39 7c 3f e0 bb 9a 1a 81 bb 43 a0 a3 ba
       0.00044355408 -0.0068435054 -0.0039399387 -0.0012483675
0002b0 fc 39 30 b9 84 db 10 3c 85 00 56 3b e4 4a ec 3b
       -0.00016806269 0.008841399 0.0032654118 0.007211076
0002c0 47 43 48 bc 8f 02 c9 bb 35 6e 56 3b 78 6a f4 3a
       -0.012223071 -0.006134338 0.0032719497 0.0018647453
0002d0 46 da 07 3c d6 b7 0b bb 22 c8 2b 3c e2 e6 f7 ba
       0.008291787 -0.0021319292 0.010484727 -0.0018913413
0002e0 17 70 9e ba 8e 13 0b bb da a2 ec 3b d7 2c 91 ba
       -0.0012087849 -0.0021221372 0.007221562 -0.0011075985
0002f0 61 ec ac 3b 35 1d cc b9 ef 65 0f ba d4 d4 9c 3b
       0.005277202 -0.00038931673 -0.00054702064 0.0047861133
000300 bc 08 9c bb 9c 41 41 3b e1 00 7a 3b e9 47 64 3b
       -0.0047617834 0.002948857 0.0038147497 0.00348329
000310 90 9c 13 bc ee 23 26 bb 54 43 9e bb ad 5d cc 3a
       -0.009009495 -0.0025351006 -0.0048298035 0.0015591882
000320 0e f0 b5 b9 fd 5e 86 3b 1e 3f ad 3a 2e 9f 1a ba
       -0.00034701865 0.004100679 0.0013217663 -0.00058983534
000330 d2 bb fc 3b 59 17 c3 3b c7 7c 42 bb a9 e4 89 bb
       0.0077128196 0.005953711 -0.0029676424 -0.0042081666
000340 b6 ef 87 3a e4 10 27 3b 64 59 8e bb 79 c5 39 3a
       0.0010371122 0.0025492245 -0.0043441523 0.00070866157
000350 bc bd 9a 3a c7 dc db 3b b1 98 da 3a f9 35 e2 3b
       0.0011805813 0.0067096683 0.0016677586 0.0069034067
000360 2b 1d 09 3c b3 69 05 3b 41 72 96 bb 6a d4 87 bb
       0.008368771 0.002035719 -0.004591257 -0.004145195
000370 01 1a a4 3b 63 20 74 3b 40 42 0a 3b f4 92 8a 3a
       0.0050079827 0.003725075 0.0021096617 0.001057236
000380 5d eb dd b9 bf a0 af 3a 30 ad 10 bc 06 3d f8 3b
       -0.00042327764 0.0013399346 -0.008830354 0.007575634
000390 88 86 52 3b c9 78 4c 3b 73 90 9e bb c1 81 0e 3c
       0.0032123644 0.0031199923 -0.004838997 0.008697928
0003a0 3c e1 f8 3b 87 1d 40 bb 56 5b 28 bc c5 84 5b 3c
       0.0075952094 -0.0029314475 -0.010275682 0.013398354
0003b0 c3 f4 8f bb 2e 7b e8 39 48 0e 5f ba fa d5 a4 bb
       -0.0043931915 0.00044342264 -0.0008508903 -0.005030391
0003c0 77 7d 86 3a d0 b3 09 3b d0 64 fa bb 8c ed 08 bc
       0.001026078 0.0021011718 -0.0076414123 -0.008357417
0003d0 87 92 bb b9 15 6c c9 bb e5 bb 4e 3b c4 e4 bc 3b
       -0.0003577659 -0.0061469176 0.00315451 0.0057645757
0003e0 a8 8a d1 bb 44 4d 11 3b 73 07 12 3b 46 2e e7 3b
       -0.006394703 0.0022171298 0.0022282272 0.007055077
0003f0 84 03 07 3c 1d c1 b4 bb be 7d 0b 3c 89 40 56 39
       0.008240584 -0.005516185 0.008513866 0.00020432672

hidden_layers.1.linear.bias f4 [256]
000000 88 ed 81 bd 79 05 07 bc 4b bd 13 3d 92 dc 58 bd
       -0.063441336 -0.008241051 0.036069196 -0.052944727
000010 c5 32 41 3d 7c 84 32 3a b3 49 d3 bb bf 9f df bc
       0.04716756 0.0006809903 -0.0064479946 -0.027297853
000020 82 42 ae 3c b5 c4 d2 bb 1b cc 53 3d cc 79 85 bc
       0.021271948 -0.0064321407 0.051708322 -0.016293429
000030 94 7c 1c 3d 43 0f d6 bc d2 37 66 bb f8 82 8d bc
       0.038204744 -0.026130324 -0.0035128486 -0.017274365
000040 21 60 05 3c ce fc 54 3d d4 31 f5 bc 8c 21 44 bd
       0.008140595 0.051998906 -0.029930986 -0.047883555
000050 eb fb 6e bd 4c 34 0e bc 0c 8a b2 3c 2b 20 88 bd
       -0.058345716 -0.008679461 0.021794342 -0.066467606
000060 b6 c4 17 bb d7 51 2c 3d 8c ce 69 3c d6 ca fe 3b
       -0.002315802 0.042070236 0.014270436 0.007775645
000070 29 59 60 3d f4 a2 2c bd 1c 6b 1a 3d 96 1e 37 bd
       0.05477253 -0.04214759 0.037699804 -0.044706903
000080 48 bc 44 bc 7c 5f 26 bd 38 72 59 3d 83 a1 8c bd
       -0.01200778 -0.040618405 0.053087443 -0.068667434
000090 c2 9c 20 bd 07 54 73 bc f9 38 64 3d d4 70 3d bd
       -0.039211996 -0.014851577 0.055718396 -0.04625018
0000a0 2b 1c 4f bd 1a 1d e7 3c 1e ae 8c bc a8 e8 f0 bc
       -0.050563972 0.028212119 -0.01717287 -0.029407814
0000b0 6c 27 85 3b 81 2e 1e 3c c7 d5 1b bb 5a e3 04 bb
       0.0040635373 0.009654642 -0.0023778544 -0.0020277114
0000c0 80 c6 c9 bc 62 b4 1c 3d a8 78 34 3d 3f 2c 92 bc
       -0.024630785 0.038257964 0.04406038 -0.017843364
0000d0 af 71 f8 3c 59 d4 54 bd e6 38 5d 3d 5a 7c e6 bc
       0.030327646 -0.051960323 0.05400934 -0.028135467
0000e0 6d a7 1c 3b 77 64 08 bd 15 23 c5 3c 44 45 c5 3c
       0.0023903504 -0.033298936 0.02406458 0.02408088
0000f0 d2 81 bc 3c 60 ad 23 3d 1c 17 e2 3c ee 0e 05 3d
       0.023011122 0.039960265 0.02759891 0.03248494
000100 24 6f 2d 3d 89 4d 1f bd 19 58 d5 bc af 60 44 bc
       0.04234232 -0.038892303 -0.026042985 -0.011985942
000110 b8 5e 2d bd 05 4a 4a 3d 90 5c 4d bc 0e 25 34 bb
       -0.04232666 0.049386997 -0.012534276 -0.0027487907
000120 7d 9a 13 bd 6c 01 51 3d 90 6e 06 bd d1 d1 95 bb
       -0.036036003 0.051026747 -0.032820284 -0.004572131
000130 3d cb 7b 3d 1c fa aa bc e3 d4 61 3c 02 ed 56 bc
       0.06147312 -0.020871215 0.013783666 -0.0131180305
000140 98 10 91 3b f7 71 04 bd 4c ba 40 bd a2 70 ad bc
       0.004427027 -0.032335248 -0.047052667 -0.021171872
000150 99 46 0c bc c9 45 08 bd ce 55 b7 bc bf 7f 32 39
       -0.008561754 -0.033269677 -0.022379782 0.00017022992
000160 98 00 7a 3d 12 81 e8 bc d0 3b 56 bd 0b b8 38 bd
       0.061035722 -0.028381858 -0.052303135 -0.045097392
000170 d0 54 b9 3c b4 fe cf 3c 4c 7a 31 bd cd 95 25 bc
       0.02262345 0.025390007 -0.043329522 -0.010106516
000180 84 e7 c9 bc 6e b1 b3 bc ea dc 75 bd 01 01 ce 3c
       -0.024646528 -0.021935191 -0.060025133 0.025146963
000190 b2 e9 6d bd 67 b7 5a bd a0 76 83 3d 21 89 4e bc
       -0.058084197 -0.053397562 0.0641911 -0.012605936
0001a0 2e 5a 7e 3d 85 dc 9f 3c ed 8b f8 3c f1 8e 22 bd
       0.06209772 0.019514332 0.03034016 -0.0396871
0001b0 9c c5 10 3d d9 2c 3d 3d de 9b 51 bc 11 e6 ed 3c
       0.035344705 0.04618535 -0.012793509 0.029040368
0001c0 e9 0c 9d 3c b3 d8 b0 3c 98 52 21 3c 1e 8f 88 bc
       0.019171195 0.021587705 0.009846352 -0.016669806
0001d0 0f be e5 bc 4c 90 2c bd 03 af 5e bd 69 78 6a 3c
       -0.028044729 -0.0421298 -0.054366123 0.014310935
0001e0 a6 5b fa bc 53 5f 2f bd 01 e6 79 bc 8d c6 1c bd
       -0.03056128 -0.042815518 -0.015252591 -0.03827529
0001f0 ca 0f 8e bc 8f e1 db bc f7 78 10 bd 5a 01 58 3d
       -0.017341513 -0.026840953 -0.03527161 0.052735664
000200 9b cc c2 3b d7 99 42 3d 1e 08 15 3d 06 07 00 3c
       0.005944801 0.047509994 0.036384694 0.0078141745
000210 5c 6e e8 3b b0 4d a9 bc a6 83 cd bb 43 2c 64 3d
       0.007093234 -0.020666927 -0.006271797 0.055706274
000220 9b 23 2b 3d 82 f1 42 3d c1 83 7f bd 83 68 5d 3d
       0.041782003 0.0475936 -0.06238151 0.05405475
000230 ee ca 15 bd b7 bc 2e 3d 33 f8 2d 3d 93 25 55 3d
       -0.036570482 0.04266044 0.04247303 0.052037787
000240 37 66 ad 3c 09 c0 17 bd 81 52 06 3d 35 b1 89 3c
       0.021166904 -0.037048373 0.032793526 0.016808132
000250 7f 09 83 3c 79 81 81 bd 15 a8 9d bc fe c3 a4 3c
       0.015995739 -0.06323523 -0.019245187 0.020112988
000260 7a 41 22 3d cf 7c 38 bd c1 6c 4c 3d b1 ff d9 3b
       0.039613225 -0.0450409 0.049908403 0.0066527952
000270 c6 ad df 3c 39 c5 15 bd 44 72 62 3d fa a1 67 bc
       0.027304541 -0.03656504 0.055284753 -0.014137739
000280 fa fb 4d 3d 12 62 70 3c 03 4f b6 3c 88 4d 11 3d
       0.05028913 0.014671819 0.022254473 0.03547433
000290 fc ac 09 bd 08 c6 71 bd 68 74 6e bd 89 f2 78 3c
       -0.033612236 -0.059026748 -0.058216482 0.015194544
0002a0 fb 77 5f 3d ec 2c 53 3c c7 55 62 3d 5d 3e e6 bc
       0.05455778 0.012889128 0.055257585 -0.028105909
0002b0 6f 04 51 bc 98 6b a9 3d 71 8c fa 3c 8f 82 f1 3c
       -0.012757405 0.08272475 0.030584546 0.0294812
0002c0 49 66 1c bd 0a 7e 1e bd 6d e1 55 bc a3 5c 2f 3b
       -0.038183484 -0.03869442 -0.013054234 0.0026758097
0002d0 f3 c8 3e bd a9 72 2b bc ad 5b 87 bd f4 7c e0 bb
       -0.04657836 -0.010464349 -0.06609283 -0.006850833
0002e0 96 75 9b bc 19 12 69 bc c9 73 90 bc b8 3e c7 3c
       -0.018976968 -0.014225506 -0.017633336 0.024321899
0002f0 ac d0 8c 3c 4b 3a 85 3d 59 58 c9 bc c0 a9 9d ba
       0.017189346 0.06505259 -0.02457826 -0.0012028739
000300 c1 52 2a 3d 24 01 63 3d a1 52 53 3d bc ff 4f 3c
       0.041582827 0.05542101 0.051592473 0.012695249
000310 04 8e 57 bd ad 9b 00 3d f6 5f 82 bc 18 e0 21 bd
       -0.05262567 0.031398464 -0.015914898 -0.039520353
000320 44 31 79 3c c4 6b 3e bd 01 9a 3c bd 63 61 03 3d
       0.0152095 -0.046489492 -0.046045307 0.032075297
000330 53 3e 1a 3c 25 9f 46 bc d3 e9 ff 3c 02 9b 07 3d
       0.009414273 -0.012122904 0.031239426 0.03310681
000340 02 77 29 3c 9a f2 49 bd cb 7f 1f 3c 9e bd 2a bd
       0.010343315 -0.04930363 0.009735058 -0.04168474
000350 23 ad 00 3b 64 4a 61 3c 72 a4 65 3d af d6 dc 3c
       0.0019634448 0.013750646 0.05606503 0.026957838
000360 6d 6e a7 3c ff 4e 0d bd ef f1 b2 3a 56 68 6a bd
       0.020438397 -0.034499165 0.0013652424 -0.05722841
000370 13 bd e1 bc 6d 20 db bc ab 22 a1 3b 81 a3 b8 bc
       -0.027555978 -0.02674886 0.004917463 -0.022538902
000380 ff 69 f2 bc 4e 69 b8 bc be e5 32 3d a5 b6 f4 ba
       -0.029591559 -0.02251115 0.04367613 -0.0018670155
000390 5d 8b 7c 3d d2 45 09 bd d3 f6 4d bb c0 4d 29 3d
       0.061656345 -0.03351385 -0.0031427636 0.041333914
0003a0 71 00 5b 3d 9d f2 61 3c 62 c6 3f 3c 18 06 1e 3d
       0.053467218 0.013790754 0.011705013 0.03858003
0003b0 02 a2 a8 3b 9d 1b 0c bd bc a9 44 bb 76 b6 2a bc
       0.005146266 -0.03420602 -0.0030008396 -0.010419479
0003c0 23 9c 28 3c 58 a0 1a 3c 6f 95 05 3c 31 ab d3 3c
       0.010291132 0.009437643 0.0081533035 0.025838466
0003d0 84 71 5a bc 54 c1 41 3d 10 33 61 3d d4 45 95 bc
       -0.013332728 0.047303513 0.054980338 -0.018221773
0003e0 e3 61 99 bc b9 36 17 bc cd 48 75 bd e9 3d 39 bd
       -0.018723434 -0.0092293555 -0.05988388 -0.045225058
0003f0 29 a3 76 bd a8 d7 2f 3c 97 27 3b 3d e6 c8 b9 bc
       -0.060214195 0.010732569 0.045692053 -0.022678804

hidden_layers.2.linear.weight f4 [256, 256]
000000 08 45 ea bb dc c6 8c 3b 6b 67 cd 3a 67 b4 d9 bb
       -0.0071493424 0.004296167 0.001567108 -0.00664382
000010 64 b6 51 bb 75 1b 83 3b e4 6d e4 bb 48 59 6e 3c
       -0.0031999582 0.004001076 -0.006971108 0.0145476535
000020 60 ea 1d bc 8f 72 eb 3b 6a 7d 63 bc 13 72 d2 bb
       -0.009638399 0.0071852873 -0.0138848815 -0.00642229
000030 98 ab 26 3c ca df 99 3c 3d 96 d5 bb 5c 3d d4 3b
       0.010172747 0.018783469 -0.006518154 0.006477041
000040 ef 89 c3 bc e3 5f b4 bb bb 46 7b bb f7 7a 83 bc
       -0.023869483 -0.0055045947 -0.003834172 -0.016049845
000050 a8 ea 6c 3a 5f fc 3a bc 46 68 4b 3c c8 e2 ee 3b
       0.0009037652 -0.011412709 0.012414997 0.007290218
000060 c6 7e 59 bc e3 f3 40 bc 45 0f 8b 3b 34 5e a0 bc
       -0.013274854 -0.011776897 0.0042437636 -0.01957617
000070 0e 40 43 bb e0 c9 42 bc 7f c2 ab 3b ae 33 33 3b
       -0.0029792818 -0.011888951 0.0052416916 0.0027344036
000080 bc ab d2 3b 28 b2 7d 3c d1 82 56 bc d6 a6 21 bb
       0.0064291637 0.01548437 -0.0130927125 -0.0024666092
000090 b9 8c 36 3c 26 6a 61 3b 32 60 d9 b7 e6 d5 33 3c
       0.011141949 0.0034395545 -2.591321e-05 0.01097629
0000a0 00 e8 1d 3c 59 30 42 bb ca f9 b7 ba 5e b6 1e 3b
       0.009637833 -0.0029630868 -0.0014036235 0.0024217586
0000b0 fe c5 1c bc d7 2f 09 bc c2 a0 82 3b b0 c6 04 3c
       -0.009568689 -0.008373222 0.003986449 0.008104011
0000c0 a3 fa ca 3b 8f 97 8b bb be b5 00 bc 63 e9 57 bc
       0.006194429 -0.0042600106 -0.007855831 -0.013178202
0000d0 b1 3f 90 3c 3f 23 7d ba 34 3f 83 bc df 82 2c bb
       0.017608495 -0.0009656436 -0.016021349 -0.0026323122
0000e0 82 82 a2 bb 25 b7 99 ba 54 27 20 bb 2e 6e f0 ba
       -0.0049594054 -0.0011727555 -0.0024437504 -0.0018343383
0000f0 27 60 3e 3b 7c 1c 0e 3c fe b4 e4 bb 05 8a 02 bb
       0.002904901 0.008673783 -0.0069795838 -0.0019918692
000100 3d 28 e5 ba 2f b3 42 bc f2 be 9e bc 1c 8d 55 3c
       -0.0017483305 -0.011883541 -0.01937816 0.013034131
000110 ae d5 aa bc 3f d3 c7 bb 54 00 4b bc 37 08 8d 3c
       -0.020853844 -0.0060981805 -0.012390215 0.017215831
000120 e7 06 3d bc 78 95 b7 3c 01 54 07 3c 48 6c 8b bc
       -0.01153729 0.02241014 0.008259774 -0.017019406
000130 28 d4 aa bc e0 d2 d8 3b bd 3d 37 bc 5e fa 62 3a
       -0.020853117 0.006616935 -0.011184153 0.00086585234
000140 c0 bb 08 3c d0 68 b2 3b 70 e4 16 bc 63 73 9d bb
       0.008345544 0.0054446235 -0.009209737 -0.004805015
000150 9b 1b 44 3b ca fc 81 3c 2c 1e 35 bc 46 cc a6 3b
       0.002992368 0.01586761 -0.011054557 0.0050902693
000160 af d9 22 bc 8b 7a ab bb b6 0f 2c bb e8 23 0f 3a
       -0.009939595 -0.005233114 -0.0026254482 0.00054603675
000170 78 a1 90 3c 02 6a 8c 3a 4d 9b 13 3c 03 59 e4 3b
       0.01765512 0.0010712745 0.009009195 0.006968619
000180 20 11 b8 3c 71 53 b7 bc 50 1d 75 bb 6a 0e c6 bb
       0.022469103 -0.022378655 -0.0037401505 -0.0060441988
000190 42 11 1d 3c 48 16 e3 bb f4 8e 2d 3c ee ed 7f ba
       0.009586634 -0.0069301464 0.010593165 -0.00097629323
0001a0 24 3a 4b bc 67 66 b4 3b d4 6c 6f 3c 64 ac fd b9
       -0.0124039985 0.0055053714 0.014613349 -0.0004838436
0001b0 70 8e 27 3c c1 f7 db ba 0c aa c2 ba 8c aa aa 3c
       0.010226831 -0.001678221 -0.0014851703 0.020833276
0001c0 f5 a2 08 39 cf f0 89 3c ca 9c 47 bb 82 60 0f bc
       0.00013030677 0.01683846 -0.0030458444 -0.008751037
0001d0 3b 69 84 3b 4a 35 83 bc e5 79 1c 3b 70 08 d8 3b
       0.0040408648 -0.016016621 0.0023876366 0.0065928027
0001e0 65 f6 20 3b 3e 5f cf 3b 43 a4 b4 bb 44 ab 67 b9
       0.0024560925 0.0063284924 -0.0055127456 -0.00022093678
0001f0 2b 42 4b bb be 41 22 3c 14 5b 9d 39 af a2 68 3c
       -0.003101478 0.0099033695 0.00030013232 0.014198943
000200 f4 a6 13 bc 83 68 eb 3c b8 1c 00 3c 1e 2e 33 3c
       -0.009011973 0.028736359 0.007819347 0.010936288
000210 86 80 de 3a 61 c5 fe 3b 2a d4 ca bb 51 c2 a9 bb
       0.0016975559 0.0077749942 -0.0061898427 -0.005180635
000220 d5 dd 98 bb 85 cd 10 3c 31 36 c5 39 88 fd 9f 3c
       -0.0046651163 0.008838062 0.00037615144 0.019530073
000230 5f 24 36 bc 0a f5 24 3b 3f c8 a5 3b e5 4f e7 bb
       -0.01111707 0.0025170469 0.0050592716 -0.0070590847
000240 07 d1 c4 3b d2 2d 88 bb 59 f3 72 bc cf db 8e bc
       0.0060063633 -0.004155853 -0.014828526 -0.017438797
000250 0e 15 ae 3c d1 3b ec 3b dd b8 52 3c 6a b3 33 3b
       0.021250274 0.007209279 0.012861458 0.0027420172
000260 3a fe 2b 3b 55 65 67 3c 9a 5d 23 3c 92 2c 11 bc
       0.002624406 0.0141232805 0.009971047 -0.008860724
000270 b8 d6 02 bc 94 09 54 3c 4c a8 e8 3b f9 ac 12 bc
       -0.007985763 0.012941737 0.0071001407 -0.008952373
000280 c4 bb ec 3b 9a 4a c0 ba aa 73 6c bb 99 e0 a7 3b
       0.007224532 -0.001467067 -0.0036079683 0.0051232097
000290 ae ac 6a 3c fe ca 51 bb ef 01 d7 3a ac b0 0b 3c
       0.014323397 -0.0032011862 0.0016403774 0.008526009
0002a0 41 28 3d 3b 0d 96 b6 bc 2e c8 01 3c f7 e2 aa 3b
       0.0028863105 -0.022288347 0.007921262 0.0052150446
0002b0 98 77 f0 3b eb 70 44 3c d2 e6 58 3c a6 8e 3f bc
       0.0073384754 0.011989812 0.013238626 -0.011691725
0002c0 f8 06 ec 3b d4 45 1b ba b6 6c a4 3b 87 98 4d 3b
       0.007202979 -0.0005923186 0.005017842 0.003137143
0002d0 11 5d 1e 3b c3 3e 3b bc fc 6c 87 bb 8b 08 9d 3c
       0.0024164359 -0.011428538 -0.004132865 0.019169113
0002e0 95 18 03 bc e7 2c 9e 39 38 29 db ba ad 0e 6c bc
       -0.008001466 0.00030169563 -0.0016720658 -0.014407796
0002f0 1f da 36 bb 4e 8b c2 3b 1f 32 94 bc 93 57 86 3c
       -0.0027901006 0.0059370166 -0.018090306 0.01639918
000300 a9 e5 a9 bb 69 b6 2c bc ef 8a af 3b f2 a0 53 3c
       -0.0051848483 -0.010541537 0.0053571383 0.01291679
000310 1e 26 62 3c 5d 4e 05 bc 61 a1 b0 bb b4 ba ea bb
       0.013803033 -0.008136359 -0.0053903316 -0.00716337
000320 bd b7 95 bb 1d 42 3a 3c 43 c8 2d 3a 84 ac ef ba
       -0.0045690225 0.011368302 0.00066292676 -0.0018285667
000330 a4 e4 bb bb 2b e7 b8 ba f2 7c 7b 3c d7 79 b5 3b
       -0.005734043 -0.0014106979 0.0153496135 0.005538206
000340 84 46 32 3b 05 42 52 3c 98 a7 22 bb 59 81 8e bb
       0.0027202675 0.012833123 -0.0024819132 -0.0043489155
000350 a4 75 e6 bb 68 3c bc ba f1 f3 89 3c 1d f7 f1 3b
       -0.007033067 -0.0014361264 0.016839953 0.0073841945
000360 7a 0e 96 3c e6 f0 3c 3c d1 cf c0 bb 74 0d 1b bc
       0.01831745 0.011532044 -0.0058841486 -0.009463657
000370 fc a1 a3 3b 94 c5 90 ba 98 63 38 3b 2a 55 5b 3b
       0.0049936753 -0.0011045211 0.0028135534 0.003346751
000380 63 2b 10 bc af 48 a5 3c 4f db 71 bb db 33 bc 3b
       -0.008799407 0.02017626 -0.00369044 0.0057434863
000390 07 8c 9e bb 41 40 4e bc 01 45 ef bb f5 6c 3a 3c
       -0.00483847 -0.0125885615 -0.007301927 0.011378516
0003a0 54 e5 60 3c d2 84 82 3a af 4b 7b bb a5 e1 93 bc
       0.013726551 0.0009957796 -0.0038344671 -0.018051932
0003b0 b0 1d 02 bc 03 fd f5 bc ec f4 c0 bb 02 ab 00 bc
       -0.007941648 -0.030027872 -0.005888572 -0.007853271
0003c0 1e 03 60 3c f8 90 8b 3c 3a 7a 2c 3c 4c 05 01 bb
       0.013672618 0.0170369 0.010527188 -0.0019686995
0003d0 31 c7 1b 3c b5 41 48 bc ef 85 12 3b 28 fa ef b8
       0.00950794 -0.012222697 0.0022357663 -0.00011443003
0003e0 15 f9 a7 3b ed 1e 01 3c 0f 99 10 bc 9d df 93 bc
       0.0051261284 0.007880908 -0.0088255545 -0.018050963
0003f0 a1 03 f6 3b 8c b5 3a 39 26 17 59 bb b7 46 97 bb
       0.007507757 0.00017805974 -0.003312537 -0.004616584
