My-Siren/result/poisson_grad/starfish/model_final.pth (torch, 796743 bytes, 9 tensors)

first_layer.linear.weight f4 [256, 2]
-0.23635212 0.40947598 0.45867613 -0.39072114 -0.1978618 0.28361166 -0.36988682 -0.20599574
0.4850532 0.11696001 -0.09052045 -0.4532349 -0.2776272 0.08064023 0.24912265 -0.21286532
0.23299965 -0.37284204 -0.14312628 -0.15210462 0.41420254 -0.13355017 -0.24850523 0.117369644
0.29010963 -0.45073307 0.08788274 -0.026599785 -0.3246873 0.17697684 0.19119675 -0.39971736
-0.4748589 0.46531883 0.32987562 -0.46922138 -0.47162795 -0.392924 -0.123859435 -0.112323105
-0.5012882 0.4438573 -0.137992 -0.1574072 -0.090681806 0.059928436 -0.22197653 -0.30706418
-0.155281 0.19804946 0.4454183 -0.41639838 -0.15242812 0.37516716 0.23625024 0.20250855
0.16071215 -0.14478427 0.0791465 0.16004825 -0.113066025 -0.5008468 -0.34868628 -0.48767805
-0.19641206 0.14465055 0.120169975 0.11599649 -0.085027084 -0.09012645 -0.0929005 -0.18071018
-0.090254225 0.03328185 0.45796168 -0.3050608 -0.3006176 0.21279658 0.08139268 0.26648575
-0.3316035 0.43292868 -0.1142601 0.3471428 -0.006496698 -0.019803965 0.15301114 -0.35854027
0.34516487 -0.12870865 0.41913712 0.30652952 -0.0025374899 -0.4470388 -0.36826804 0.47140014
-0.20036912 -0.36349237 0.2984934 -0.38178632 -0.14287955 -0.44637173 0.24666171 0.091770515
-0.016167883 -0.01281373 0.4291446 -0.38442647 -0.038703147 0.2634701 -0.092809156 -0.08266264
0.45084116 -0.23553783 -0.49782106 -0.26433638 -0.26434746 -0.4710166 -0.27805185 -0.35701033
-0.40116024 -0.26036608 0.008114151 -0.1605106 0.03646328 0.31409383 0.20183733 -0.44242287
-0.03708035 0.43573254 0.10287142 0.23626812 0.050801933 -0.40240073 -0.013555973 0.053032435
0.3195864 0.4577338 0.29289272 0.39999107 0.14784123 -0.48140493 -0.24932058 -0.1611667
-5.184509e-05 -0.341417 -0.2143289 -0.46306223 -0.03836058 -0.4152576 -0.26717374 0.11706949
0.28681242 0.04719963 0.35436732 0.24008366 -0.2604876 -0.11428129 -0.30331555 0.18112011
-0.1271134 -0.04826659 0.057426587 -0.19244793 -0.0004971244 -0.056461725 -0.13028553 0.46517685
0.12264284 -0.029118676 0.22216003 0.12086724 0.42233932 0.45031738 0.2954155 -0.34718373
-0.0017129864 0.41363335 0.12727691 -0.268911 0.09192404 -0.40408307 0.36706215 -0.03708582
-0.07494086 -0.1425869 -0.090341605 0.01789026 0.41410458 -0.15290242 0.37449577 -0.30554
-0.47799513 -0.0039446503 -0.31999254 -0.18293653 0.13734806 -0.42134142 0.42626137 -0.35864767
-0.22978382 0.49456432 -0.02687464 0.20712404 -0.49847573 0.10969664 0.40469527 0.319552
-0.28869954 0.4164447 -0.28312576 0.439158 0.2931033 -0.05240857 0.32898542 -0.13510221
-0.4192225 -0.082539745 -0.19366762 -0.2737769 -0.06208437 0.22367796 0.21278535 -0.21942295
-0.33020252 -0.49259108 -0.045227356 0.03897462 0.07683411 -0.46620438 0.009677601 -0.39180765
-0.07896651 0.20042546 0.47017786 -0.49318823 -0.4791269 0.019784924 0.34379792 0.2268033
0.13864544 -0.3374342 0.36817935 -0.1312026 0.49631745 0.27438748 -0.42129898 0.41470397
0.14699279 -0.29767346 -0.1878141 -0.055106997 0.4791405 0.37798575 -0.33179343 -0.28230283
00000000: 4a06 72be d6a6 d13e 99d7 ea3e 9a0c c8be
00000010: 499c 4abe 8c35 913e ce61 bdbe 8cf0 52be
00000020: e558 f83e bb88 ef3d c962 b9bd 680e e8be
00000030: 2725 8ebe b426 a53d 021a 7f3e 5ef9 59be
00000040: 7697 6e3e 27e5 bebe b28f 12be 50c1 1bbe
00000050: 5b12 d43e 60c1 08be 2878 7ebe 7f5f f03d
00000060: 4089 943e 7cc6 e6be defb b33d cbe7 d9bc
00000070: 6a3d a6be 6b39 353e 15c9 433e c1a7 ccbe
00000080: b520 f3be 453e ee3e 75e5 a83e c93d f0be
00000090: 3879 f1be 562d c9be 04aa fdbd a809 e6bd
000000a0: 6c54 00bf 4441 e33e c64d 0dbe 5a2f 21be
000000b0: 62b7 b9bd 8577 753d d14d 63be 8437 9dbe
000000c0: fc01 1fbe 7acd 4a3e de0d e43e 2b32 d5be
000000d0: 1e16 1cbe e915 c03e 95eb 713e 675e 4f3e
000000e0: ba91 243e 5442 14be 8f17 a23d b0e3 233e
000000f0: 298f e7bd 7f37 00bf 0287 b2be f0b0 f9be
00000100: 3e20 49be 461f 143e ad1b f63d 918f ed3d
00000110: ae22 aebd 3794 b8bd 9e42 bebd 170c 39be
00000120: 35d7 b8bd 8d52 083d f479 ea3e ee30 9cbe
00000130: 8dea 99be 59e7 593e 35b1 a63d d270 883e
00000140: efc7 a9be d4a8 dd3e 3301 eabd b3bc b13e
00000150: 41e2 d4bb ed3b a2bc f4ae 1c3e 9792 b7be
00000160: 73b9 b03e 33cc 03be 2499 d63e 70f1 9c3e
00000170: 044c 26bb 45e2 e4be a18d bcbe 5c5b f13e
00000180: 902d 4dbe ac1b babe 20d4 983e 7f79 c3be
00000190: 044f 12be d68a e4be e394 7c3e 2ef2 bb3d
000001a0: 8272 84bc aef0 51bc d7b8 db3e 8cd3 c4be
000001b0: 3187 1ebd 8ee5 863e ba12 bebd 084b a9bd
000001c0: a7d4 e63e d430 71be 67e2 febe 1957 87be
000001d0: 8d58 87be 1629 f1be d05c 8ebe 0fca b6be
000001e0: e064 cdbe b44e 85be 37f1 043c e45c 24be
000001f0: 855a 153d e8d0 a03e 72ae 4e3e 4085 e2be
00000200: 91e1 17bd 5618 df3e 40ae d23d 45f0 713e
00000210: b015 503d 7807 cebe df19 5ebc 8a38 593d
00000220: d4a0 a33e 165c ea3e 09f6 953e a1cb cc3e
00000230: b163 173e b57a f6be e54d 7fbe e208 25be
00000240: 3e74 59b8 36ce aebe 0979 5bbe 7e16 edbe
00000250: fc1f 1dbd a59c d4be ffca 88be 21c2 ef3d
00000260: 14d9 923e 6654 413d a26f b53e 7ed8 753e
00000270: a15e 85be 4f0c eabd 2d4c 9bbe 8d77 393e
00000280: 042a 02be 30b3 45bd 2438 6b3d 1211 45be
00000290: 7451 02ba 6944 67bd 9269 05be a92b ee3e
000002a0: 2b2c fb3d 4a8a eebc eb7d 633e 3e89 f73d
000002b0: dc3c d83e 0090 e63e b340 973e 11c2 b1be
000002c0: 4986 e0ba c0c7 d33e e154 023e b4ae 89be
000002d0: ac42 bc3d fae3 cebe 92ef bb3e 4de7 17bd
000002e0: 987a 99bd 4d02 12be 0505 b9bd 988e 923c
000002f0: 8405 d43e 7492 1cbe e9bd bf3e bd6f 9cbe
00000300: c7bb f4be 2042 81bb 10d6 a3be b753 3bbe
00000310: f8a4 0c3e 10ba d7be ee3e da3e aba0 b7be
00000320: 734c 6bbe 8937 fd3e 3428 dcbc 5318 543e
00000330: 3638 ffbe a2a8 e03d 3834 cf3e 529c a33e
00000340: 6dd0 93be 3d38 d53e dcf5 90be 51d9 e03e
00000350: a311 963e 5eaa 56bd c770 a83e 3c58 0abe
00000360: 55a4 d6be 990a a9bd ce50 46be 7c2c 8cbe
00000370: 2e4c 7ebd d60b 653e 67e4 593e 69b0 60be
00000380: 4e10 a9be e634 fcbe 5240 39bd daa3 1f3d
00000390: 345b 9d3d 57b2 eebe cd8e 1e3c 039b c8be
000003a0: 32b9 a1bd 553c 4d3e 27bb f03e 2b83 fcbe
000003b0: 1f50 f5be fe13 a23c 4806 b03e 203f 683e
000003c0: 12f9 0d3e 2dc4 acbe 0182 bc3e f959 06be
000003d0: 521d fe3e 847c 8c3e 80b4 d7be 1454 d43e
000003e0: 4785 163e a868 98be 5752 40be e0b7 61bd
000003f0: e751 f53e 5987 c13e d4e0 a9be ff89 90be

first_layer.linear.bias f4 [256]
-0.27377522 -0.31371638 -0.6973236 0.45660576 -0.55014926 0.011012644 0.24251647 0.3246938
-0.25423864 0.64624256 0.4891936 0.43582708 0.4383069 -0.22314803 0.13059889 0.13948923
-0.23351626 -0.5272471 0.34391478 -0.438933 0.113368765 -0.24706733 -0.6461381 0.4909866
0.6401385 -0.25993633 -0.40461585 -0.2240806 -0.07929733 0.5459248 -0.60767233 -0.498325
0.38087478 0.5826484 -0.53299356 -0.56006354 -0.05961065 -0.34665176 -0.34812418 -0.36852232
0.30240956 -0.38057715 -0.620984 0.21703492 0.32047334 0.28259587 -0.13621973 0.68485945
-0.08835908 0.4648678 -0.65558916 0.181484 -0.16874419 0.2244367 -0.62050843 0.0713788
0.6245627 -0.28573516 -0.07099829 0.6415946 -0.5867041 -0.1144091 0.10123248 0.61005825
0.49306417 0.66471136 -0.41552335 -0.20897596 0.037401017 0.1393027 0.13796903 -0.02662814
0.20732501 0.054661576 0.13155428 -0.2767159 -0.6645271 -0.09130203 0.69391763 0.2068338
0.05704854 -0.19061892 0.032436695 0.6446727 -0.64665496 -0.40192533 0.42839637 -0.60939455
0.63675463 0.46943954 0.06770172 0.25729936 0.60553986 0.5308628 0.12375161 -0.32276887
0.6678717 0.41739368 0.3274364 -0.5085156 -0.5235184 -0.6430771 -0.09769551 -0.64733964
0.17105691 0.590046 0.6698541 0.71104795 0.19179787 0.64988106 -0.006810941 -0.009501113
-0.37184715 -0.20615818 0.24897252 -0.23561311 0.28639066 -0.5813463 -0.21715204 0.25587893
-0.10912649 0.057789993 0.4628264 -0.41917163 0.46540183 -0.5333078 -0.42531958 0.36079744
-0.47286236 0.46882653 0.69911647 0.17605415 -0.62561536 0.25818685 -0.27625674 0.40578642
-0.4550816 0.5072223 -0.42494643 0.5346141 -0.010121788 -0.1633651 0.23836863 -0.28662378
-0.10514936 -0.40755442 0.39781675 -0.4599075 0.039128594 0.26267308 -0.65937763 0.18006144
-0.037560515 0.49364993 0.055522088 0.3715998 -0.54450125 0.37594968 -0.20757581 0.1848381
0.0073988964 0.57174826 -0.22454144 -0.5762458 0.062076803 0.011002953 0.6483647 0.080606945
-0.020884655 0.5824332 -0.03571894 -0.4663926 0.4794451 -0.25023556 0.37372005 0.47957358
0.044009726 -0.46304125 0.31665742 0.21472238 -0.0040128613 0.52923083 0.6315889 0.6373962
-0.21462847 -0.27412665 0.40151712 0.27435884 -0.14181015 0.25802308 -0.27715832 0.013625951
-0.32356927 -0.58198315 0.665878 0.43916088 0.64668185 0.019168213 0.41956475 -0.31482452
-0.6729887 0.6358435 -0.67410254 -0.31657702 -0.17661586 0.12770134 -0.056786112 0.017087
-0.6942383 0.036742058 -0.087707065 0.26630846 0.58467686 0.3902258 0.14066136 0.35709143
-0.09253807 -0.36198267 0.14981006 -0.51053405 -0.081833 -0.5621806 0.09250605 -0.55897075
-0.40069017 0.49726027 0.38140824 0.06108804 0.53281355 -0.46661967 -0.37736514 0.694405
0.08964125 0.6774921 -0.42748 -0.021786619 -0.42000765 -0.034419414 -0.64901805 0.5592122
-0.4024006 0.0802357 0.037972093 -0.37809053 -0.45254835 -0.3338152 0.48212877 -0.60153735
-0.013274255 -0.20959078 0.64768815 0.17126697 0.19259848 -0.71037465 0.2229794 0.3337631
00000000: 442c 8cbe 6f9f a0be cd83 32bf 3bc8 e93e
00000010: 95d6 0cbf 606e 343c 3d56 783e 443e a63e
00000020: 912b 82be 2770 253f 9577 fa3e ba24 df3e
00000030: c369 e03e eb80 64be b7bb 053e 44d6 0e3e
00000040: e31e 6fbe aaf9 06bf 9915 b03e d4bb e0be
00000050: e22d e83d 38ff 7cbe 4e69 25bf 9862 fb3e
00000060: 1ee0 233f 6016 85be cf29 cfbe 6375 65be
00000070: a366 a2bd bac1 0b3f 6a90 1bbf 7424 ffbe
00000080: 0502 c33e 7228 153f 4472 08bf 5360 0fbf
00000090: 4c2a 74bd 577c b1be 553d b2be f5ae bcbe
000000a0: 6dd5 9a3e 02db c2be cff8 1ebf 673e 5e3e
000000b0: 1515 a43e 68b0 903e 2f7d 0bbe f352 2f3f
000000c0: 9bf5 b4bd 2703 ee3e b1d4 27bf f1d6 393e
000000d0: 47cb 2cbe bcd2 653e a4d9 1ebf 0c2f 923d
000000e0: 57e3 1f3f e14b 92be 8d67 91bd 8b3f 243f
000000f0: 3d32 16bf 514f eabd f952 cf3d c72c 1c3f
00000100: e872 fc3e 862a 2a3f 7abf d4be cbfd 55be
00000110: cf31 193d 5ea5 0e3e c147 0d3e 4223 dabc
00000120: 024d 543e d1e4 5f3d 2ab6 063e b5ad 8dbe
00000130: 731e 2abf 8ffc babd 96a4 313f 3dcc 533e
00000140: bbab 693d 9b31 43be 57dc 043d 4509 253f
00000150: 2e8b 25bf 28c9 cdbe c556 db3e 4801 1cbf
00000160: 5a02 233f 615a f03e 33a7 8a3d bebc 833e
00000170: a904 1b3f a0e6 073f 7c71 fd3d f641 a5be
00000180: a4f9 2a3f a0b4 d53e bea5 a73e 142e 02bf
00000190: 4d05 06bf b3a0 24bf 9514 c8bd 0db8 25bf
000001a0: 8b29 2f3e 410d 173f 8f7b 2b3f 3d07 363f
000001b0: a966 443e 9b5e 263f 502e dfbb 8eaa 1bbc
000001c0: c062 bebe 211b 53be a7f2 7e3e 9044 71be
000001d0: cca1 923e 1cd3 14bf 1b5d 5ebe 9002 833e
000001e0: b67d dfbd 33b5 6c3d 95f7 ec3e aa9d d6be
000001f0: 2649 ee3e dc86 08bf 7dc3 d9be 71ba b83e
00000200: 041b f2be 080a f03e 4cf9 323f 8a47 343e
00000210: 5428 20bf 1131 843e 8671 8dbe 3dc3 cf3e
00000220: 7500 e9be 52d9 013f 9492 d9be 78dc 083f
00000230: dbd5 25bc 2e49 27be e816 743e 5ac0 92be
00000240: 8c58 d7bd f9aa d0be a3ae cb3e ff78 ebbe
00000250: 4e45 203d 167d 863e f9cc 28bf 0762 383e
00000260: 0ed9 19bd afbf fc3e 216b 633d 5442 be3e
00000270: 6f64 0bbf 7a7c c03e c18e 54be 3346 3d3e
00000280: 7172 f23b 185e 123f 31ee 65be d884 13bf
00000290: 3f44 7e3d bb45 343c 3bfb 253f 4115 a53d
000002a0: 4c16 abbc 581a 153f 064e 12bd 03cb eebe
000002b0: d479 f53e e01e 80be 3c58 bf3e ab8a f53e
000002c0: 8b43 343d be13 edbe ec20 a23e 2fe0 5b3e
000002d0: 527e 83bb ac7b 073f cfaf 213f 662c 233f
000002e0: 91c7 5bbe 545a 8cbe a793 cd3e c378 8c3e
000002f0: ae36 11be 9a1b 843e b2e7 8dbe 613f 5f3c
00000300: dfaa a5be d9fc 14bf fb76 2a3f b2d9 e03e
00000310: f18c 253f a806 9d3c 31d1 d63e ae30 a1be
00000320: fd48 2cbf a4c6 223f fc91 2cbf 6216 a2be
00000330: cada 34be 24c4 023e 8e98 68bd 09fa 8b3c
00000340: 9ab9 31bf d77e 163d c39f b3bd 9559 883e
00000350: 62ad 153f adcb c73e 8809 103e b0d4 b63e
00000360: 9a84 bdbd cb55 b9be cf67 193e 5cb2 02bf
00000370: 0f98 a7bd 11eb 0fbf d073 bd3d b518 0fbf
00000380: 4327 cdbe e698 fe3e f147 c33e 7437 7a3d
00000390: 7866 083f c6e8 eebe 0136 c1be 87c4 313f
000003a0: d595 b73d 1f70 2d3f a9de dabe da79 b2bc
000003b0: 3e0b d7be 5ffb 0cbd 0c26 26bf 8828 0f3f
000003c0: 7407 cebe 9d52 a43d a088 1b3d 1595 c1be
000003d0: 6bb4 e7be d3e9 aabe 95d9 f63e 5afe 19bf
000003e0: 437c 59bc f79e 56be e4ce 253f 9c60 2f3e
000003f0: 8938 453e 1ddb 35bf b654 643e ffe2 aa3e

hidden_layers.0.linear.weight f4 [256, 256]
0.005416703 0.0020914539 -0.0061938344 -0.0006644116 0.007000658 -0.0062748864 0.0037498695 0.0017843827
-0.0006726042 -0.0017751064 0.0057946565 -0.001064527 -0.0057942057 -0.00206394 -0.0061253477 -0.00041053048
-0.002709852 -0.009158191 0.0039777774 0.004833651 -0.0036604723 0.0026429715 0.0029259475 -0.00043911117
0.002998865 0.0067308447 -0.00024345925 -0.004315121 0.0017908057 -0.003183228 0.0076058265 0.00483714
-0.002544127 -0.0077461977 -0.0028071054 0.0010685832 0.0024792582 0.0014406131 -0.00773417 0.004774742
0.0064227814 0.0035846662 -0.0012180939 -8.364064e-05 0.00021693528 0.0072706426 0.0015396925 0.0035720791
0.005550168 -0.0017041499 0.006075387 -0.0043941387 -8.181632e-05 -0.003924823 -0.005741137 0.0027225597
0.0019581714 0.006180165 -0.0032112398 -0.004789618 -0.003507984 -0.0065868706 0.0029639374 -0.00053378835
0.0018501736 0.0023125366 -0.0010468619 0.0028256774 0.00027268918 0.00032601337 0.00430169 0.0037588703
0.0041491683 0.0046496396 -0.0010886171 -0.0030610969 -0.0055455635 -0.0057160477 -0.005393257 -0.0038944352
0.0010435119 0.0063046757 -0.00011349492 0.0032084656 -0.00475573 0.0064336155 0.0012187498 -0.0064912103
-0.001813577 0.0027988525 -0.0026782337 -0.0020642858 -0.0033419044 -0.0037797529 -0.0018691396 -0.005609989
0.0021033962 0.006591036 -0.00016448795 -0.00017160847 -0.0010846915 -0.0041654343 0.0029648729 0.001489029
0.0007415766 0.008780221 0.004495381 -0.0025751945 0.0018024778 0.0046240445 -0.008226935 0.002987796
0.006159116 -0.001810525 -0.0032204732 -0.0033123828 -0.005854473 0.0047001517 -0.0046713836 -0.0020687673
-0.0003280457 -0.0026985402 -0.003097018 0.003217471 -0.0016381114 0.003426084 0.00077840744 0.0053304215
0.0019911085 0.003431641 -0.00018464192 0.0058016456 -0.0046862666 0.0037986278 -0.00015946018 -0.004602106
0.006323322 -0.00549727 0.0024234345 0.0044352463 0.0016436455 -0.0015207309 -0.0050202743 0.0054960884
-0.00072701817 0.0031765432 -0.0036479293 0.0036549482 0.0038785234 0.0039562806 -0.0036444839 0.008286688
-0.003028074 0.004659547 0.004085692 0.0004913689 -0.004317214 0.0059318757 0.0024308355 0.0036551347
-0.0041787317 0.0035214697 0.0029616577 -0.00406652 0.0033763833 -0.0009954543 -0.0020110824 -0.0068545192
0.00093261927 -0.0041339295 -0.00047423915 0.002005747 0.004500929 0.0022495997 -0.0020542734 -0.005025876
-0.0025017937 -0.0055154846 -0.005013213 -0.004057155 -0.0022861545 -0.001433876 -0.0043459544 0.0027449667
0.0019744977 -0.0071039144 0.0006038117 -0.0014339429 0.0050785816 0.007586171 -0.0031352476 0.0011900484
0.0035644392 -0.004695204 -0.004967761 0.0057989317 -0.0051018884 -0.00041103933 0.004184924 0.0061229523
-0.002204021 -0.0029210441 0.0043386226 -0.00089691737 -0.0050581577 0.0035199404 0.006450524 0.00034997344
-0.0035641533 0.006060802 -0.0009945603 -0.004634208 -0.0034222072 -0.00032176604 -0.0066654035 -0.0036048645
0.00063630106 -0.004894071 0.0044155773 0.008176859 -0.005611588 -0.004749739 -0.0011487076 0.0010954889
0.0018537748 0.0046136975 -0.0048847427 0.0032312586 0.0016223366 6.1296065e-05 -0.005235236 -0.00065982726
0.0012280555 4.3663276e-05 -0.00277056 0.007320507 -0.0071987887 0.0037168984 0.0025776178 -0.0023084304
-0.0018592947 0.005949161 0.005040802 -0.0013814742 -0.002561697 0.00029883656 -0.0019313671 0.0069725853
-0.00869543 0.0038372327 0.0049041016 0.006581661 -0.0035478272 0.0022639195 -0.0037511496 0.0027735168
00000000: 997e b13b c610 093b a6f5 cabb e82b 2eba
00000010: c765 e53b 909d cdbb 5fc0 753b f3e1 e93a
00000020: b451 30ba b0aa e8ba 1ae1 bd3b 9987 8bba
00000030: 52dd bdbb 2b43 07bb 24b7 c8bb 783c d7b9
00000040: c697 31bb 3d0c 16bc 0458 823b 9a63 9e3b
00000050: 89e4 6fbb b435 2d3b 41c1 3f3b 8138 e6b9
00000060: 9b88 443b 6b8e dc3b 1849 7fb9 dc65 8dbb
00000070: 78b9 ea3a b49d 50bb 4c3a f93b df80 9e3b
00000080: 5ebb 26bb d1d3 fdbb 6af7 37bb b40f 8c3a
00000090: 0d7b 223b f4d2 bc3a ec6e fdbb 7075 9c3b
000000a0: 3276 d23b b8ec 6a3b 73a8 9fba 3a68 afb8
000000b0: 1f79 6339 923e ee3b 82cf c93a 8b19 6a3b
000000c0: 2fde b53b c85d dfba 0a14 c73b b5fc 8fbb
000000d0: cd94 abb8 cd9b 80bb 2620 bcbb f96c 323b
000000e0: aa54 003b fb82 ca3b aa73 52bb 3af2 9cbb
000000f0: 35e6 65bb add6 d7bb 9e3e 423b eeed 0bba
00000100: 8681 f23a ed8d 173b db36 89ba 002f 393b
00000110: b9f7 8e39 c6ec aa39 31f5 8c3b 6157 763b
00000120: bff5 873b 015c 983b eeaf 8eba af9c 48bb
00000130: 8fb7 b5bb af4d bbbb ebb9 b0bb c839 7fbb
00000140: 73c6 883a 7497 ce3b 1f04 eeb8 1f45 523b
00000150: f4d5 9bbb 14d1 d23b 75be 9f3a 38b4 d4bb
00000160: 8cb5 edba f46c 373b 4e85 2fbb f848 07bb
00000170: da03 5bbb bbb5 77bb ebfd f4ba 00d4 b7bb
00000180: 22d9 093b 9ef9 d73b 667a 2cb9 ccf1 33b9
00000190: 352c 8eba 327e 88bb 504e 423b 862b c33a
000001a0: 5d66 423a ebda 0f3c fd4d 933b 98c4 28bb
000001b0: 1e41 ec3a 4c85 973b 44ca 06bc e6ce 433b
000001c0: 69d2 c93b 234f edba 930e 53bb 9014 59bb
000001d0: e1d6 bfbb bb03 9a3b 6812 99bb 2894 07bb
000001e0: 8cfd abb9 fed9 30bb 57f7 4abb 35dc 523b
000001f0: e6b5 d6ba 2788 603b 0a0e 4c3a d1aa ae3b
00000200: 427d 023b 62e5 603b 709c 41b9 bb1b be3b
00000210: 418f 99bb 66f2 783b c434 27b9 43cd 96bb
00000220: df33 cf3b 7122 b4bb 7cd2 1e3b 8b55 913b
00000230: 976f d73a 4353 c7ba 1d81 a4bb 8818 b43b
00000240: 5d95 3eba 8d2d 503b 1912 6fbb db87 6f3b
00000250: d32e 7e3b b0a3 813b 4bd8 6ebb e3c4 073c
00000260: a772 46bb 1daf 983b 45e1 853b 35cf 003a
00000270: 6a77 8dbb 2e60 c23b a74e 1f3b fc8a 6f3b
00000280: beed 88bb 75c8 663b 5f18 423b 7140 85bb
00000290: 5046 5d3b e779 82ba 5dcc 03bb e09b e0bb
000002a0: 057b 743a ea75 87bb 4da3 f8b9 da72 033b
000002b0: 877c 933b 056e 133b fda0 06bb 1bb0 a4bb
000002c0: 22f5 23bb 3dbb b4bb e145 a4bb e2f1 84bb
000002d0: 4fd3 15bb e5f0 bbba 8268 8ebb e6e4 333b
000002e0: 9366 013b f4c7 e8bb 1e49 1e3a 24f3 bbba
000002f0: 3b6a a63b 6a95 f83b ba78 4dbb 66fb 9b3a
00000300: 5e99 693b 3ada 99bb 9ac8 a2bb f704 be3b
00000310: be2d a7bb c480 d7b9 b021 893b 0ca3 c83b
00000320: 5671 10bb fd6e 3fbb 012b 8e3b 1b1f 6bba
00000330: e7be a5bb cdae 663b eb5e d33b a47c b739
00000340: 9294 69bb b199 c63b e85b 82ba 8eda 97bb
00000350: 1c47 60bb b5b2 a8b9 7569 dabb 973f 6cbb
00000360: 71cd 263a 715e a0bb 8cb0 903b 3bf8 053c
00000370: 69e1 b7bb b3a3 9bbb 3b90 96ba 8296 8f3a
00000380: 5cfa f23a 802e 973b 3110 a0bb 86c3 533b
00000390: 95a4 d43a 138c 8038 588c abbb 42f8 2cba
000003a0: b4f6 a03a 1623 3738 4992 35bb dde0 ef3b
000003b0: d1e3 ebbb 3597 733b 40ed 283b 0949 17bb
000003c0: 94b3 f3ba 2ef1 c23b 502d a53b 9512 b5ba
000003d0: 25e2 27bb 2aad 9c39 ed25 fdba 497a e43b
000003e0: 4777 0ebc 157a 7b3b 96b2 a03b f9aa d73b
000003f0: aa82 68bb 445e 143b d9d5 75bb e4c3 353b

hidden_layers.0.linear.bias f4 [256]
-0.06005039 -0.0006310526 0.027733602 0.0026914584 -0.010733635 -0.022240229 0.021393377 0.028856706
0.019721566 -0.044767868 -0.029171849 0.0065578157 0.055635475 -0.046542868 -0.049033653 0.010900412
0.051525593 0.011194384 -0.04816872 0.039785106 -0.0029063015 -0.010904555 0.045531284 0.002885513
-0.010339812 0.047614947 0.047621176 0.056206144 -0.037858915 0.05011852 -0.060011104 0.03471367
0.0074661723 -0.04166607 0.010124747 -0.056794457 0.042296004 0.0064710383 -0.059088055 0.042853355
-0.05699142 0.05530972 0.013289326 -0.015430091 0.055020764 0.024444165 -0.042771988 -0.04098992
0.016533999 -0.025055004 0.011182586 0.021877475 -0.041292656 -0.012571219 -0.016130075 0.018026937
0.04023412 0.043561615 -0.061907362 0.03518683 0.012994423 0.002335733 0.042747784 -0.059715085
-0.056832433 -0.058599815 -0.009220011 -0.033965558 0.024978973 -0.01699717 0.051486958 0.05803461
0.051067274 0.045795757 0.0533574 -0.03377189 0.043562286 -0.047720056 -0.0020994858 0.003855359
0.0014695345 -0.0147938505 0.018764727 -0.030793604 -0.023376334 -0.03105851 0.049076814 0.047192246
0.055147775 0.016959667 0.04435196 0.022024952 0.040484052 0.026307032 0.03435719 -0.016543893
-0.062134128 -0.0357516 0.05074971 0.050688904 0.052725896 0.031005658 0.049156573 0.021237439
-0.058413498 0.055351052 0.0038642208 0.053609528 0.035846245 -0.021769749 0.014830773 -0.030794892
0.009041667 0.020173453 0.02088718 0.03835109 -0.029966632 -0.044857543 0.061055202 -0.05352754
-0.018535675 0.014072963 -0.05488999 0.0284909 0.039607003 -0.045286242 0.045482486 0.012247616
-0.01425368 0.05091141 0.056842025 -0.00061329146 0.04129733 0.05926083 -0.041182477 0.0051368074
0.028821774 0.012141636 -0.037752654 -0.03580318 -0.06002729 0.049586244 0.037311308 -0.05277995
-0.005624129 0.013652573 -0.031266283 -0.016603252 0.036605757 0.03275682 0.006842478 -0.04922587
0.012776371 0.05097298 -0.04715084 -0.058778495 -0.05537135 -0.019554483 0.03411767 0.02487619
0.01821287 0.017904783 0.012046851 -0.018625466 0.048984148 0.04847126 -0.060812876 0.0050018225
-0.0047818203 -0.0016757497 -0.04863257 -0.006048318 -0.052683193 0.0033425498 0.028039817 -0.048816655
0.023584485 0.004893271 -0.03154918 0.012859959 -0.03265849 -0.057593115 0.031143658 -0.028937263
-0.04382177 0.0489348 -0.058039065 -0.034358926 -0.027727984 -0.041187204 0.045535248 0.036549244
-0.051777657 0.022678535 0.016343242 0.016571453 -0.06381469 0.015812833 0.034588948 -0.0418686
0.05480171 -0.03269114 0.056083966 0.031417906 0.0298083 0.057051938 -0.011472796 -0.040735736
0.006384204 0.04411992 0.05467575 0.054168276 -0.047994677 -0.033540726 -0.054063614 0.054549545
0.04537355 0.029105866 0.03283172 0.056237552 -0.049539823 0.000501395 0.046963297 -0.050876994
0.034974527 0.05004571 -0.025203714 -0.008237589 -0.020406058 0.009625456 -0.032172106 -0.025576742
-0.05108577 0.027530096 -0.054265775 -0.060367085 0.024301514 0.053819325 0.05704801 0.041540448
-0.0046055377 0.021572609 0.010306253 -0.03505454 0.01609286 -0.030496245 0.013228051 0.006507974
0.04345149 0.035885047 0.042362638 0.05658457 -0.04969069 0.011261339 -0.02939874 -0.024115922
00000000: 66f7 75bd 396d 25ba 9431 e33c 2e63 303b
00000010: 21dc 2fbc 2431 b6bc 2a41 af3c e664 ec3c
00000020: 1f8f a13c 835e 37bd cdf9 eebc f2e2 d63b
00000030: 06e2 633d bca3 3ebd 83d7 48bd a497 323c
00000040: 800c 533d a668 373c 904c 45bd b5f5 223d
00000050: a677 3ebb 05a9 32bc 037f 3a3d e01a 3d3b
00000060: 5168 29bc e407 433d 6c0e 433d 6a38 663d
00000070: f311 1bbd 1449 4d3d 34ce 75bd ec2f 0e3d
00000080: cba6 f43b 0baa 2abd 44e2 253c 4ea1 68bd
00000090: 933e 2d3d 010b d43b 5106 72bd 0087 2f3d
000000a0: d66f 69bd 728c 623d 79bb 593c 7ece 7cbc
000000b0: 745d 613d 213f c83c ae31 2fbd 0ce5 27bd
000000c0: 4f72 873c 2740 cdbc 2a37 373c 6438 b33c
000000d0: 7d22 29bd 84f7 4dbc 3823 84bc 3aad 933c
000000e0: 88cc 243d aa6d 323d 9392 7dbd 1120 103d
000000f0: 8fe6 543c 1913 193b 4d18 2f3d ce97 74bd
00000100: 20c9 68bd 5c06 70bd 870f 17bc 781f 0bbd
00000110: b4a0 cc3c a63d 8bbc fde3 523d b3b5 6d3d
00000120: eb2b 513d 5594 3b3d 4a8d 5a3d 6554 0abd
00000130: 5e6e 323d 1b76 43bd 8797 09bb 31aa 7c3b
00000140: 659d c03a e861 72bc 7cb8 993c de42 fcbc
00000150: ba7f bfbc 6b6e febc c504 493d a84c 413d
00000160: a2e2 613d 00ef 8a3c 67aa 353d ac6d b43c
00000170: 9bd2 253d d881 d73c 20ba 0c3d 0f87 87bc
00000180: 5b80 7ebd 4570 12bd eede 4f3d 2b9f 4f3d
00000190: 1cf7 573d 94ff fd3c 6758 493d 23fa ad3c
000001a0: fe42 6fbd c9b7 623d de3e 7d3b aa95 5b3d
000001b0: 83d3 123d 7956 b2bc c5fc 723c 9245 fcbc
000001c0: 8023 143c cc42 a53c 971b ab3c 0816 1d3d
000001d0: 957c f5bc 8bbc 37bd 0515 7a3d b23f 5bbd
000001e0: 21d8 97bc 4992 663c 53d4 60bd bf65 e93c
000001f0: f43a 223d 117e 39bd d84b 3a3d 3aaa 483c
00000200: 4488 69bc 7c88 503d 2fd3 683d 4bc5 20ba
00000210: 6427 293d 7cbb 723d f5ae 28bd aa52 a83b
00000220: a41b ec3c b6ed 463c 87a2 1abd 5ba6 12bd
00000230: 2ddf 75bd f21a 4b3d bed3 183d ca2f 58bd
00000240: 9d4a b8bb 0baf 5f3c 1311 00bd 8b03 88bc
00000250: ebef 153d 042c 063d de36 e03b 11a1 49bd
00000260: fc53 513c 0bc9 503d 3d21 41bd b8c1 70bd
00000270: 12cd 62bd b930 a0bc f8be 0b3d 27c9 cb3c
00000280: 2833 953c 0dad 923c 2860 453c 6f94 98bc
00000290: 9aa3 483d cd89 463d ec16 79bd 54e6 a33b
000002a0: d1b0 9cbb d4a4 dbba f232 47bd f830 c6bb
000002b0: 55ca 57bd ae0e 5b3b c2b3 e53c f9f3 47bd
000002c0: 4034 c13c bb57 a03b b739 01bd 94b2 523c
000002d0: e9c4 05bd c2e6 6bbd fc20 ff3c d70d edbc
000002e0: 757e 33bd db6f 483d 5fba 6dbd f2bb 0cbd
000002f0: cc25 e3bc eab3 28bd 2b83 3a3d a9b4 153d
00000300: cf14 54bd 56c8 b93c 43e2 853c dbc0 873c
00000310: 47b1 82bd ea89 813c 24ad 0d3d 697e 2bbd
00000320: c277 603d 25e7 05bd 4db8 653d 10b0 003d
00000330: 8930 f43c 4baf 693d 65f8 3bbc 84da 26bd
00000340: 9632 d13b 17b7 343d aef3 5f3d 8edf 5d3d
00000350: 1196 44bd 0062 09bd cf71 5dbd 586f 5f3d
00000360: 9ed9 393d 6d6f ee3c 8e7a 063d 5959 663d
00000370: 45ea 4abd 0d70 033a 965c 403d 6564 50bd
00000380: 7341 0f3d bbfc 4c3d 0578 cebc f4f6 06bc
00000390: 9b2a a7bc 17b4 1d3c e6c6 03bd 5186 d1bc
000003a0: 503f 51bd cc86 e13c ca45 5ebd 7a43 77bd
000003b0: f813 c73c a771 5c3d 2dab 693d 5126 2a3d
000003c0: 0dea 96bb 0ab9 b03c 8fdb 283c 5995 0fbd
000003d0: 2cd5 833c 43d3 f9bc 78ba 583c d840 d53b
000003e0: 31fa 313d 33fc 123d 7284 2d3d 39c5 673d
000003f0: 7788 4bbd 7b81 383c a0d5 f0bc c18e c5bc

hidden_layers.1.linear.weight f4 [256, 256]
0.008437095 -0.0026626321 -0.003357974 0.003964488 -0.0013012978 0.003818594 0.007921955 0.008799295
-0.0019866342 0.0031685866 -0.0030335337 0.0042242897 0.0072923657 0.0023060895 0.001364247 -0.0052485247
0.0012380248 -0.0059323 0.0028872017 0.002629974 -0.0060320008 -0.0064280294 -0.0045597907 -0.0046046516
0.009826229 -0.00551764 0.0010748723 0.0012995176 -0.0005100796 0.001527235 0.0020167152 -0.00736757
0.0025472827 -0.0050069187 0.0024130351 0.0034767042 -0.0015193856 -0.009816818 -0.0051707043 0.0025251717
0.002968048 -0.011089079 -0.008939879 -0.007277619 0.007774403 -0.00020042628 0.00819493 0.0037030906
-0.0006792228 -0.0003892143 0.0023412455 0.0037665754 0.0021508143 0.00527272 -0.0039343177 -0.00021485094
-0.0034581183 0.006345403 0.0028308579 -0.004495208 -0.0047267536 0.0034077803 0.007405513 0.00023422638
0.0010782873 -0.0062077497 -0.0038981654 0.0028077986 0.00888004 0.003315013 0.0026015223 -0.004120871
-0.0036643036 -0.0063450504 -0.009123075 0.003615912 -0.00085992186 0.007265358 0.006800408 -0.0011375002
0.0063888454 0.004830235 -0.0066305217 -0.0019521351 0.0044860933 0.00711592 0.0011800526 -2.6779588e-05
0.005720675 -0.004154755 0.004775563 -0.008193725 0.0003556781 0.0027414022 -0.0038131454 -0.0076994887
0.0017302211 -0.0065844413 -0.008232728 -0.0004942156 0.0068291076 0.0006073568 -0.005767812 -0.0029710012
0.0062946356 -0.012009671 0.0013174016 0.0005877398 0.0033819624 0.005306269 0.0015050018 -0.0048810462
-0.0044484367 0.00036041808 -0.0014718474 -0.0020470317 -0.0022359132 -0.0033155577 0.0076278388 -0.0025963613
0.0045832857 -0.00015792398 -0.005555452 -0.0013913665 0.0021843032 -0.0016480137 0.00015112362 -0.00063380843
-0.008722629 -0.0033430124 -0.0014276417 0.0076617952 0.0068808 -0.0012205159 0.00306931 0.0025683297
0.00041389532 0.005804894 -0.010852556 0.006615755 0.0043892865 0.0027970893 -0.0011314474 0.0026909478
-0.0011301836 0.0069872676 -0.0027512542 -0.001092617 0.004206839 -0.0037636696 0.0056424467 0.0019794742
-0.00011481489 8.4810796e-05 0.008900935 -0.0031837053 0.003367741 -0.0007161581 0.00028699505 0.0044881813
0.003156031 -0.00019254675 0.00054743624 -0.0005887689 0.004448522 0.00351083 -0.00990418 0.00039144116
-0.0041714767 0.003755812 0.003397671 0.005177653 -0.000809389 -0.0041892347 -0.0005321579 -0.004603794
-0.0035028462 -0.0017595593 0.00033850208 2.4645373e-05 0.0070095034 0.0058414484 0.003409262 0.00012313446
0.004582807 0.0015301118 -0.0027690695 -0.0040689516 0.001154456 0.0032158587 -0.004741742 0.0050371834
-0.0053779455 -0.00014146013 -0.008266682 0.0014814001 0.0025287753 -0.0024907528 -0.0033979407 -0.0040571187
-0.001727779 -0.0017241433 0.0107301995 -0.006057809 -0.001053365 -0.0009139906 -0.00428215 -0.0016458754
-0.009785015 0.0036797747 0.0012558363 -0.0056958045 -0.00095076027 0.0006773119 0.002478577 0.0019380193
0.0020922783 0.0050262874 -0.004038011 -0.006287012 -0.007498718 -0.0023945295 0.0056544705 -0.005639941
0.0022590836 -0.006959045 -0.00035112945 0.0065634693 -0.004803834 -0.004045435 0.009288092 0.0014004458
-0.0029917853 -0.0054043652 -0.007742434 0.0010821567 1.321675e-05 -0.006625447 -0.00075897336 0.005713352
-0.0041543962 -0.004764936 -0.004386282 0.0022886144 -0.006696982 0.004189667 0.00084812543 -0.0030341016
0.004150544 -0.0054021166 -0.0003815092 0.0019600901 -0.0071268915 0.007853129 0.00073365687 -0.0060043847
00000000: be3b 0a3c 8e7f 2ebb 7511 5cbb 89e8 813b
00000010: 4f90 aaba 6041 7a3b 16cb 013c eb2a 103c
00000020: 3132 02bb 10a8 4f3b 40ce 46bb e96b 8a3b
00000030: ccf4 ee3b c321 173b 88d0 b23a d1fb abbb
00000040: 3845 a23a bd63 c2bb 3537 3d3b a45b 2c3b
00000050: 17a8 c5bb 38a2 d2bb 4c6a 95bb 9ee2 96bb
00000060: 31fe 203c 52cd b4bb bbe2 8c3a 9354 aa3a
00000070: ddb6 05ba 812d c83a de2a 043b a86b f1bb
00000080: 50f0 263b 1411 a4bb 0324 1e3b 6bd9 633b
00000090: 1f26 c7ba b8d6 20bc 036f a9bb 5a7d 253b
000000a0: 9583 423b f8ae 35bc 9278 12bc 1879 eebb
000000b0: 6bc0 fe3b 8529 52b9 0744 063c 8daf 723b
000000c0: df0d 32ba 760f ccb9 956f 193b a6d8 763b
000000d0: adf4 0c3b c8c6 ac3b 73eb 80bb 9c49 61b9
000000e0: 99a1 62bb 19ed cf3b ea85 393b 8a4c 93bb
000000f0: e2e2 9abb 1155 5f3b f2a9 f23b aa9a 7539
00000100: 5155 8d3a 616a cbbb 5d78 7fbb 0b03 383b
00000110: 967d 113c b040 593b 4d7e 2a3b 5f08 87bb
00000120: d024 70bb 24ea cfbb f378 15bc f0f8 6c3b
00000130: 616c 61ba 3e12 ee3b f5d5 de3b 2c18 95ba
00000140: 8559 d13b f346 9e3b d944 d9bb c9de ffba
00000150: 1400 933b aa2c e93b ffab 9a3a baa4 e0b7
00000160: 8074 bb3b 9c24 88bb 537c 9c3b f93e 06bc
00000170: 4e7a ba39 19a9 333b f7e5 79bb fe4b fcbb
00000180: 96c8 e23a 4cc2 d7bb 90e2 06bc 3f8e 01ba
00000190: b5c6 df3b 0637 1f3a eaff bcbb 21b5 42bb
000001a0: 3b43 ce3b 36c4 44bc aaac ac3a 8d12 1a3a
000001b0: eaa3 5d3b 36e0 ad3b 7b43 c53a 2ff1 9fbb
000001c0: 31c4 91bb 7ff6 bc39 01eb c0ba 7e27 06bb
000001d0: 6688 12bb d449 59bb f3f2 f93b b727 2abb
000001e0: 632f 963b 6598 25b9 820a b6bb 835e b6ba
000001f0: 8726 0f3b 2a02 d8ba f076 1e39 2a26 26ba
00000200: 5ce9 0ebc 7116 5bbb b51f bbba cc0f fb3b
00000210: 5578 e13b b8f9 9fba 7a26 493b 6c51 283b
00000220: 1700 d939 fb36 be3b ebce 31bc fac8 d83b
00000230: 01d4 8f3b 5f4f 373b 134d 94ba 9d5a 303b
00000240: ab22 94ba 73f5 e43b 634e 34bb 2536 8fba
00000250: 86d9 893b e6a7 76bb 46e4 b83b 11ba 013b
00000260: c6c8 f0b8 73dc b138 3ad5 113c b6a5 50bb
00000270: 51b5 5c3b 8ebc 3bba d377 9639 9811 933b
00000280: 6ad5 4e3b 60e6 49b9 d381 0f3a 9d57 1aba
00000290: e8c4 913b f415 663b 2445 22bc 583a cd39
000002a0: e2b0 88bb 1224 763b 76ab 5e3b 4da9 a93b
000002b0: 2d2d 54ba d945 89bb 8380 0bba 6cdb 96bb
000002c0: 0290 65bb 03a1 e6ba fb78 b139 89bd ce37
000002d0: faaf e53b 9f69 bf3b ed6d 5f3b a81d 0139
000002e0: 5f2b 963b 088e c83a 4779 35bb d754 85bb
000002f0: 1e51 973a 28c1 523b 9d60 9bbb f50e a53b
00000300: 7a39 b0bb ea54 14b9 fa70 07bc 8a2b c23a
00000310: cfb9 253b e63b 23bb fcaf 5ebb 94f1 84bb
00000320: a576 e2ba a6fc e1ba b8cd 2f3c 9680 c6bb
00000330: 1011 8aba df98 6fba 4751 8cbb 6aba d7ba
00000340: 5451 20bc 6028 713b e09a a43a dfa3 babb
00000350: 713c 79ba a28d 313a 9f6f 223b 2305 fe3a
00000360: 9b1e 093b 8eb3 a43b 4b51 84bb 4703 cebb
00000370: ceb7 f5bb 8aed 1cbb 2349 b93b 41cf b8bb
00000380: 220d 143b b308 e4bb cc17 b8b9 5f12 d73b
00000390: 7b69 9dbb 928f 84bb 152d 183c 2a8f b73a
000003a0: d411 44bb 1a17 b1bb 3eb4 fdbb 27d7 8d3a
000003b0: 82bd 5d37 471a d9bb d7f5 46ba 1237 bb3b
000003c0: 9a21 88bb 2e23 9cbb cdba 8fbb 94fc 153b
000003d0: 5b72 dbbb 7949 893b bc54 5e3a c7d7 46bb
000003e0: 4901 883b 3d04 b1bb 4c05 c8b9 db74 003b
000003f0: b388 e9bb 69aa 003c e152 403a 6ec0 c4bb

hidden_layers.1.linear.bias f4 [256]
0.040828906 0.012239997 -0.06343936 0.06318638 -0.008612761 0.032830212 0.036066633 -0.051372886
-0.038041703 0.00788799 0.0012753415 -0.0018684535 0.012956944 -0.036529183 0.035792626 -0.01629727
0.02406946 0.013473539 -0.025011884 -0.011506697 0.009771462 0.0338198 -0.058730472 -0.0075625214
0.018846551 0.052785076 -0.017223421 0.014315954 -0.023919214 0.01567208 0.023809917 -0.022942739
-0.0050334916 0.018224524 -0.0012453484 0.03649816 -0.04766661 -0.0018925982 -0.057067472 -0.037940033
-0.02300342 -0.04244514 0.048941724 -0.05957678 0.034720227 0.012855234 -0.0020573437 0.043220963
-0.04516043 0.015880879 -0.0033301418 0.016341032 0.034425728 0.04346022 0.056602113 -0.030981349
0.0424011 -0.009696843 0.034960303 0.002667597 -0.06312079 0.033234548 -0.038817983 0.004231371
0.017991383 0.0436552 0.036775682 0.03561148 -0.013889107 -0.053216435 -0.038256563 0.044500634
0.007931139 -0.063696206 0.017196324 -0.058501393 0.032852862 0.012901321 -0.043373074 -0.039606772
0.038374487 -0.03339103 0.06352352 -0.054799464 0.03760232 -0.05537313 0.034680307 -0.04614101
-0.06789969 -0.004597935 -0.0026767005 -0.009910952 0.015925737 0.030971702 -0.03736737 -0.01729027
0.032909412 0.05037337 0.06390054 -0.059772834 -0.060915742 0.0124480985 -0.053474456 0.038017787
0.024930034 -0.039501067 0.052694343 0.036438473 0.018171579 0.009237596 0.031114422 -0.017031427
0.04462633 -0.015850803 0.04934294 0.007716232 -0.028996497 -0.018844692 -0.06040088 0.013121545
0.05554015 0.040309113 -0.023813916 -0.009858185 -0.031398475 -0.020123046 -0.006477777 -0.045200452
0.0039861677 0.00018717736 0.037215292 -0.02159949 0.058610022 0.049469717 -0.034963027 -0.016053963
-0.0045415172 -0.0121976165 0.025177075 0.059025235 0.033139143 -0.058294546 -0.05840587 0.012748933
-0.012258037 0.051717065 0.0038635037 -0.04860129 0.06235202 0.024266623 -0.037178934 0.027885955
0.0034023153 0.0060002417 -0.047783017 0.009901316 0.05217784 0.046907637 0.023711735 -0.0369763
0.037763845 0.030900128 -0.023174033 0.05913884 0.046789385 -0.04981651 -0.055009626 0.056449126
0.039668914 -0.0037842256 -0.0132658295 -0.010767541 -0.032404542 0.05087878 0.05144274 0.03878601
-0.035541408 0.06019977 -0.032762963 -0.014977424 0.032269277 0.035905413 -0.028656397 -0.010487022
0.031494934 -0.045226958 -0.0123086525 0.050125755 -0.027851334 0.032893732 0.010078708 -0.0016763436
-0.023581391 -0.0039976863 -0.04000611 -0.014962727 -0.02808202 0.020901188 0.008162531 0.03153384
-0.014006687 0.05622759 -0.041871324 0.024968112 0.009765359 -0.034886863 0.005558738 0.06790785
-0.0017033665 -0.005738727 0.055164345 0.056009997 0.014515874 0.02829456 -0.043479145 0.027489968
0.025376787 -0.025852518 0.05829447 0.033955246 -0.008482245 -0.020233627 0.05224995 0.021106223
0.049831744 -0.016282596 -0.023108495 -0.032642458 -0.020427076 0.042217817 0.015681328 -0.015766127
0.045006536 0.018676806 0.015093132 0.024018858 -0.013093619 0.0058806734 -0.007697242 0.053338576
0.05382186 0.045594 0.030773748 0.020714419 0.046502233 0.03278676 0.030906195 -0.04517421
-0.06364082 0.04906275 -0.0056257625 -0.058287755 0.026843604 0.00449369 0.023170076 -0.05577764
00000000: 363c 273d 458a 483c 7fec 81bd dc67 813d
00000010: 8a1c 0dbc f978 063d 9bba 133d 606c 52bd
00000020: 9ed1 1bbd a13c 013c 5c29 a73a e5e6 f4ba
00000030: 5d49 543c a09f 15bd 4a9b 123d da81 85bc
00000040: 512d c53c 1ec0 5c3c b9e5 ccbc 9686 3cbc
00000050: 7b18 203c a186 0a3d 5d8f 70bd 07cf f7bb
00000060: 1564 9a3c 2a35 583d 2218 8dbc 778d 6a3c
00000070: 3af2 c3bc bc62 803c 040d c33c 69f2 bbbc
00000080: fdef a4bb 994b 953c f53a a3ba 187f 153d
00000090: 103e 43bd 0f11 f8ba 95bf 69bd 0267 1bbd
000000a0: ab71 bcbc f5da 2dbd 1e77 483d c806 74bd
000000b0: cc36 0e3d c29e 523c 80d4 06bb 7708 313d
000000c0: 25fa 38bd 9e18 823c 823e 5abb a1dd 853c
000000d0: fe01 0d3d 5803 323d 9ed7 673d 99cc fdbc
000000e0: c7ac 2d3d 82df 1ebc 8932 0f3d dad2 2e3b
000000f0: 7945 81bd f320 083d 9bff 1ebd 50a7 8a3b
00000100: aa62 933c cccf 323d 19a2 163d 58dd 113d
00000110: 238f 63bc 7af9 59bd eab2 1cbd 4c46 363d
00000120: 9cf1 013c 2873 82bd 4edf 8c3c 289f 6fbd
00000130: b990 063d 1060 533c f7a7 31bd b63a 22bd
00000140: 912e 1d3d 08c5 08bd 9f18 823d 6775 60bd
00000150: e404 1a3d efce 62bd f00c 0e3d 5bfe 3cbd
00000160: fe0e 8bbd 46aa 96bb 956b 2fbb 8c61 22bc
00000170: b176 823c 5eb8 fd3c 870e 19bd 53a4 8dbc
00000180: 05cc 063d 4f54 4e3d 49de 823d 5cd4 74bd
00000190: c982 79bd 1cf3 4b3c 0808 5bbd 8ab8 1b3d
000001a0: 123a cc3c dfcb 21bd 06d6 573d 8240 153d
000001b0: 90dc 943c 4959 173c ace3 fe3c 7e85 8bbc
000001c0: 19ca 363d 8bd9 81bc d31b 4a3d 72d8 fc3b
000001d0: 108a edbc 2f60 9abc ea66 77bd c0fb 563c
000001e0: 117e 633d 2b1b 253d 6715 c3bc 3a84 21bc
000001f0: b09b 00bd 16d9 a4bc 8843 d4bb 1c24 39bd
00000200: 669e 823b 0a45 4439 106f 183d 6af1 b0bc
00000210: 1011 703d c2a0 4a3d 6435 0fbd 9a83 83bc
00000220: 02d1 94bb 83d8 47bc 2740 ce3c 72c4 713d
00000230: e9bc 073d 43c6 6ebd fe3a 6fbd e7e0 503c
00000240: efd5 48bc 46d5 533d d632 7d3b 2512 47bd
00000250: d564 7f3d ccca c63c f048 18bd 1671 e43c
00000260: 61f9 5e3b ad9d c43b 20b8 43bd 2139 223c
00000270: 6eb8 553d 3922 403d 1d3f c23c 7674 17bd
00000280: 43ae 1a3d 4422 fd3c 78d7 bdbc 913b 723d
00000290: 3aa6 3f3d 660c 4cbd c651 61bd 3337 673d
000002a0: df7b 223d c500 78bb ec58 59bc 576a 30bc
000002b0: a0ba 04bd 4566 503d 9fb5 523d 14de 1e3d
000002c0: de93 11bd 0994 763d 7532 06bd df63 75bc
000002d0: ca2c 043d 8e11 133d d2c0 eabc c2d1 2bbc
000002e0: d500 013d e73f 39bd 3baa 49bc aa50 4d3d
000002f0: 7b28 e4bc 94bb 063d 2a21 253c c2b8 dbba
00000300: c32d c1bc 06ff 82bb 72dd 23bd 3a26 75bc
00000310: 440c e6bc f838 ab3c 23bc 053c a129 013d
00000320: 4e7c 65bc e74e 663d 4481 2bbd ed89 cc3c
00000330: e2fe 1f3c 87e5 0ebd 1326 b63b 4513 8b3d
00000340: 7f43 dfba ee0b bcbb 02f4 613d bd6a 653d
00000350: fdd3 6d3c fec9 e73c 3017 32bd a432 e13c
00000360: fbe2 cf3c a9c8 d3bc 2fc6 6e3d a814 0b3d
00000370: 1df9 0abc fec0 a5bc 0b04 563d f5e6 ac3c
00000380: 5f1c 4c3d 1463 85bc 074e bdbc 19b4 05bd
00000390: af56 a7bc 97ec 2c3d 2176 803c f727 81bc
000003a0: c658 383d 1a00 993c 2f49 773c 32c3 c43c
000003b0: 9e86 56bc aab2 c03b 2539 fcbb 8d79 5a3d
000003c0: 5074 5c3d c6c0 3a3d 3a19 fc3c 49b1 a93c
000003d0: 2079 3e3d 694b 063d fd2e fd3c 9808 39bd
000003e0: 1e56 82bd 06f6 483d 5158 b8bb 24bf 6ebd
000003f0: 1ee7 db3c ce3f 933b 2ccf bd3c 1877 64bd

hidden_layers.2.linear.weight f4 [256, 256]
-0.0023129184 -0.004842222 0.005288584 -0.0030293227 -0.007190318 0.01371535 -0.0041842707 -0.010034237
-0.00072900485 -0.0023038825 0.00913589 -0.0006020838 -0.003115417 -0.0052142423 0.00062332436 -0.0014843775
-0.0041967416 0.008028423 -0.012798831 0.003844971 0.0025490574 -0.007831361 -0.0036698538 -0.009555228
-0.004375469 -0.016421119 -0.005300585 1.0053049e-05 -0.00313905 0.008864383 0.0058702473 -0.00093830616
-0.0052204793 0.012507004 -0.005959823 0.004172047 -0.0028393737 0.014891359 0.004532511 0.003799116
-0.00038033316 -0.0011761826 -0.0037665416 0.008766194 0.00890813 -0.0009383814 0.0073717693 -0.003987799
-0.000114410104 -0.0055155167 0.0007052332 0.002984976 -0.00031794564 -0.010183275 0.0021085143 0.0072086668
0.00887012 0.0014291054 0.000176554 -0.0016875954 -0.008024967 0.0047675413 0.0058815167 0.011897882
0.00842858 0.0046831393 -0.0029203403 -0.00642805 -0.008853264 -0.011806422 0.012192568 -0.004179481
-0.011967529 -0.002321436 -0.0006422779 0.0058912914 0.0038550182 -0.0064174784 0.0031500855 -0.003351114
-0.0053413603 -0.002688723 -0.009700556 0.0002504835 -0.00086892303 0.004830948 0.006995496 0.0038032262
0.013602125 -0.0011568214 -0.002747796 -0.0035047124 -0.012077694 0.011593465 0.0010780615 -0.0065037548
-0.010086388 -0.00662968 -0.0012286567 -0.004322535 -0.0060948925 -0.007715811 -0.0054904674 0.004002375
0.0049019335 0.002471977 0.0057818764 -0.009886748 0.0031588057 0.0029556165 -0.0064221025 -0.00040840913
3.1580785e-05 0.011822319 -0.014219592 0.0036428587 0.004119209 0.0029340875 0.002909565 0.007818052
-0.0020123466 -0.013885386 0.014631519 -0.006120538 -0.0068846303 -0.006734644 0.011106606 0.0010874554
0.002263372 -0.00011768664 -0.009218589 -0.010141268 0.005760839 0.0008133335 -0.004004044 0.0027114693
-0.006002844 -0.006058555 0.012557854 -0.005568264 -0.0041183783 0.0004818987 0.007175241 -0.003406017
0.008284382 0.010754757 0.0006342424 0.0014870351 -0.0134371035 -0.00075504294 0.0018930688 -0.0002428378
-0.003237336 0.0055094785 -0.01230988 0.0014390753 0.004313702 0.0011752417 0.0012703452 0.011402312
-0.003873345 0.0035914525 -0.0058360887 0.0028028418 -0.016157202 -0.0018788537 0.009738041 -0.0019316736
-0.0034153012 -0.0030238777 -0.0030234614 0.0060608652 -0.00223971 -0.004398688 -0.010424332 -0.007915256
-0.00084224186 -0.009331336 -0.0058106272 -0.0062724357 -0.01013 -0.01282003 0.003458192 -0.00040962268
-0.0012298445 0.0032884479 -0.010547202 -0.011414991 -0.003458044 0.0035192114 -0.004929211 -0.0038314534
-0.0029009092 -0.004310524 0.0015701621 -0.0035722274 0.00547467 -0.014267063 -0.009381215 -0.004712254
0.0057218918 -0.0068275146 0.001118433 0.0021362344 -0.011870865 -0.0038004087 0.0007014536 0.0016680429
-0.0034317162 -0.0027291419 0.008328478 0.0043555046 -0.001882941 -0.0083063785 -0.0007478472 -0.0036092158
0.0016432408 -0.009105692 0.002220081 0.008653636 -0.009054293 -0.0070890794 -0.0043883957 0.012267945
0.0029702897 0.0006990996 -0.004353715 -0.006396892 -0.003073229 0.0031507055 -0.0038671566 -0.0015190267
0.003514021 0.0020229204 -0.007798421 -0.012034641 -0.0043954733 0.01051099 0.005555716 0.00053814886
-0.0052467478 0.0045666653 -0.0036019129 0.0018801161 -0.0058771204 0.0067996765 -0.004438581 -0.00871028
0.001837737 0.00314212 0.0039715334 0.0010723136 -0.0058834543 0.0021030696 0.0008069988 0.010710249
00000000: 5594 17bb 81ab 9ebb dc4b ad3b 9a87 46bb
00000010: c29c ebbb 59b6 603c 351c 89bb a466 24bc
00000020: b01a 3fba bcfc 16bb b3ae 153c 29d5 1dba
00000030: 062c 4cbb 3cdc aabb 9766 233a 728f c2ba
00000040: d284 89bb a689 033c 30b2 51bc e9fb 7b3b
00000050: 160e 273b 1c4f 00bc ee81 70bb 888d 1cbc
00000060: 1860 8fbb 9585 86bc 88b0 adbb 84a9 2837
00000070: 85b8 4dbb eb3b 113c 345b c03b a9f8 75ba
00000080: 8e10 abbb 2dea 4c3c 9e4a c3bb abb5 883b
00000090: c914 3abb e3fa 733c 7585 943b 97fa 783b
000000a0: 7467 c7b9 242a 9aba 15d8 76bb 15a0 0f3c
000000b0: 68f3 113c b6fd 75ba e28e f13b 15ac 82bb
000000c0: 75ef efb8 82bb b4bb 66df 383a 969f 433b
000000d0: f1b1 a6b9 c0d7 26bc 002f 0a3b ae36 ec3b
000000e0: fb53 113c d250 bb3a 5a21 3939 4e32 ddba
000000f0: 277b 03bc 0939 9c3b bdb9 c03b 56ef 423c
00000100: 0718 0a3c 0575 993b 2e63 3fbb 64a2 d2bb
00000110: 480d 11bc b96f 41bc 56c3 473c 07f4 88bb
00000120: 7413 44bc 3c23 18bb 8a5e 28ba bc0b c13b
00000130: 79a4 7c3b b649 d2bb aa71 4e3b 5d9e 5bbb
00000140: 9406 afbb 4935 30bb 15ef 1ebc 5453 8339
00000150: 70c8 63ba ee4c 9e3b 793a e53b 8c3f 793b
00000160: 73db 5e3c 7ca0 97ba 5e14 34bb 51af 65bb
00000170: 85e1 45bc 84f2 3d3c be4d 8d3a 731d d5bb
00000180: 6141 25bc c93d d9bb e10a a1ba 0da4 8dbb
00000190: aab7 c7bb ead4 fcbb 61e9 b3bb 5b26 833b
000001a0: 66a0 a03b e400 223b e575 bd3b 07fc 21bc
000001b0: f703 4f3b 04b3 413b 8070 d2bb bf1f d6b9
000001c0: 9c75 0438 66b2 413c 4bf9 68bc 07bd 6e3b
000001d0: 6efa 863b d249 403b 67ae 3e3b 4917 003c
000001e0: 93e1 03bb 887f 63bc 0ab9 6f3c cb8e c8bb
000001f0: 7798 e1bb 4aae dcbb 7bf8 353c f388 8e3a
00000200: 1555 143b 89ce f6b8 9109 17bc 9027 26bc
00000210: 6cc5 bc3b e335 553a 5b34 83bb e8b2 313b
00000220: 81b3 c4bb d886 c6bb 75bf 4d3c fc75 b6bb
00000230: 76f3 86bb 59a7 fc39 491e eb3b 7c37 5fbb
00000240: 37bb 073c b834 303c 4943 263a 9ee8 c23a
00000250: 4c27 5cbc 13ee 45ba d920 f83a 47a2 7eb9
00000260: 7c29 54bb db88 b43b 61af 49bc 5b9f bc3a
00000270: f559 8d3b 910a 9a3a b681 a63a c3d0 3a3c
00000280: f2d7 7dbb 935e 6b3b a93c bfbb e2af 373b
00000290: 1c5c 84bc de43 f6ba 4e8c 1f3c 3630 fdba
000002a0: 3fd3 5fbb 402c 46bb 4425 46bb 399a c63b
000002b0: 19c8 12bb df22 90bb d1ca 2abc fdae 01bc
000002c0: e5c9 5cba 76e2 18bc 1367 bebb 0189 cdbb
000002d0: 4df8 25bc 1a0b 52bc d6a2 623b a0c2 d6b9
000002e0: bc32 a1ba 0083 573b 2cce 2cbc f105 3bbc
000002f0: 5aa0 62bb 92a2 663b 3885 a1bb 1f19 7bbb
00000300: 2e1d 3ebb 4c3f 8dbb e6cd cd3a 081c 6abb
00000310: dc64 b33b 66c0 69bc abb3 19bc 4069 9abb
00000320: b57e bb3b 58b9 dfbb 6298 923a 1100 0c3b
00000330: 047e 42bc 4710 79bb c1e1 373a 3ba2 da3a
00000340: a5e6 60bb 67db 32bb 2b74 083c 9fb8 8e3b
00000350: 04cd f6ba 7a17 08bc 2d0b 44ba 9888 6cbb
00000360: 0362 d73a 0a30 15bc c77e 113b fbc7 0d3c
00000370: 7558 14bc 824b e8bb 88cc 8fbb 7eff 483c
00000380: 31a9 423b c843 373a 9ca9 8ebb 059d d1bb
00000390: 3a68 49bb 117c 4e3b 1f70 7dbb 141a c7ba
000003a0: 7d4b 663b f992 043b e689 ffbb f12c 45bc
000003b0: e707 90bb 4a36 2c3c b90c b63b 8f12 0d3a
000003c0: e9ec abbb f7a3 953b 120e 6cbb 3a6e f63a
000003d0: dc94 c0bb d2cf de3b 8471 91bb 90b5 0ebc
000003e0: 39e0 f03a 07ec 4d3b a323 823b e08c 8c3a
000003f0: fec9 c0bb a7d3 093b c68c 533a 0a7a 2f3c
