My-Siren/result/poisson_laplace/starfish/model_final.pth (torch, 796743 bytes, 9 tensors)

first_layer.linear.weight f4 [256, 2]
000000 bb 75 15 3e 9f 23 2f be 50 43 9b be 2a e2 f9 be
       0.14595692 -0.17103432 -0.30324793 -0.48805362
000010 1b 89 f1 3d 1a dc 44 3e fd 87 fe be 2d e8 34 3e
       0.11793729 0.19224587 -0.49713126 0.17666693
000020 56 4d d3 3e f8 47 c9 bd fe 71 e2 3d 5b ec 12 3e
       0.4126994 -0.0982818 0.110568985 0.14347975
000030 f3 7f 47 bd 4a c8 80 3c 6a a4 2f be 10 f9 7d 3e
       -0.048706006 0.015720505 -0.17152563 0.24802041
000040 49 98 a5 be cf 48 42 3e 0f 05 be 3e a6 62 f5 3e
       -0.32342747 0.18973087 0.37113234 0.47926825
000050 e5 06 94 be 8f 9c 7b be 3b 0a c9 be 1f 7d 93 3d
       -0.2891151 -0.24571441 -0.39265618 0.07201599
000060 9f d4 18 bd e3 51 a7 be e8 b2 10 3c 92 e1 eb 3d
       -0.037312146 -0.32679662 0.008831717 0.115176335
000070 2f f1 8c 3e 51 4d ed 3e b8 ec e7 3e ef 05 13 3d
       0.27527758 0.4634805 0.4529779 0.03589433
000080 08 0f 0b be f7 d6 59 3d 94 06 91 3e 81 64 ec 3e
       -0.13579953 0.053183522 0.2832533 0.46170428
000090 99 2d 00 bf 7e 3c da 3d e4 60 09 bd df d2 ec 3e
       -0.50069577 0.10656069 -0.033539668 0.46254632
0000a0 37 c9 30 3e 67 be ca 3d 33 70 a1 be dc 6c f4 3e
       0.17264257 0.098995976 -0.31530914 0.47739303
0000b0 04 93 8e 3b 62 66 6c be fa 34 59 3e 5c fd fc be
       0.0043510217 -0.23085931 0.21211615 -0.49412048
0000c0 bf 61 71 be 9d 63 f1 3e ca 12 c4 be 87 e5 31 3c
       -0.23572443 0.4714631 -0.38295585 0.010857946
0000d0 70 65 a1 3e e3 39 f9 be 64 a9 2a bd 93 f5 21 be
       0.31522703 -0.48676977 -0.04166545 -0.15816335
0000e0 7d 1d be 3e 71 ce 97 3e 22 db b4 3c d4 dd c3 3d
       0.37131873 0.2964969 0.022077147 0.09563795
0000f0 b3 11 b3 3e e2 cb fc 3e a6 23 e9 be ee b4 f2 be
       0.3497444 0.493743 -0.4553501 -0.47403663
000100 9c fd e2 3e 44 19 67 3e 76 90 c8 be 44 ee c9 bc
       0.44334114 0.22568232 -0.39172715 -0.024649747
000110 f5 ad ab 3d d1 86 b8 be 74 7a ee 3e 87 af 48 be
       0.08382789 -0.36040357 0.465778 -0.19598208
000120 45 95 d3 be 75 aa b1 be 2f 57 7f be 73 c7 95 be
       -0.4132482 -0.3470036 -0.24935602 -0.2925373
000130 39 25 b1 3e 05 35 f9 3c 60 5c 01 be 38 29 81 3e
       0.3459871 0.03042079 -0.12632895 0.2522676
000140 cf 12 b1 be 7b 1d 61 be c2 3b e7 be a1 3b c5 3e
       -0.34584662 -0.21983902 -0.4516278 0.38522056
000150 40 ee 8b 3e 73 26 52 be 6c bb af be 6c 7d 3a 3e
       0.27330208 -0.2052248 -0.3432268 0.18211907
000160 84 55 84 be 4d e5 ad be 63 85 b3 3e 28 5b f7 bc
       -0.25846493 -0.33964005 0.35062703 -0.030194834
000170 08 57 54 3e dd 2a 1f be 8c 3a d4 be 23 81 ea 3e
       0.20736325 -0.15543695 -0.41450918 0.45801648
000180 52 75 cf bc ab a2 34 bd aa af 42 3e 0d 1e 44 bd
       -0.025324497 -0.044100445 0.19012323 -0.04788022
000190 68 c4 86 3d dc c0 21 3e 93 af 22 3d cd 4a 8b be
       0.0658043 0.15796226 0.039718222 -0.27205506
0001a0 fc 63 e2 3e c3 7b af be e9 db a6 3e be 78 3a 3e
       0.44216907 -0.3427411 0.32589653 0.18210122
0001b0 78 fe f3 3e 18 6d 84 3e 84 5a eb 3e 20 98 86 3e
       0.47655082 0.25864482 0.45967495 0.26287937
0001c0 a2 1a 3c 3d 98 74 a0 3e 74 15 e1 be 4d e3 5a 3c
       0.045923837 0.31338954 -0.4396168 0.013359857
0001d0 74 c5 97 3e 68 a6 66 be dd 8f f9 be d4 be ef 3c
       0.29642832 -0.22524416 -0.4874257 0.029265799
0001e0 87 16 d8 be e1 7f af be 6c e6 af 3e 9a e5 db be
       -0.42204687 -0.3427725 0.34355485 -0.4294861
0001f0 33 ea 88 be de 7b 8f 3e 7c 39 1b 3e a4 49 d0 3e
       -0.2674118 0.2802419 0.15158647 0.40681183
000200 01 6d 9f be 62 dc 90 be d6 25 83 be cc d7 da 3e
       -0.3113785 -0.2829314 -0.25614804 0.42742765
000210 8b dd 72 3e 98 cf aa be 5a f3 fc 3e 9a 47 01 3e
       0.23717324 -0.33361506 0.49404413 0.1262497
000220 6a 65 65 3e 81 fe 29 3d 09 94 47 3e 02 50 66 be
       0.22401968 0.04150248 0.19490065 -0.22491458
000230 e3 d4 b9 3d 20 e4 88 3e 7d 51 d7 be 4c 42 9f 3e
       0.09073808 0.26736546 -0.42054358 0.31105268
000240 ab 20 dc be 65 b3 a1 be bc 58 91 3e b5 0d fd 3e
       -0.42993674 -0.3158218 0.2838801 0.4942452
000250 95 95 c1 be 38 93 b7 be 1c 3b e8 3e 27 22 16 be
       -0.37809435 -0.35854506 0.45357597 -0.14661466
000260 b2 d3 bc 3e 16 5a e3 3e 53 a4 c2 be f9 cd 92 3e
       0.3688026 0.44404668 -0.38015994 0.2867277
000270 99 1c fc bd b7 1e 92 3e 9c 1a ff be 97 a1 50 3e
       -0.12310142 0.2853906 -0.4982499 0.20374142
000280 ef 25 60 be 41 e9 fc be 7d c2 71 bd 5c 08 38 3d
       -0.2188947 -0.4939671 -0.05902337 0.044929847
000290 2d eb cd bd a4 06 ed 3d f0 3b 4e be e2 00 a2 be
       -0.10054622 0.11573532 -0.20140052 -0.316413
0002a0 24 cd 85 3e 81 ce 2a be b1 d6 ae 3e f0 c9 06 be
       0.26133072 -0.16680337 0.34148172 -0.1316297
0002b0 3f 67 42 bd ab f5 7b be 71 bc f9 be 50 4e 98 3e
       -0.047461744 -0.24605434 -0.48776582 0.29747248
0002c0 aa dc 14 3d dc 9e 76 be e3 09 57 be ff 8c ed 3e
       0.036343254 -0.24084038 -0.20999865 0.46396634
0002d0 8b 8b d3 3d d1 e2 e4 be 3d 45 f7 be 51 f1 0e be
       0.1032935 -0.44704297 -0.48295012 -0.13959242
0002e0 ea d9 da 3e 1c 6f b4 be c5 1a dd be 02 bc ba 3e
       0.4274438 -0.3524102 -0.43184486 0.36471564
0002f0 55 45 87 3d 42 56 fa 3e 58 12 f8 be 63 8c 4c 3e
       0.06605021 0.48893934 -0.48451495 0.19975428
000300 08 db 04 bd 21 92 d0 3e bf 66 27 3e a2 65 7d be
       -0.032435447 0.40736488 0.16347788 -0.24745801
000310 24 2b 62 bd 44 19 4a 3e 41 c6 6b 3e 01 81 d1 3c
       -0.055216923 0.197362 0.23024847 0.02557421
000320 cf 9b 5f bd 87 1a 45 be 9a 34 85 bd 3e 89 95 be
       -0.05459195 -0.192484 -0.065041736 -0.2920627
000330 41 12 07 be d0 a2 e1 3e 9e a8 d2 3e 8f 7a e2 be
       -0.13190557 0.4406953 0.4114427 -0.4423413
000340 29 c1 da 3e dc 1e 8b bd bb dd 92 3e 5f a8 a8 be
       0.42725495 -0.06792995 0.28684792 -0.32940957
000350 4b eb a6 bb 52 80 e8 3e 49 6c 72 3e 3c 92 07 3d
       -0.005093967 0.454104 0.2367412 0.033098444
000360 71 03 e3 bd c8 33 d2 3e 5b ac d0 3e 4d 04 be 3e
       -0.11084641 0.4105513 0.40756497 0.37112656
000370 1d 76 3a bc aa a9 10 be d0 1c 8b 3d 71 e6 09 3e
       -0.011380699 -0.14127222 0.06792605 0.13466813
000380 0d c8 81 3e df 02 36 be 7d c5 cf 3e f4 10 89 bd
       0.2534794 -0.17774533 0.4058036 -0.06692687
000390 05 59 52 be 86 ea be be 14 05 02 be 4e 19 f2 3e
       -0.20541771 -0.37288302 -0.1269725 0.4728493
0003a0 54 69 45 3e 62 36 e1 3e 78 6d ce be f3 db 81 be
       0.1927846 0.43986803 -0.40317893 -0.2536312
0003b0 01 dd d7 bd 25 07 c6 3c ce 0f 68 3e 1c ec 9c bd
       -0.105402 0.024173329 0.22662279 -0.07662222
0003c0 b4 c3 55 3e 88 d9 e0 be 5f 78 c3 be 14 ff b7 3e
       0.20875436 -0.43915963 -0.38177773 0.35936797
0003d0 35 81 73 3d 85 db 33 bd 99 6d ae bd d9 ed e2 3d
       0.059449393 -0.043910522 -0.08516998 0.11080522
0003e0 0b 96 a3 be 6c da 18 3e 52 db 31 3e e2 a9 a7 be
       -0.3195041 0.14927071 0.1736882 -0.32746798
0003f0 a8 66 be be b0 eb fa 3e 55 1f 34 3d 6d 86 f9 be
       -0.37187696 0.4900794 0.043975193 -0.4873537

first_layer.linear.bias f4 [256]
000000 00 b5 25 3f cf 8d 88 be 81 0f 2f 3f 29 4f fd 3e
       0.6472931 -0.2667069 0.6838303 0.49474457
000010 23 51 c6 be fd 49 22 3e a7 da 21 bf 09 6d c3 3e
       -0.38733777 0.15848537 -0.6322426 0.38169125
000020 8c f2 e3 bd d7 9c 74 be 28 8b be 3e 3d ca ed 3e
       -0.111302465 -0.23887955 0.37215543 0.46443358
000030 5b 6d b1 3d 97 fd 47 be ba 26 e1 3e b1 cb 8b 3e
       0.08663436 -0.1953033 0.4397486 0.27303842
000040 22 25 32 3f d3 b8 19 bf 33 2e 09 bf 69 55 ec bb
       0.6958791 -0.60047644 -0.5358612 -0.00721233
000050 0c 65 5d bd bf 08 13 bf 3a 93 34 3f ce 62 2f bf
       -0.054051444 -0.5743522 0.7053715 -0.6851014
000060 8a 57 26 3f 70 f7 8e bc 2c 88 86 3e 78 8b d3 3e
       0.64977324 -0.017451972 0.26275766 0.41317344
000070 7a c1 cd 3e 12 10 0a 3f 29 2f b2 3e f2 98 1d 3f
       0.40186673 0.5393077 0.34801605 0.615615
000080 d9 a5 8b be da a2 c0 be fe 85 9c be 2d af de 3e
       -0.2727497 -0.37624246 -0.30570978 0.43493024
000090 81 58 71 be 36 82 16 bf ed 06 50 be 24 dc a4 3d
       -0.23568918 -0.58792436 -0.20315142 0.08049801
0000a0 02 7e a7 be ab bb 8d be d9 1c 10 3f 4f 98 c9 be
       -0.32713324 -0.27682242 0.5629402 -0.39374015
0000b0 86 48 4d be 50 d1 5f be 84 fc 4b be 85 2a 23 bf
       -0.20047197 -0.2185719 -0.19920546 -0.63736755
0000c0 5e 0d ca be 21 48 29 3f 4b 61 bb 3e 13 2b d3 3d
       -0.39463323 0.66125685 0.36597666 0.1031095
0000d0 7b 77 ce be da e3 f6 3d 4d a4 e8 3e 65 81 9b bd
       -0.4032553 0.12055178 0.45437852 -0.075930394
0000e0 25 b7 f1 3d bd f8 f4 be 37 cc 09 3d a4 3c e6 bb
       0.1180251 -0.47846022 0.03364202 -0.007026272
0000f0 96 02 d3 be cc ee a3 be 71 af b6 3e f3 23 34 3f
       -0.4121291 -0.32018125 0.35680726 0.70367354
000100 e8 d8 0e 3e 92 43 c8 be 86 98 b3 be 2b c0 5f be
       0.1394993 -0.39114052 -0.35077304 -0.2185065
000110 c5 0d 86 3e 7c 75 f9 3e 4c b2 14 bf 91 dd 2b 3e
       0.2618238 0.48722446 -0.5808456 0.1678374
000120 69 8e 37 be 32 6e ef be ec 72 e3 3e f2 13 80 3e
       -0.17925419 -0.4676376 0.44423616 0.25015217
000130 f4 47 16 bf 4d 7f 85 be 32 1d ce 3e d2 2a 15 bf
       -0.5870354 -0.26073685 0.4025665 -0.58268464
000140 9b 78 b8 3e 22 60 31 bf a3 85 0c bf 3e 30 00 3f
       0.36029515 -0.6928731 -0.54891413 0.5007361
000150 1c 97 98 be c9 77 dc bd 2b f4 82 3e c4 1c 95 3e
       -0.29802787 -0.10765035 0.2557691 0.2912351
000160 17 12 9d 3e 13 14 79 be be c7 ba 3e e3 e5 2b bf
       0.30677864 -0.24324064 0.36480516 -0.67147654
000170 6c 58 40 be 19 81 fa 3e 10 7d 1e be c2 f4 a3 3d
       -0.1878373 0.4892662 -0.15477395 0.08005668
000180 7a 2e 92 be 3b 19 06 be 90 24 be be 0a d0 fa 3e
       -0.28551084 -0.13095562 -0.3713727 0.48986846
000190 50 8d 5c be 95 7e fa be 4c f0 e0 3e e1 71 1e be
       -0.21538281 -0.489247 0.43933332 -0.15473129
0001a0 76 91 3c be c7 22 e6 3e f3 45 6d 3d a1 cc 30 3f
       -0.18414864 0.44948408 0.057928037 0.6906224
0001b0 b0 e4 6a be da c4 a7 be 0b 97 ba be 10 3e 75 3d
       -0.229388 -0.32767373 -0.36443362 0.05987364
0001c0 1c cb 1e 3f 99 0a e7 3e a9 d3 ad bd 69 94 c6 3e
       0.6202867 0.45125273 -0.084876366 0.38785103
0001d0 b7 a0 03 bf 4c 7f 19 be 1e 5c 04 3f 7a e1 bb 3e
       -0.51417106 -0.14989966 0.5170306 0.36695462
0001e0 d3 4b 9c be b0 be a6 be 9d 60 4f 3e 65 ed 27 bf
       -0.305266 -0.32567358 0.20251699 -0.6559661
0001f0 52 89 10 3e e2 ec 42 3e f3 e5 56 be 7b 8e d5 3e
       0.14114884 0.19035676 -0.20986156 0.41710266
000200 2c af be 3d 77 8b 28 3f c3 1d bf be c6 5a 30 3e
       0.09310755 0.65837806 -0.37327394 0.17222127
000210 56 a5 c4 3e 40 49 ee bc ea d8 61 be 67 4d 57 be
       0.3840739 -0.029087663 -0.22055402 -0.2102562
000220 c8 48 28 bf 9c 69 a6 be bd d2 b2 be 45 84 28 3f
       -0.65736055 -0.3250245 -0.34926406 0.6582683
000230 26 de 06 bf 6d db 32 bf e7 ce 9f 3e 51 47 04 3e
       -0.5268272 -0.6986607 0.3121254 0.1291783
000240 6c 71 b5 3d 88 4d 1c bf 41 e4 0a be ee 32 7c be
       0.08859524 -0.61055803 -0.13563634 -0.24628803
000250 03 8b c7 bb 85 e2 f8 be 86 0d 9c 3e 33 2a 8b bd
       -0.0060895695 -0.4861032 0.30479068 -0.06795158
000260 eb 41 18 3f 59 4f c2 3e 2c 9d ff 3e 5f 1c cc 3e
       0.5947558 0.37951162 0.499246 0.39865395
000270 47 25 84 3e 9c 42 d3 3c e1 88 05 3e 25 8d f9 be
       0.2580969 0.025788598 0.13040496 -0.48740497
000280 01 31 04 bf 07 b3 21 bc 36 3b 13 bf 7a 53 a1 3e
       -0.51637274 -0.009869344 -0.57512224 0.31509
000290 ed cb 2e bd 0b 1a 6d be de dd 67 3e 27 d8 68 be
       -0.042674948 -0.23154466 0.2264323 -0.22738706
0002a0 bc 6b d6 3e 75 d2 06 3f 60 e4 fc 3e ee 90 b1 be
       0.4187907 0.5266488 0.49392986 -0.34680885
0002b0 cc 23 7c 3e 5a 98 e1 3c e1 03 ae 3d d4 f5 81 3e
       0.2462303 0.027538467 0.084968336 0.25382864
0002c0 f0 9d 12 bf 23 f4 b6 3e 82 95 c0 bd 29 44 28 3f
       -0.57272243 0.35733137 -0.09403516 0.65729004
0002d0 ff f8 b3 3d 5e 01 b3 3e 42 a2 a0 be 22 42 76 3e
       0.087877266 0.3496198 -0.31373793 0.24048665
0002e0 06 92 f0 3e 78 02 d7 be ad 1b f2 3d 59 36 7c be
       0.46986407 -0.4199407 0.11821685 -0.24630107
0002f0 94 14 ff 3e c1 3c ed 3e 31 35 35 3f a3 4b 2e be
       0.49820387 0.46335414 0.7078429 -0.1702104
000300 84 5c bb 3e e3 d3 f4 3e fb 82 b5 3e b8 2e 00 bf
       0.3659402 0.47817907 0.35451493 -0.5007129
000310 c8 23 f7 3e 69 38 5d be 56 42 4b 3d a1 ab ce be
       0.48269486 -0.2160355 0.04962381 -0.40365317
000320 a2 bf b6 be 58 b5 51 be 43 a2 79 be 6e 3c f1 3e
       -0.3569308 -0.20479333 -0.24378304 0.47116417
000330 ce c9 2f bf 89 6c 12 3e 76 83 a3 3c 5b b8 84 3e
       -0.68667305 0.14299215 0.019960146 0.25921902
000340 76 36 85 be ce 8b 32 3e 5d 80 50 be 45 f5 fc 3d
       -0.26018113 0.17436144 -0.20361467 0.12351469
000350 28 a6 c1 3d 2e 2d 3d be 93 de 10 bf ad 6f 97 3d
       0.0945552 -0.18474266 -0.5658962 0.07394347
000360 e9 f2 4e 3d e6 00 0f bf 4f 3f 8b be 2f 84 96 3e
       0.050524626 -0.55860746 -0.27196738 0.29397723
000370 94 73 d3 be e6 3e 8c 3e 07 2f 06 bf c2 9b 2e 3f
       -0.41299117 0.27391738 -0.5241551 0.6820642
000380 68 29 3b 3e bc 55 1a bf ea be 81 3e 14 4c 32 3f
       0.18277514 -0.6028707 0.25340968 0.69647336
000390 c8 21 8f 3d ec 38 c7 3e f9 54 40 be e1 b3 83 be
       0.06988865 0.38910615 -0.18782414 -0.25723174
0003a0 fe 02 3c 3d 0e f9 64 3e 1f c9 d6 be 22 a5 8a 3d
       0.04590129 0.22360632 -0.41950318 0.06769778
0003b0 f5 da 15 3f 6b d4 42 bd 5e 04 1b be 1d 37 19 3f
       0.58537227 -0.04756586 -0.15138385 0.5984972
0003c0 41 f2 8d 3e 97 b6 dc bd 8c eb b7 be 31 bf 0f 3f
       0.27723888 -0.10777014 -0.35921896 0.5615111
0003d0 18 d8 36 3e 27 0a 9c be 58 2d 18 3d 8d a8 14 bf
       0.1785587 -0.30476496 0.03715262 -0.5806969
0003e0 b7 d8 a3 3e 77 b2 fa 3e de 67 04 be 43 6b 4d be
       0.32001278 0.48964283 -0.12930247 -0.20060448
0003f0 1c 54 89 be 5d 1f dd 3e 41 81 07 bf cf 69 cb 3b
       -0.26821983 0.4318799 -0.529316 0.0062076817

hidden_layers.0.linear.weight f4 [256, 256]
000000 9e da 64 bb f4 9c 7a 3b 02 6d 53 ba 01 c8 88 39
       -0.0034920345 0.0038240524 -0.00080652547 0.00026088956
000010 d0 9c ee 39 62 5b 84 3b fc 56 01 3b b4 89 93 bb
       0.00045511732 0.004039214 0.0019735685 -0.0045024995
000020 21 54 a2 3b 99 5e bb 39 68 df 19 3a aa 58 7a 3a
       0.0049538766 0.000357379 0.0005869777 0.0009549955
000030 be d0 94 ba e7 12 4d 3b 4d c0 8c bb 13 e0 48 bb
       -0.0011353714 0.0031291784 -0.004295385 -0.0030651137
000040 72 ef c1 bb dc 54 6f 3b c4 c5 b2 bb d0 33 04 3b
       -0.0059184367 0.0036519086 -0.0054557044 0.0020172484
000050 42 88 c1 38 6c bb fa bb ed f8 c6 3a 4f 6b 48 39
       9.228337e-05 -0.007651737 0.0015180387 0.00019113462
000060 49 2f 2f bb 14 a3 2a bb 8f c0 06 3b 89 27 8e ba
       -0.0026731065 -0.0026037144 0.0020561551 -0.0010845523
000070 f0 c1 3c bb f2 b1 bb ba dd 93 ab bb 5a 5a 0e bb
       -0.002880212 -0.001432 -0.0052361325 -0.0021721334
000080 0d 17 31 bb ba 0c 4d bb ae 1e 27 bb 2a 14 6a bb
       -0.0027021796 -0.0031288103 -0.0025500464 -0.0035717585
000090 14 c8 d7 b9 86 37 15 3a 98 4d 08 3b 96 fe ef 39
       -0.00041157065 0.00056921726 0.0020798203 0.00045775314
0000a0 54 dc c1 bb ad 37 e0 3b 65 f8 dc bb 37 a0 42 3b
       -0.0059161577 0.0068425746 -0.006743478 0.0029697546
0000b0 48 44 96 3b a9 a3 93 bb 60 20 ed ba c2 c9 3c bb
       0.0045857765 -0.004505594 -0.0018091314 -0.002880678
0000c0 c0 1a ae 3b b8 20 64 3b 46 88 94 3b 64 e3 40 ba
       0.0053132474 0.003480954 0.0045328466 -0.00073581026
0000d0 a8 01 a9 bb 95 60 47 bb 05 56 07 ba 01 a8 d6 bb
       -0.005157668 -0.0030422558 -0.0005162659 -0.0065507893
0000e0 96 d7 11 39 b7 6a bd b9 f4 f9 26 3b 9d 02 b9 ba
       0.0001390859 -0.00036128398 0.0025478574 -0.0014115159
0000f0 d8 a6 50 b7 56 a1 00 bc 66 87 8f ba 46 fd bf 3b
       -1.2436612e-05 -0.0078509655 -0.0010950386 0.00585905
000100 c8 32 c7 3b 10 b2 a5 ba a0 ec c7 3a 1b 84 82 b9
       0.0060790516 -0.0012641568 0.0015253015 -0.00024893958
000110 7d 26 5c bb a9 88 e9 ba 83 50 0f bb 07 54 9d 39
       -0.0033592277 -0.0017817217 -0.0021868057 0.0003000798
000120 2b da 8a bb a0 cc 89 3a 36 a5 ba 3a 46 3b 94 3b
       -0.0042374334 0.0010513254 0.001423991 0.0045236675
000130 85 f2 9c 3a 48 99 db bb c5 89 88 bb d7 67 b6 3b
       0.0011974132 -0.006701622 -0.004166814 0.005566578
000140 e2 44 6c bb b3 3e 45 bb f6 f6 33 3b b3 30 6a bb
       -0.00360518 -0.0030097186 0.0027460433 -0.0035734593
000150 b2 9e c0 bb f9 ac 86 3a d3 6e a3 b8 76 5d 84 bb
       -0.005878293 0.0010274939 -7.793088e-05 -0.0040394617
000160 e6 48 35 bb 9c a0 b6 bb 6d d8 85 3b c4 17 69 3b
       -0.002766186 -0.0055733453 0.004084638 0.0035567144
000170 05 ae ac bb 29 9c 8f 3b 27 65 62 3b ba 97 6a 36
       -0.005269768 0.0043826294 0.0034545155 3.4957034e-06
000180 47 ea b8 3b d7 1b ac 3b 9b ef 9c ba b5 b5 23 3b
       0.0056431624 0.005252342 -0.0011973263 0.0024980132
000190 4c b6 a1 3a 97 a1 04 bb 32 77 5e 3a bd 55 ae bb
       0.0012337654 -0.0020237917 0.00084863894 -0.0053202794
0001a0 84 09 10 3a f4 c3 cc bb 79 de 96 bb ea 8c b1 3a
       0.0005494582 -0.0062489454 -0.0046041575 0.0013546024
0001b0 09 ec c7 3b ea 9f 58 ba 32 e2 83 bb 78 66 98 3b
       0.0061011356 -0.0008263575 -0.0040247673 0.004650887
0001c0 e0 12 e7 bb 13 f0 43 3a 07 64 a4 3b 65 42 6e bb
       -0.0070518106 0.00074744335 0.005016807 -0.0036355492
0001d0 b0 cc bf bb 52 88 ab 3b 99 f1 72 bb 95 51 06 ba
       -0.005853258 0.0052347565 -0.0037070273 -0.0005123851
0001e0 8b 16 b1 bb c8 ce bc 3a 30 84 52 bb 65 77 7e bb
       -0.0054042987 0.0014404887 -0.0032122247 -0.003882849
0001f0 94 d3 58 3b d6 32 78 bb 07 f6 98 bb ac b3 9e 3b
       0.0033085095 -0.0037872097 -0.0046680006 0.004843196
000200 39 ab 60 3a 0f f6 75 ba c3 bf d2 3b 62 d4 9c 3a
       0.0008570436 -0.0009382674 0.006431551 0.001196515
000210 0d df ca ba f4 c6 b5 ba 02 25 a5 3b 0b 3b c1 bb
       -0.0015477851 -0.0013868497 0.005039812 -0.005896931
000220 36 0e 13 39 49 97 82 3a e9 78 68 3b 61 07 e1 ba
       0.00014024306 0.0009963299 0.0035472459 -0.0017168337
000230 b3 35 d1 b9 a0 0a b4 ba 72 0f 23 3b bb 8f 29 3b
       -0.00039903595 -0.0013736077 0.0024881032 0.0025873024
000240 f1 b2 23 bb 0f c8 93 bb 13 bb a3 ba bc b6 52 3b
       -0.0024978484 -0.004509933 -0.0012491666 0.0032152375
000250 3a 97 a5 bb f8 4a a8 bb ca 1f 28 3a a1 e9 a5 bb
       -0.005053428 -0.00513589 0.00064134283 -0.005063251
000260 c2 f8 21 ba 9a 33 57 3b 38 dc cd 39 71 cb 17 3b
       -0.00061787304 0.0032837153 0.00039264723 0.0023162032
000270 c7 b0 92 b7 67 05 08 bc e9 59 e0 b9 9d 25 7e bb
       -1.7486875e-05 -0.008302069 -0.00042791598 -0.0038779743
000280 79 63 d1 3b 3c f1 79 bb b5 5c e7 3b 58 b8 8b 3a
       0.006390032 -0.0038138172 0.007060612 0.0010659797
000290 45 12 09 bb 34 54 a8 3b 9e 1f d1 3a 8c 10 8a 3b
       -0.002091543 0.005136991 0.0015954857 0.0042133983
0002a0 3e 09 15 3b ab fb 35 bb c1 76 14 3a 9b 7a 80 3a
       0.0022741104 -0.0027768414 0.00056634477 0.0009802164
0002b0 b0 26 d4 b8 24 88 9b bb 52 ca 98 bb 76 a5 77 3b
       -0.00010116154 -0.004746454 -0.0046627903 0.0037787831
0002c0 68 b4 a5 38 2b a7 7f bb 6c 1a 26 3b 05 43 cd b9
       7.9014164e-05 -0.0039009552 0.0025345339 -0.0003915058
0002d0 48 dd f2 ba 71 83 17 3b a9 14 03 39 4c 8f 99 3b
       -0.0018529082 0.0023119117 0.0001250083 0.004686272
0002e0 17 24 8f 3b 49 87 ae ba dc f0 c8 ba 4e 56 b9 3b
       0.004368316 -0.0013315465 -0.0015330571 0.0056560403
0002f0 94 31 37 3b f4 95 54 3b ee a9 59 ba 51 3a 57 3b
       0.0027953135 0.0032438012 -0.00083032146 0.0032841156
000300 f4 13 82 3a 34 8c 8f bb 2b 93 bb 3a 8e 01 c2 3b
       0.0009924159 -0.004380727 0.0014310827 0.0059205955
000310 e7 ad 47 3b 85 28 d3 b7 aa bd fb 3a f9 2e ff ba
       0.0030468644 -2.5172028e-05 0.0019206305 -0.0019468955
000320 fc e0 5a bb 9d 7d 3a 3b c7 d0 8d 3b bc 0c 23 bb
       -0.0033398261 0.002845622 0.0043278667 -0.0024879416
000330 5b c3 80 3b 60 28 98 bb cd 00 9a 3b 39 a2 65 3b
       0.003929538 -0.004643485 0.0046998025 0.003503932
000340 28 0f 89 39 41 c7 86 bb d7 20 57 3a 91 9a 77 bb
       0.0002614197 -0.0041131084 0.00082064926 -0.0037781338
000350 51 36 e7 3a 36 7a af 39 6d 43 e0 39 aa e3 35 3b
       0.0017640089 0.00033469655 0.00042774845 0.0027754107
000360 54 b6 67 bb 0c da 9d bb a6 48 ff 39 22 c3 88 bb
       -0.0035356479 -0.004817253 0.00048691517 -0.0041736523
000370 c7 d9 91 bb 0e 2d cf 3b ad f7 d1 ba e0 57 3f ba
       -0.00445101 0.0063225096 -0.0016019248 -0.0007299166
000380 e6 0c 1a 3b ec a0 36 3b d8 57 19 bb 39 10 6e 3b
       0.0023506223 0.0027866913 -0.0023398306 0.0036325587
000390 f1 b6 98 bb 8e ef 24 3b 85 fc 0b 3b a4 3c 7e bb
       -0.00466048 0.00251672 0.002136023 -0.003879347
0003a0 ed 12 9e 3b 37 b7 a4 bb 3d 66 09 bb 95 8b 74 3b
       0.0048240335 -0.0050267237 -0.002096548 0.0037314643
0003b0 37 a2 94 bb 27 85 68 3b 5b 05 b6 bb 8d ef aa 3a
       -0.004535939 0.0035479756 -0.0055548376 0.0013041362
0003c0 e0 c0 21 3b 17 f4 58 ba 88 ab c8 3b 73 ed 60 3b
       0.0024681613 -0.00082761183 0.0061239637 0.0034321218
0003d0 16 50 ba bb 2c 02 b1 39 d0 ad 82 3b 6f c2 ed bb
       -0.0056858165 0.0003376169 0.003988005 -0.0072558443
0003e0 2d c3 1f bb 04 7c b7 ba c8 2a ba 3b c8 c4 7d 3a
       -0.0024377808 -0.0013998752 0.0056813695 0.0009680507
0003f0 31 66 d0 3a b1 2d 09 ba cb 2c 27 bb 32 46 2c 3b
       0.0015899596 -0.0005232944 -0.0025508876 0.0026286957

hidden_layers.0.linear.bias f4 [256]
000000 b3 83 e6 3c b2 2f 26 3d 48 91 25 3d 66 22 85 bd
       0.028138971 0.04057283 0.040421754 -0.065007016
000010 a2 8a 49 3d 38 08 0f 3d e4 e5 73 bd 1e 8c 9f b8
       0.049204476 0.034919947 -0.059545413 -7.60781e-05
000020 5b 88 cc bc ae 50 8e 3c c8 22 68 bd a2 6e 40 bd
       -0.024967363 0.017372455 -0.056673795 -0.046980508
000030 93 05 2f bd f0 98 24 bc 02 9b 95 3c 37 ce 65 bd
       -0.042729925 -0.010046229 0.01826239 -0.056104865
000040 b4 3c e6 bb 1b 23 07 bb 6a d5 65 bd 99 2a 71 bd
       -0.0070262793 -0.002062029 -0.05611173 -0.058878515
000050 46 ac c9 bc 5d d3 1a bd 9d 2d e7 3c de 86 c5 3c
       -0.02461828 -0.037799228 0.028219992 0.024112161
000060 26 60 1a 3d 95 c1 75 3b cb b4 c0 3c ad 30 e3 3c
       0.03768935 0.0037499417 0.023523709 0.027733171
000070 7b 81 32 bd 09 6a 5d bd 08 7a 36 bd 3c 17 3a 3d
       -0.043580513 -0.0540562 -0.04454997 0.045432314
000080 4f 3a 0f 3d 5b 37 ee 3c d2 d2 43 bd 10 54 ba 3c
       0.034967717 0.02907913 -0.047808476 0.022745162
000090 95 7e 61 bd 9a 0d 4a bd 23 71 46 3d af 36 4d bd
       -0.05505236 -0.049329378 0.04844774 -0.05010098
0000a0 10 4c a8 bc 92 72 2c bd 37 3d 50 bd 51 ae 7e bc
       -0.020544082 -0.04210145 -0.05083963 -0.01554449
0000b0 b4 4d 18 3b fb 92 3a bd 03 0a 4d 3d 54 1c 5b 3d
       0.0023239674 -0.045550328 0.050058376 0.053493813
0000c0 ec 30 3f 3c 1f 20 16 3d 54 7e 24 bd 86 81 c6 bc
       0.011669379 0.036651727 -0.04015954 -0.024231683
0000d0 e2 95 68 3d b6 07 0d 3c e3 15 6e bd 82 b6 23 bd
       0.056783564 0.008607795 -0.05812634 -0.039968975
0000e0 64 e6 38 3d ae 2b 49 bd 60 27 66 bd 10 9f 46 bd
       0.045141593 -0.04911392 -0.056189895 -0.048491538
0000f0 33 16 3a 3d 78 5e 3d 3d f1 40 24 bd 93 a4 3a bd
       0.045431327 0.04623267 -0.040100995 -0.045567106
000100 67 3c e4 3c b3 40 2e bd f4 eb 27 3d cc f6 76 3d
       0.027860833 -0.04254217 0.040996507 0.060293958
000110 a9 fe 73 bc 44 21 f8 3c 17 a0 37 3c cb 81 f3 3a
       -0.014892259 0.0302893 0.011207602 0.001857811
000120 d1 69 2c 3d da 4a c7 3c d7 b3 ab bc 08 89 7a bc
       0.042093102 0.024327684 -0.020959778 -0.01529146
000130 94 52 7e bd c8 96 19 bd 5d f8 6d bd 5e 26 7a 3d
       -0.06209047 -0.03749731 -0.058098186 0.061071746
000140 9d 61 e7 39 ff 74 08 3d 08 ec 75 3d 01 c9 74 bd
       0.0004413248 0.0333147 0.06003955 -0.059762005
000150 8f 3b c1 3c 8b 6b a5 bc d2 9a 22 bd 52 0f 1a 3d
       0.02358797 -0.020192882 -0.03969843 0.037612267
000160 e3 33 b9 bc 67 c7 5c 3d 4e bd 52 bd fa 7a 7f ba
       -0.02260775 0.053901102 -0.051450066 -0.0009745803
000170 3a e5 8d 3c 9a 4c 6f bd bb 36 79 3d aa 04 42 3d
       0.017321218 -0.058422662 0.06084321 0.04736773
000180 74 cd 00 bb 85 e7 59 bd 24 05 1d 3d 50 58 cf 3c
       -0.001965371 -0.05319931 0.03833498 0.025310665
000190 87 54 92 3b 7e 67 e8 3c 7d 57 e6 bc a0 94 f3 bc
       0.004465643 0.028369661 -0.02811789 -0.029733956
0001a0 fc 8b b2 bc 95 00 71 3d 36 75 00 bd 83 93 52 3d
       -0.021795265 0.058838446 -0.03136178 0.05141021
0001b0 db fa 31 bd b4 e8 69 bc b2 e1 bd 3c 1c 31 3c bd
       -0.043452125 -0.014276672 0.023178909 -0.04594527
0001c0 c2 96 41 3d 9c 5e 90 3c 41 82 d5 3c 6f c3 3d 3c
       0.047262914 0.017623238 0.026063086 0.0115822395
0001d0 3b 4f 2e 3d 04 fc 19 bd bb 1f 3c bd 96 2c 3a 3a
       0.04255603 -0.037593856 -0.045928698 0.0007101981
0001e0 39 38 7d 3d 64 75 29 3d 98 1e 18 bc a0 7b c0 bc
       0.061821196 0.041371718 -0.009284638 -0.023496449
0001f0 88 98 6d bd d3 14 1f bd e7 2b 16 bd 33 18 ea 3c
       -0.058006793 -0.03883822 -0.036662962 0.028575992
000200 20 ea 48 bc c8 c7 72 bd 30 5f af bc 50 ae 9c bc
       -0.012262851 -0.059272557 -0.021407694 -0.019126087
000210 30 a4 64 3c 73 c2 cd 3c ad 81 ff 3c 25 bf e6 bc
       0.013955161 0.025117135 0.031189764 -0.028167317
000220 4f 13 03 bd c5 5d f7 bc 29 7a 35 bd c2 8b c4 3b
       -0.032000836 -0.03019608 -0.044305954 0.0059981057
000230 61 f7 e8 3c 6a e1 4a 3d da 4a 74 3d 25 9c 49 3d
       0.028438272 0.049531378 0.059641697 0.049221177
000240 c2 e8 b8 3c ef 8f e5 3c 38 0f e6 3c da 95 16 bd
       0.022571925 0.028022734 0.028083429 -0.036764003
000250 be d2 7c 3d 8f ea 33 3d 9e 61 12 3a 22 c3 30 bd
       0.061724417 0.043924864 0.0005584004 -0.043154843
000260 ee 26 4b 3d b1 cc ee bc de 16 6b bd d5 14 05 3c
       0.049597673 -0.029150339 -0.057394855 0.0081226425
000270 c8 f4 4d bd af b6 12 bd 9a c7 20 3d 60 ac e8 3c
       -0.05028227 -0.035818752 0.039252855 0.028402507
000280 68 24 3b 3d 3a 60 bf bb 4f a7 9e bc a8 fc 78 3d
       0.045689017 -0.0058403285 -0.019366888 0.060787827
000290 f3 36 35 3d 96 b7 cf bb 4f 71 e2 bc e6 d1 6e bd
       0.044241857 -0.006339024 -0.02764192 -0.058305643
0002a0 07 10 ff 3b 9e 94 49 3d e6 66 e7 bc a2 87 83 3d
       0.007783893 0.049213998 -0.028247308 0.06422354
0002b0 ab 84 f7 3c cb 71 f0 bc b0 b9 31 3d 05 81 0e 3d
       0.030214628 -0.029351136 0.043389976 0.03479101
0002c0 56 7a 0a 3d 93 6e 62 bd ac c6 8a 3c c9 f1 22 3d
       0.033808075 -0.055281233 0.016940437 0.039781366
0002d0 b8 ec 56 bd 83 cf 49 3d db 64 6c 3d 0f 43 e3 bc
       -0.052471846 0.049270164 0.05771337 -0.027741937
0002e0 13 e6 73 bd 9d 59 31 3d 57 0b 3f 3d 48 a9 84 3d
       -0.059545588 0.043298353 0.046641674 0.064776
0002f0 b5 a3 45 bc 24 03 17 bd 64 34 13 bd 95 74 bf bc
       -0.012062957 -0.03686823 -0.035938635 -0.02337102
000300 ff bf 4f 3d ed d1 59 bd 0b 70 11 3d 8d 38 44 3d
       0.05072021 -0.053178716 0.035507243 0.047905494
000310 89 45 39 bd be 6b 64 3d a1 73 d0 3b 35 1b 36 bd
       -0.04523233 0.055766813 0.0063614403 -0.04445954
000320 91 34 b8 3b fc 06 5c 3d 10 58 84 3a af 95 5a 3d
       0.005621501 0.0537176 0.0010097045 0.053365406
000330 09 6d 18 3d 12 b9 53 bd 4a db 97 3c 36 15 d4 bc
       0.03721336 -0.05169017 0.018537182 -0.02588902
000340 28 60 d5 3c ac bb 33 bd 2e df 62 bd c4 0f bb 3b
       0.026046827 -0.04388015 -0.055388622 0.0057086665
000350 8e 89 bc 3c 3e 72 7c 3c 9b 82 60 bd 7b 8d 9a 3c
       0.02301481 0.015408097 -0.054812055 0.018866291
000360 44 ff 5d bd e6 70 11 bd 8c ce 0e 3d f5 63 93 bc
       -0.05419852 -0.03550806 0.034864947 -0.017992
000370 d4 d1 23 bd 36 ac 0b bd 58 be 28 3d 1d 6b 5d ba
       -0.03999503 -0.03409978 0.04119715 -0.0008446442
000380 b5 ce c8 bc 91 60 95 3a bd cf 0d 3b 37 37 20 3d
       -0.024512628 0.0011396577 0.0021638714 0.039115157
000390 c8 d5 3b 3d f1 28 9b bc 4c cf 1f 3d 96 68 0d bd
       0.045858175 -0.01894042 0.039016053 -0.03452357
0003a0 75 a2 2b 3d ea d4 03 3d 20 e9 0c bd c0 c9 e6 bc
       0.041902978 0.032185473 -0.034402013 -0.028172374
0003b0 a5 7a c5 bc 99 65 3f bd bc 59 fd 3c 47 ba fe bb
       -0.024106333 -0.04672775 0.030926578 -0.007773671
0003c0 b3 91 07 bd df 27 e8 bc c8 b7 03 bd 46 7a 66 3b
       -0.033097934 -0.028339325 -0.03215769 0.0035168095
0003d0 95 17 a2 bc ea a5 01 3d 19 b6 cc bb cb d3 9c bc
       -0.019786635 0.03165237 -0.0062472937 -0.01914396
0003e0 b8 25 2a bb 74 ab 6f bd 18 ea e4 3c 6c 20 32 bd
       -0.0025962424 -0.05851312 0.027943656 -0.04348795
0003f0 64 60 f1 ba 46 58 28 bd 33 da 79 3d c4 e4 0b bd
       -0.0018415567 -0.04109981 0.060999107 -0.034153715

hidden_layers.1.linear.weight f4 [256, 256]
000000 62 e1 b5 bb ac 55 da b8 d5 1d de bb 80 39 4f 39
       -0.0055505494 -0.00010411008 -0.0067784586 0.00019762479
000010 14 c9 04 3c 14 a1 aa ba e8 3e b4 3b 65 08 10 3c
       0.008104581 -0.0013017976 0.005500663 0.008791064
000020 95 90 9b bb ba ca d8 ba 95 2b 73 bb d4 2e 9f 3a
       -0.00474746 -0.0016539909 -0.0037104834 0.0012144693
000030 9a 6b ca 3b 1e 7a 4b 3b 3e 2d b7 3b 1f fc 0e 3b
       0.006177378 0.003104813 0.00559011 0.0021817756
000040 66 14 8f b9 7b fd 28 bb 30 90 09 bc 7e 43 b0 3a
       -0.00027290283 -0.0025785852 -0.008396193 0.0013447849
000050 2c 35 28 bb d8 99 7c bb ed 9e 81 3a e2 78 7c 39
       -0.0025666459 -0.0038543846 0.0009889283 0.00024077625
000060 2c 21 14 3c 44 8b a1 ba 95 6f 6f ba 2c 2d 95 3b
       0.009041112 -0.001232483 -0.00091337535 0.004552504
000070 f5 4d 62 3b 09 50 52 3b 48 0b a0 3a 18 47 b6 ba
       0.003453133 0.0032091162 0.0012210393 -0.0013906686
000080 8e d6 38 bb 9a 76 63 ba 73 18 e0 3a 2c 16 c0 bb
       -0.0028204056 -0.0008677036 0.001709713 -0.005862018
000090 56 35 18 3c ff ce d1 3a 13 d8 8b 3b 24 31 47 3b
       0.00929006 0.0016007124 0.0042677014 0.003039428
0000a0 ed 51 29 3b 72 9a 34 ba 2e 48 37 3b 36 a2 cc 39
       0.0025836185 -0.0006889469 0.0027966606 0.0003903077
0000b0 57 4e 47 3c 75 27 ad b9 fa 74 dc 3a 6b 6e 10 3b
       0.012164674 -0.0003302653 0.001681953 0.002203847
0000c0 84 1e 87 3b f5 b1 8c bb 78 eb a1 bb 77 59 b7 38
       0.004123511 -0.004293675 -0.0049414 8.742784e-05
0000d0 23 e4 7a bb 88 b4 50 3b 2b 00 02 3c 4c aa 30 bb
       -0.0038282953 0.0031845886 0.00793461 -0.0026956974
0000e0 ba 23 9b 3b 82 23 d6 bb 8b aa e0 ba bf 2f d8 3b
       0.0047344835 -0.0065349946 -0.001714067 0.0065974887
0000f0 87 30 1a 3b b3 02 54 3b 27 c1 de bb 66 22 8d 3b
       0.002352746 0.0032350242 -0.006797928 0.004307079
000100 30 71 fa ba d7 54 13 bc 8b 5a 08 3b 8b 87 58 3b
       -0.0019107219 -0.008992395 0.002080592 0.0033039774
000110 b1 92 9c bb 4d 73 69 3b 5e 3c f0 3a 6f b8 c3 bb
       -0.004778229 0.0035621703 0.0018328538 -0.005972914
000120 a5 18 20 3c bb 99 81 bb 52 bd 6f 3a fa 7f fb 3a
       0.009771501 -0.0039550937 0.00091453374 0.001918792
000130 87 eb b3 3a 68 62 d3 3b 6c 7c 9e 3b 80 b5 c1 3b
       0.0013726809 0.00645094 0.0048366096 0.005911529
000140 9a 5d cd 3b 3e 67 bf 3b 2d 28 61 3a 8e c3 a7 bb
       0.0062672617 0.005841165 0.00085890555 -0.0051197475
000150 d2 62 9b bb 5f 12 db 3b 4d db 14 3b b4 fa 48 3b
       -0.004742005 0.0066855396 0.0022713721 0.0030667009
000160 22 42 57 3a c3 05 21 39 5d 08 84 bb c1 5d 73 3b
       0.00082114537 0.00015356303 -0.0040293173 0.003713474
000170 cb b7 91 bb 2d 47 f1 39 2c 6a 4b bb f8 87 cf 3b
       -0.0044469587 0.00046020132 -0.0031038625 0.0063333474
000180 d9 37 19 3b 70 47 44 3a 18 89 52 bb 50 fa ac 3b
       0.0023379235 0.00074874517 -0.0032125171 0.005278863
000190 6c cd 51 3b 50 1d aa 38 7e 9b 0e bc 7d ae f4 bb
       0.003201331 8.1116916e-05 -0.008704064 -0.0074670897
0001a0 a2 bf 00 3b bc c8 06 3c 6a 4f eb ba 6c a4 1f bb
       0.0019645472 0.00822657 -0.0017952744 -0.0024359478
0001b0 06 d9 d9 3b 9c 1e f9 ba fa 22 00 3b 2f 31 0c bb
       0.0066481857 -0.0019006315 0.0019552098 -0.002139162
0001c0 ce 52 51 3b 56 91 21 3b 23 29 aa 3b 0d e6 87 3b
       0.0031940225 0.0024653277 0.005192892 0.0041472972
0001d0 28 77 fc bb 33 75 60 bb 2e ed 2d 3a 52 08 ce 3a
       -0.007704634 -0.0034249544 0.0006634769 0.0015719032
0001e0 3c d5 90 bb e4 c2 a2 bb 3d 91 9f 3a 0b 08 06 3b
       -0.004419951 -0.0049670804 0.0012174022 0.0020451571
0001f0 ec 15 24 3a 5e f8 9a ba 35 87 05 bc 68 6b 39 bb
       0.000625937 -0.0011823287 -0.008149912 -0.002829278
000200 90 82 56 3b 49 cb 44 bb 26 56 6b 3a 77 93 00 3a
       0.003273163 -0.0030028394 0.00089773757 0.00049047865
000210 a5 c6 8d 3b f8 75 07 bc 18 f5 87 3b 80 a9 ae ba
       0.004326659 -0.008267872 0.0041490905 -0.0013325661
000220 d7 c2 ef bb b0 96 41 3b 8a b4 b0 3b 57 bd 65 3b
       -0.007316928 0.002953928 0.0053926157 0.0035055482
000230 04 c6 98 bb 89 53 aa 3b 75 25 ba bb 3a 96 88 3a
       -0.004662277 0.0051979464 -0.0056807348 0.0010420748
000240 65 ba 4d 3b 9e 2e 9e bb cc 2a 1f ba 7b 80 8e 3b
       0.0031391617 -0.0048273345 -0.0006071746 0.004348812
000250 ef c1 65 3b 00 ce 6f 3b 94 9c 03 bb be 1f b5 bb
       0.003505822 0.0036591291 -0.0020082342 -0.0055274656
000260 43 90 3f 3b d1 c5 14 3c 69 d0 c6 3b d9 20 f1 3b
       0.0029230274 0.009080366 0.006067325 0.007358652
000270 ed 6e b9 3b 29 1a e6 bb d7 a8 db ba 68 dd e6 3b
       0.0056589753 -0.0070221615 -0.0016758692 0.0070454367
000280 5c 81 50 3a 9d fa 76 bb c4 5b 80 3b 96 74 61 3a
       0.00079538464 -0.0037685998 0.0039171893 0.00086004415
000290 1a 75 e5 ba 92 eb 74 3b 8b f8 3d bb 5b dd 92 3b
       -0.0017506212 0.0037371856 -0.0028987254 0.004481954
0002a0 58 26 26 3b a3 59 93 3b b8 81 8d bb 1d ef 5a 39
       0.0025352444 0.0044967695 -0.004318442 0.00020879177
0002b0 be 01 37 bb 37 9c 10 3b 86 5f 91 b7 c1 aa db bb
       -0.0027924622 0.0022065768 -1.7329829e-05 -0.006703705
0002c0 4d 92 b8 3a f3 62 54 bb e2 32 e1 3a 90 51 e8 bb
       0.0014081687 -0.003240761 0.0017181302 -0.007089801
0002d0 60 55 f5 3b 83 3e c1 3b ae 45 50 3b 22 ea dc 3b
       0.007486984 0.0058973446 0.0031779814 0.006741778
0002e0 d6 80 f0 bb 9b 99 09 3a 70 df 67 ba 91 e6 f1 39
       -0.007339577 0.0005249024 -0.00088452455 0.00046138887
0002f0 09 aa 07 bb 6f 54 cf 3b d1 ad b0 3b cf e2 aa 3b
       -0.0020700714 0.006327204 0.0053918143 0.005215026
000300 13 8e 50 3c 37 1c fb 3a 7b f0 13 3a 8f 9d 8d 3b
       0.012729186 0.0019158189 0.00056434394 0.004321761
000310 0c b7 98 3b 80 d5 3c bb f5 d3 eb ba ca aa e7 3b
       0.0046604928 -0.002881378 -0.0017992245 0.00706992
000320 54 48 8f bb 4f 49 12 bb 32 2c 0a 3c 77 4e 8b 3b
       -0.004372636 -0.0022321527 0.008433389 0.004251297
000330 43 82 04 3b dc 20 96 bb 76 54 07 3c c0 42 04 ba
       0.0020219244 -0.004581554 0.008259883 -0.0005045347
000340 04 8d 0d 3c 99 d4 7f bb a6 c5 7a 3b 3b 79 7f bb
       0.008639578 -0.003903663 0.003826478 -0.003898217
000350 83 9c 45 3b 55 9f 3a bb 98 e3 c8 bb 58 77 aa 3a
       0.0030153103 -0.0028476317 -0.006130647 0.0013005538
000360 b1 03 d2 3a 4d 76 bd bb 39 95 e3 bb 1a 84 ad 3b
       0.0016022829 -0.005781925 -0.006945279 0.0052952887
000370 b7 25 18 3c 66 2f ae ba b0 8f d4 bb 84 b9 da ba
       0.009286336 -0.0013289272 -0.0064868554 -0.0016687368
000380 78 7c c1 3b 1b 61 09 bb 03 d4 88 bb ce 0c 8c bb
       0.0059047304 -0.002096242 -0.0041756644 -0.0042739874
000390 48 e9 1a 3b 03 e8 e0 39 bc 3c 13 bc 87 27 ef 3a
       0.0023637582 0.00042897472 -0.008986648 0.0018246033
0003a0 3e bc c3 3b cb 2c 21 3b a9 7a 31 bb 3b 38 2c 3b
       0.005973368 0.002459335 -0.0027081168 0.0026278633
0003b0 68 35 fd bb aa e5 bf bb e9 08 d5 bb 28 b0 0f 3a
       -0.007727314 -0.0058562355 -0.0065013063 0.00054812664
0003c0 32 89 c5 bb 3d 26 19 bb a4 0a 4e 3b ae ab 16 ba
       -0.006028318 -0.002336874 0.0031439448 -0.0005747628
0003d0 89 24 aa 3b 88 4b 30 3a 2d 63 f5 3a 62 bc a7 bb
       0.0051923436 0.0006725122 0.0018721573 -0.0051188925
0003e0 24 98 ee 3a 88 9e 8e ba 3d a7 a4 3b b4 db 20 b9
       0.00182033 -0.0010880986 0.005024819 -0.00015340635
0003f0 df f6 98 3b 3c b2 30 b9 b5 7a 69 ba c5 f2 a8 3a
       0.004668101 -0.00016851065 -0.00089065294 0.0012889734

hidden_layers.1.linear.bias f4 [256]
000000 cb 06 76 bd d5 a2 a5 bc 05 72 e3 3a 8b f0 39 bd
       -0.060065072 -0.020219246 0.0017352706 -0.045395415
000010 06 f2 0b bd 75 db 4f bc f6 91 c7 3c fe ae fe bc
       -0.03416636 -0.0126866 0.024361592 -0.031089302
000020 cf 72 18 3c 41 f1 82 bd c3 e7 46 bd 06 0d 1c bd
       0.009304716 -0.06393672 -0.04856087 -0.038098358
000030 3c a7 83 bd 47 89 9b bb 00 32 2e 3d 71 42 0d 3b
       -0.06428382 -0.0047465893 0.042528152 0.0021554495
000040 4f 67 ca 3c 94 50 45 bd 7b c8 85 bc f7 9f 43 3c
       0.024707465 -0.04817255 -0.016330948 0.011939994
000050 1c ac 63 3c d8 e1 28 3b 77 a8 21 bd 1d dc 83 bc
       0.013896015 0.002576938 -0.0394673 -0.01609617
000060 30 52 3d 3d 90 81 24 3d 0e 8b 67 3d a5 e5 40 bc
       0.04622096 0.040162623 0.056529097 -0.0117735015
000070 00 7d 26 bd 56 ad 29 3d dc a8 6c 3b d9 f3 38 bc
       -0.040646553 0.04142507 0.003611139 -0.011288607
000080 c9 4c f5 bb 8c 0b 25 bd 8c cd e5 3c 1a bb 76 bd
       -0.00748596 -0.040294215 0.028052114 -0.060237028
000090 c3 6f 0f 3d 42 b5 49 bd 29 ef 0f 3d 08 8c 29 3b
       0.035018694 -0.049245127 0.03514019 0.0025870819
0000a0 95 0e 7b bd 57 38 0e 3c e7 b1 38 bd 35 f4 db 3c
       -0.061293203 0.008680425 -0.045091536 0.026849845
0000b0 80 50 d3 bc 0c f6 5c 3d 26 f7 23 3d 76 1c c0 bc
       -0.025795221 0.053945586 0.04003062 -0.023451071
0000c0 5e d4 b1 39 ba 43 ba bc ca b3 56 bd b5 f4 12 3d
       0.00033918297 -0.022737373 -0.052417554 0.035877902
0000d0 34 fd 49 bd 58 95 43 bd eb eb 4d 3d 12 fb c7 3c
       -0.04931374 -0.047749847 0.050273817 0.024411712
0000e0 30 d1 dc 3c 00 90 76 bc 7a 84 37 bd a7 01 15 bd
       0.026955217 -0.015048981 -0.044804074 -0.03637853
0000f0 3d 19 14 bd 08 c0 45 bd c4 e8 40 bd 10 8c 2e 3d
       -0.03615688 -0.04827884 -0.047096983 0.042614043
000100 6c 32 bb bc 96 e9 cd bc b5 64 e7 bb af 03 b1 3c
       -0.022851191 -0.025135797 -0.0070615658 0.021608202
000110 7a c7 f1 3c cc b1 5a 3d 32 f0 eb 3c 34 29 44 3d
       0.029514063 0.053392217 0.028801057 0.047890857
000120 19 5c 1e bd 94 76 dc bb 70 1c 2e bd 51 47 3a bd
       -0.03866205 -0.006728003 -0.04250759 -0.04547817
000130 ae 45 c4 3b fc 3b e0 3b 22 c0 af 3c a2 02 0b 3d
       0.005989752 0.006843088 0.02145392 0.033938058
000140 56 c6 48 bd 75 58 07 3b ef 16 55 bc 25 38 ac bc
       -0.049017273 0.002065209 -0.013005956 -0.021022866
000150 97 8c 22 bd f0 df 6d 3d 76 69 2d 3d 92 f9 23 bd
       -0.03968486 0.05807489 0.042336904 -0.04003293
000160 03 fb a4 3c fd c6 80 3c 2a 55 81 bd 45 5f eb 3c
       0.020139223 0.015719885 -0.06315072 0.028731951
000170 1d b7 36 3d c7 11 16 bd 49 30 84 bc b6 93 7c 3d
       0.044608224 -0.036638048 -0.016136305 0.061664306
000180 a3 ef 34 3d d3 2a 50 bd 0e 32 4c bc 0f ce 33 bd
       0.044173848 -0.05082209 -0.012463106 -0.043897685
000190 ae c1 37 3d 7b a6 86 3c d1 cd 79 3d a8 a1 bd 3c
       0.04486244 0.016436806 0.060987297 0.023148373
0001a0 df 13 3b bc a1 19 6d bc 45 8e 2a 3d 1e 83 7b 3c
       -0.011418312 -0.014471442 0.041639585 0.015351085
0001b0 07 01 a8 bc 32 d9 f2 bb f8 75 43 bc e0 dd 5d 3c
       -0.020508302 -0.0074111456 -0.011929981 0.013541669
0001c0 ca 00 fa 3c e0 56 b4 bb fd ed de bc c9 3d 00 bd
       0.030517954 -0.0055035204 -0.027213091 -0.031308923
0001d0 54 b7 75 3b 18 9c d0 bc a1 d6 06 3d 49 b2 47 bd
       0.0037493305 -0.025465056 0.03291953 -0.04875401
0001e0 7c 11 f7 3c e4 91 d9 bc 76 98 4f bb f2 4b e4 3c
       0.030159704 -0.026558824 -0.0031676567 0.027868245
0001f0 6f 75 2b bd 04 2b 5a 3d 22 ea 10 bd 18 39 2f bd
       -0.04186004 0.05326368 -0.035379536 -0.04277906
000200 2a 67 0a 3c 71 49 bb 3c be 4e cf bc d1 0a 85 3c
       0.008447448 0.022862168 -0.025306102 0.01624051
000210 55 b7 e9 bb 2b 97 bd bc 8b fa 68 bb d9 a5 12 3d
       -0.0071324506 -0.023143372 -0.0035549726 0.035802696
000220 15 ec be bb 22 98 30 3d 45 f7 06 3d 14 3c 05 3c
       -0.005826483 0.043113835 0.03295066 0.0081319995
000230 ac e1 db 3c 73 b7 14 3d a6 b8 45 3d 0f 5e 68 bd
       0.026841007 0.036307763 0.048271798 -0.056730326
000240 05 fc d5 bc 1b f6 38 bd c1 66 4c 3c 05 3e 76 bc
       -0.026121149 -0.04515658 0.01247567 -0.015029435
000250 cf fa 1d bd 13 5d 2f 3d 07 8f 85 bd fe 8e e5 3b
       -0.038569268 0.042813372 -0.06521421 0.0070055714
000260 f2 9e ab 3c 84 2c 34 bd 0b ea 80 3d 68 84 2a bd
       0.020949814 -0.043987766 0.0629464 -0.04163018
000270 6a 4f 1b bb 34 ec 89 3b d1 60 02 bd f2 70 6e bd
       -0.0023698458 0.004209066 -0.031830613 -0.05821318
000280 8c c1 72 3d 20 ad 22 bc 08 20 84 bd 26 13 d8 bc
       0.059266612 -0.0099289715 -0.06451422 -0.026376318
000290 73 1b 47 bd d1 72 5c bd bb b0 07 3c 37 58 6d 3d
       -0.048610162 -0.053820435 0.008281882 0.057945456
0002a0 fa c3 5a bd b9 2a 1e bd ac 5b 1b bd 37 49 65 3d
       -0.053409554 -0.038614962 -0.037929222 0.055978026
0002b0 38 8c 8c 3c 39 3d 45 3d 3a 8a 3b 3d 0c ed 51 3c
       0.017156705 0.04815409 0.04578612 0.012812864
0002c0 51 37 6d 3d b0 30 1e bd 53 d2 7f 3c 7d f3 5c 3d
       0.057914082 -0.03862065 0.01561411 0.053943146
0002d0 eb 64 dc 3c 39 19 58 bd b8 84 30 bd fa 36 91 3b
       0.02690359 -0.05275843 -0.04309532 0.0044316025
0002e0 09 c7 90 bc e4 40 9f 3b 24 10 af 3c 72 40 57 bd
       -0.017673032 0.0048600305 0.021370001 -0.052551694
0002f0 28 fa 8d 3c eb a7 00 3c 7c fc 3b bd 6e ec b3 bc
       0.017331198 0.007852535 -0.045895085 -0.021963324
000300 da 2f 41 bd c3 76 9a bc 57 c6 5e bd 2b 3a a2 bb
       -0.047164775 -0.018855458 -0.05438837 -0.004950782
000310 5c 81 b7 b8 12 ae 0d bd 2a 37 43 bd 04 ee da 3c
       -8.750215e-05 -0.034589835 -0.04766003 0.026724823
000320 37 3e ee 3c 26 52 75 bd 6c cf 64 bd af d2 1c 3d
       0.0290824 -0.059892796 -0.055861875 0.03828686
000330 86 a3 2b bc eb 86 18 bd 0a dc 05 3c aa fa 0d bc
       -0.010475999 -0.037238043 0.008170137 -0.00866572
000340 fa a6 00 3c dd 52 46 3d e0 86 bd 3c 96 5b 54 bd
       0.00785231 0.04841887 0.023135602 -0.051845156
000350 2f 8c 37 3c 00 6e 25 bd 2a df 65 bb 01 63 d9 bc
       0.011202856 -0.040388107 -0.0035075643 -0.026536467
000360 5e d6 4b 3d 94 e2 4b 3d 04 b2 4f 3c 14 aa e4 3c
       0.049764983 0.04977663 0.01267672 0.02791313
000370 66 23 97 bb f3 89 1e bd 6d ef ae bc 97 60 25 bb
       -0.004612374 -0.038705777 -0.021354401 -0.0025234574
000380 52 92 51 3d 00 95 5b bd 0f d1 06 3d 6f 51 bc 3c
       0.051164933 -0.053608894 0.032914218 0.02298805
000390 09 82 30 bc a6 ee 6c bd ff 84 79 bd 58 24 14 3d
       -0.01077319 -0.05784478 -0.06091785 0.036167473
0003a0 d4 3e aa 3c 43 33 bd bc 0a 14 34 bd 29 3d 28 3c
       0.020781912 -0.023095733 -0.043964423 0.010268488
0003b0 36 1a 7f 3b 74 38 41 bd 2a 41 7a 3d a4 97 16 bd
       0.0038925535 -0.04717298 0.0610973 -0.03676571
0003c0 73 de 74 3b ee e7 46 3b 1b d2 29 bd 0c 7d b3 bc
       0.0037364035 0.0030350643 -0.041460138 -0.021910213
0003d0 f6 5d d1 3c cb 74 4a ba 17 9e 75 3d aa c4 dc 3c
       0.0255575 -0.0007723092 0.05996522 0.026949245
0003e0 e2 8b 52 3d 25 6d 43 bd 64 05 ea 3a e2 b0 24 bc
       0.051402934 -0.04771151 0.001785439 -0.010051938
0003f0 6e 7a 19 bd a2 77 0b 3d f0 1f d2 3c 87 c1 49 bd
       -0.037470274 0.034049638 0.025649995 -0.049256828

hidden_layers.2.linear.weight f4 [256, 256]
000000 e2 bc a1 bb 37 9f e9 ba e9 97 7d 3b 64 55 41 bb
       -0.0049358467 -0.0017823939 0.0038695282 -0.002950036
000010 75 41 ea 3b 7b 0b 1a 3c df 7a c0 bb 56 d4 60 bb
       0.0071489164 0.009402151 -0.0058740224 -0.003430625
000020 fc 27 77 3b 4f 3d 3a 3c 2f f9 1a bc 6a 0e 4a 3b
       0.0037713042 0.011367156 -0.009458824 0.0030831345
000030 86 e3 41 3c c3 a7 b8 ba 3a 46 be 3b 0d 86 63 bb
       0.011834031 -0.0014088083 0.0058067115 -0.0034717352
000040 35 8d 54 3a 33 a0 ea 39 c5 2c 7d 3b f2 7d 2f bc
       0.00081081997 0.00044751316 0.003863142 -0.01071118
000050 f0 83 d3 ba 30 80 3d bc 8d f0 de ba 02 de 05 3b
       -0.0016137343 -0.011566207 -0.0017008946 0.0020426516
000060 9e 0d 4b 3c b2 36 ae bb b2 6d a1 3b 97 31 63 3c
       0.012393383 -0.005316579 0.004926407 0.013866804
000070 df d0 45 bc d9 6e 05 bc dd 58 a7 3b 24 37 3c 3c
       -0.0120737245 -0.008144104 0.005107029 0.011487756
000080 d0 a2 7f bb 55 ee 40 3c f8 20 53 39 2a 81 23 bc
       -0.0039006956 0.011775573 0.0002013481 -0.009979526
000090 0b d7 92 bb 92 7c d3 3a 25 29 16 bc 23 85 5b 3b
       -0.0044812015 0.0016135147 -0.009165083 0.0033496104
0000a0 1f 71 5b 3a 9a 98 48 3c 21 ea 8c bc 0d ee 36 3b
       0.00083710434 0.012243414 -0.017201485 0.0027912885
0000b0 58 73 e1 b9 4c 38 86 bc d1 51 c7 bb 60 29 81 bb
       -0.00043001282 -0.016384266 -0.0060827513 -0.0039417
0000c0 11 c3 d8 3b 6a 30 39 bc 2f 9a 47 3c 5b 8d d8 bb
       0.0066150506 -0.011303047 0.012182756 -0.0066086478
0000d0 39 99 9a bb 00 d5 c1 bb d4 dc 29 bc 34 71 fd bb
       -0.0047179726 -0.005915284 -0.010367591 -0.007734442
0000e0 5a a1 0a bc 98 34 7a 39 ea b5 bf bb a8 22 ab 3b
       -0.008461321 0.0002386145 -0.0058505433 0.005222637
0000f0 42 82 04 bc b2 94 76 bb 6a 72 52 3b 90 37 06 bb
       -0.0080876965 -0.003762525 0.0032111653 -0.0020479895
000100 b7 a9 cc bb 20 e8 5c 3b b5 07 90 bc cd 32 db 38
       -0.0062458175 0.0033707693 -0.0175818 0.00010452196
000110 0d 44 e3 bb 81 46 1a 3c 7b 8f bd 3b 92 a9 1f bc
       -0.0069356025 0.0094162235 0.0057849265 -0.009745019
000120 e5 bd 49 b9 96 28 33 3a c3 b0 55 3c 96 1c ce 3b
       -0.00019239595 0.0006834356 0.013042632 0.006290029
000130 a0 2a 4f bc 90 a5 f0 3b bd 9f 76 3c 23 66 c3 3b
       -0.01264444 0.0073439553 0.015052733 0.0059631034
000140 c5 58 8a 3b 3c fd 1d bc a9 9b 40 ba ab 4f b1 bb
       0.004222008 -0.009642895 -0.0007347414 -0.0054111085
000150 6c 7d e3 3a 09 76 48 3b fe b6 bf bb f5 2f 8f 3b
       0.0017356104 0.0030587933 -0.005850672 0.0043697306
000160 36 40 73 bc fe 8e 25 bb 1f 93 02 bc 8e 3b 8d 3b
       -0.014846852 -0.0025262232 -0.007969647 0.004310078
000170 4f da 38 bc 61 e4 18 38 44 25 7c 3b df d4 20 bc
       -0.011282518 3.645232e-05 0.003847436 -0.009816377
000180 64 d8 f3 bb 97 40 d5 bb 57 48 1f bc 50 0c 3b bc
       -0.0074415673 -0.006507944 -0.009721837 -0.01141651
000190 ea 56 56 bc ea 75 18 bc d2 e1 15 bc 17 c6 01 3a
       -0.013082245 -0.009305457 -0.009148078 0.0004950477
0001a0 04 0e 54 3c de 60 95 39 a0 2c 2b 3c 80 33 84 3b
       0.012942795 0.00028491666 0.010447651 0.0040344596
0001b0 f5 53 99 ba 31 14 00 bc c5 5f 50 bb 4a 17 a6 ba
       -0.0011697995 -0.007817314 -0.0031795364 -0.0012671736
0001c0 e9 da 1d bc b5 19 98 bc f1 56 48 3c 3a 07 de bb
       -0.009634712 -0.018566946 0.01222776 -0.006775764
0001d0 08 36 db bb d3 5a 24 ba eb 17 1e 3b a9 47 44 3b
       -0.0066897906 -0.00062696374 0.0024123143 0.002994994
0001e0 2d de b5 bb 77 26 48 3b 02 41 20 3c d2 a5 71 bc
       -0.005550167 0.0030540505 0.009781124 -0.014749007
0001f0 9a 65 7c 3b 55 53 af 3a 68 1f 9e bc 1a b1 61 3c
       0.0038512708 0.0013376275 -0.019302085 0.013775134
000200 92 3f 5a b9 05 6c d0 bb 39 4c a4 3b c9 6c 15 3b
       -0.00020813782 -0.006360533 0.0050139693 0.0022800437
000210 ac 9d 4b 3c 0a 8f 31 bc d3 1a 48 3c 61 d9 6e bc
       0.012427729 -0.010837326 0.012213427 -0.014578194
000220 cb 8c 6d 3c 90 ac 3a bc 04 2b ee 3a 4e b7 2a 3b
       0.0144989 -0.011393681 0.0018170779 0.00260492
000230 4c 31 e5 3b 79 49 9d b9 d1 36 d2 bb 55 57 20 bc
       0.006994402 -0.00030000115 -0.006415226 -0.009786447
000240 63 ed d3 b9 df d2 7d bc 02 7a 25 ba b2 a1 b0 bb
       -0.00040421923 -0.01549217 -0.0006312431 -0.0053903693
000250 90 c0 2a 3a cd b4 d5 3b 27 fe 14 bc 3e 34 84 3b
       0.00065136794 0.0065217973 -0.009093798 0.004034548
000260 4d 7d 5e b9 0c 8e 3f bc 29 f4 ca 3b 8a 1c 32 3b
       -0.00021218248 -0.011691581 0.006193657 0.0027177655
000270 0f 41 66 3b bc 5c 3f bb 06 77 8d bb 62 20 ba b8
       0.0035133993 -0.002919956 -0.004317167 -8.875203e-05
000280 eb 4d 79 3b 23 c6 02 bb 40 f1 db ba d2 1a 27 3c
       0.0038040827 -0.0019954524 -0.0016780272 0.010199266
000290 a3 c0 45 ba f0 a7 36 bc a1 1b 03 3c 00 70 92 3b
       -0.0007543659 -0.011148438 0.008002193 0.004468918
0002a0 67 83 0d 3c 6a 88 31 3b 7e 1d a1 bc eb 1f 2d 3c
       0.008637286 0.0027089366 -0.019667383 0.010566692
0002b0 4d 6a 00 3b 07 82 01 3b 08 77 c4 ba 97 b1 16 3c
       0.001959461 0.001976134 -0.0014989087 0.009197614
0002c0 1e a4 3f bc 44 b5 17 bc 0d fe 0a bc c3 a3 71 3b
       -0.011696843 -0.009259526 -0.008483422 0.0036871291
0002d0 0b 5b 48 bb 40 b1 4b 3c d0 3a f0 bb 38 cc 13 3b
       -0.0030571844 0.012432396 -0.0073312297 0.0022552144
0002e0 4c 80 fc bb c0 c1 54 bc c4 e8 2d 3b 32 76 5d 3b
       -0.007705724 -0.012985647 0.0026536444 0.0033792374
0002f0 17 03 01 3c cb e0 c4 bb 1e 6d d8 ba 04 38 7e bb
       0.007874272 -0.0060082427 -0.0016512012 -0.0038790712
000300 22 3c 3c bc d5 ad dc 3a a1 cc d5 3b f3 9c 7b 3c
       -0.011488946 0.0016836474 0.006524638 0.015357244
000310 3a 40 84 3b 8e 6e 93 bb 37 81 6b bb 2b ed 21 bb
       0.0040359767 -0.004499263 -0.0035935172 -0.0024708014
000320 ad b4 17 ba ae ce 9f bc 18 47 ad 3b 46 b3 d9 bb
       -0.00057871157 -0.019507732 0.005288016 -0.0066436855
000330 18 5a 88 bc b5 f9 d7 bb b1 24 e7 bb a0 07 0b 3c
       -0.016644523 -0.0065910467 -0.0070539345 0.008485705
000340 62 6b 8d bb f7 03 86 3b de 96 6a bc f9 e1 48 bc
       -0.0043157795 0.004089828 -0.014318196 -0.012260907
000350 fb 8d 0e 3b 01 27 4f 3b 7d 0b d1 3b e8 7b e2 3b
       0.0021752107 0.0031608941 0.0063795433 0.0069117434
000360 87 65 87 ba 91 9f 6e bc f2 85 61 3b cd be 0d 3c
       -0.001032994 -0.014564411 0.0034412113 0.0086514475
000370 34 03 1f 3c 42 be 5d 3a ad 21 d5 bb 21 08 3a 3b
       0.0097053535 0.00084588316 -0.0065042586 0.0028386193
000380 14 27 4b 3c f1 8d c4 3b b4 31 82 bb 90 93 de bb
       0.012399454 0.005998366 -0.00397321 -0.006792493
000390 32 ab ba bb 7a 67 80 3c a0 18 ae 3b eb ba 45 3b
       -0.0056966776 0.015674341 0.005312994 0.0030171226
0003a0 19 5a cc 3a 31 09 1a bc e3 4d 63 3a c5 5d 76 3c
       0.0015590816 -0.009401605 0.0008670969 0.015037005
0003b0 1c ea b5 bb f4 46 3e 3b 43 ce f3 bb 0a ee 90 3b
       -0.0055515897 0.002903399 -0.00744036 0.0044229077
0003c0 98 8d 56 bc f5 f5 4c bb 6e b3 ce bb 79 c0 2b b8
       -0.013095282 -0.0031274532 -0.006308011 -4.094883e-05
0003d0 92 98 28 bc 3f f8 95 ba f4 30 9d 3c 04 09 a6 3a
       -0.010290282 -0.0011441781 0.019188382 0.0012667482
0003e0 e3 e6 59 bc 8f 0e 37 3c 6f ab 11 bc 83 ea a8 bb
       -0.013299677 0.011172905 -0.008890971 -0.005154909
0003f0 cf 0d d2 39 01 a9 60 3c 53 68 ec 3b 21 eb cc 3b
       0.0004006461 0.013712169 0.007214585 0.0062536155
