My-Siren/result/image_inpainting/model_final.pth (torch, 798791 bytes, 10 tensors)

first_layer.linear.weight f4 [256, 2]
0	0xbee910b6	-0.45520562
1	0xbe4118a1	-0.18857051
2	0xbebcb647	-0.36857817
3	0xbecb3b00	-0.3969345
4	0xbef167d1	-0.47149518
5	0x3d1f297b	0.03885792
6	0x3ef5fa5f	0.4804258
7	0x3dfb1b6e	0.12261091
8	0x3e17c5c9	0.14821543
9	0xbeecc96e	-0.4624743
10	0x3d600dde	0.054700725
11	0x3ed33876	0.41254014
12	0xbec3d48e	-0.38248104
13	0xbe1798ee	-0.14804432
14	0xbe518490	-0.20460725
15	0x3eed9b93	0.46407756
16	0xbe3221fc	-0.17395777
17	0x3ef5e1fc	0.48023975
18	0xbe22a228	-0.1588217
19	0x3e602ede	0.21892878
20	0x3ed6195f	0.41816232
21	0x3e8c70fe	0.27429956
22	0xbe111006	-0.14166269
23	0x3eb4788c	0.3524822
24	0x3e18a1db	0.14905493
25	0xbdd412d3	-0.10355153
26	0xbcdcbe59	-0.026946234
27	0xbeaf5452	-0.3424402
28	0xbee76853	-0.4519678
29	0xbee000b4	-0.43750536
30	0x3e7f99ad	0.24960966
31	0xbe8838a5	-0.26605716
32	0xbd33f9c0	-0.043939352
33	0x3af69bb0	0.0018814709
34	0x3ecdc9eb	0.40193114
35	0x3e73b66a	0.23800054
36	0x3e7df44e	0.24800226
37	0x3d2e2cdb	0.042523246
38	0xbe1472d9	-0.14496936
39	0x3e234982	0.1594601
40	0xbdd4d55a	-0.10392256
41	0x3d9f28a5	0.07771424
42	0xbeef39b5	-0.46723714
43	0xbe52cfc8	-0.20587075
44	0x3e18d9be	0.14926812
45	0xbef2a89b	-0.4739426
46	0x3eaa0868	0.33209538
47	0xbe955875	-0.2916905
48	0xbe998e11	-0.299912
49	0xbda9b13f	-0.0828576
50	0xbb8babd7	-0.0042624283
51	0x3de245b8	0.11048454
52	0x3ec1b623	0.37834272
53	0x3daa56cc	0.083173364
54	0xbed2965b	-0.41130337
55	0x3e5b3799	0.21407928
56	0xbd40a52b	-0.047032516
57	0xbea0c812	-0.31402642
58	0x3dc66c8f	0.09688675
59	0x3e4bcacf	0.19901584
60	0xbd85c50b	-0.065317236
61	0xbee7da26	-0.45283622
62	0xbe4fbf48	-0.20287812
63	0xbeca9bc8	-0.39571977
64	0x3ed05d72	0.40696293
65	0xbebef406	-0.3729555
66	0xbef64e42	-0.4810658
67	0x3ec09ad8	0.37618136
68	0x3e599ca9	0.21251167
69	0xbe3a7a09	-0.18210615
70	0xbe818880	-0.25299454
71	0xbe892a6c	-0.26790178
72	0xbdca8611	-0.098888524
73	0x3e9f8289	0.31154278
74	0x3d31962b	0.043356102
75	0x3e24408e	0.1604025
76	0x3eba14f4	0.3634411
77	0x3e089436	0.13337788
78	0x3e0c959a	0.13728943
79	0x3ec19d07	0.37815115
80	0xbcbf8f17	-0.02338366
81	0xbed93ff5	-0.42431608
82	0xbe7878f5	-0.24264891
83	0x3cb3e394	0.021959104
84	0x3e21040f	0.15724204
85	0x3ea4748e	0.32120174
86	0xbe72e86b	-0.23721473
87	0xbecab450	-0.39590693
88	0x3dbdf25d	0.09274743
89	0xbe88cd7a	-0.26719266
90	0xbeaa062b	-0.3320783
91	0x3df5fc93	0.12011065
92	0x3c6e912e	0.014560981
93	0x3eea96d9	0.45818213
94	0xbe12400b	-0.14282243
95	0x3d1ef0e9	0.03880397
96	0x3e4e181e	0.20126387
97	0x3eaf73e6	0.3426811
98	0x3e94d866	0.2907135
99	0xbecf42cc	-0.4048065
100	0x3ef1fcf8	0.47263312
101	0x3f00f122	0.5036794
102	0x3ef4f827	0.47845575
103	0x3ef9cced	0.48789158
104	0xbb8a87e5	-0.0042276257
105	0xbe6da9ae	-0.23209259
106	0xbdd912cf	-0.105992906
107	0x3ed83153	0.4222513
108	0xbe6cca43	-0.23124032
109	0x3e1b90cb	0.15191953
110	0x3ecf41fd	0.40480033
111	0xbd631cde	-0.05544745
112	0xbead1f72	-0.33813053
113	0x3dad3511	0.08457387
114	0xbe5f9697	-0.21834789
115	0x3edefdad	0.43552914
116	0xbcf900ae	-0.030395832
117	0x3e9f07b0	0.31060553
118	0x3e9a1a4e	0.30098194
119	0x3ee92278	0.4553411
120	0xbecde0ad	-0.40210477
121	0xbca969b1	-0.02068028
122	0xbe7fc186	-0.24976167
123	0x3ecc2f0f	0.39879653
124	0xbe631d83	-0.22179227
125	0xbee5c3c0	-0.44875908
126	0xbee3d696	-0.44499654
127	0xbdc45d45	-0.09588102
128	0xbe435626	-0.19075832
129	0x3ea389f2	0.3194118
130	0x3e60c5be	0.21950433
131	0xbefcb2a0	-0.4935503
132	0x3ec7c45e	0.39017004
133	0xbe1a1237	-0.15046011
134	0x3e3dd408	0.18537915
135	0x3e9388a0	0.28815174
136	0x3eae0110	0.33985186
137	0x3f003081	0.5007401
138	0xbc09a567	-0.008401251
139	0x3e85e9aa	0.26154834
140	0x3e317a7d	0.17331882
141	0x3e7ce8c4	0.24698168
142	0xbd18b01e	-0.037277333
143	0xbe5e80ce	-0.21728823
144	0xbe925cee	-0.28586525
145	0x3ed2b344	0.41152394
146	0xbc970513	-0.018435037
147	0x3e0714fd	0.131916
148	0x3cb35cef	0.0218949
149	0xbeca8dcc	-0.39561307
150	0x3d95d84b	0.07316645
151	0xbe05c942	-0.13065055
152	0xbdda846b	-0.10669788
153	0x3e39e44b	0.18153493
154	0x3e2a2ad9	0.16617908
155	0xbc8a9bb2	-0.016919944
156	0xbeeaa7af	-0.45831057
157	0xbed4575e	-0.41472906
158	0xbde81661	-0.113323934
159	0x3e0decd2	0.13859871
160	0xbefa889c	-0.4893235
161	0x3d9b6e57	0.07589405
162	0x3ca9da09	0.02073385
163	0x3eb7adfb	0.35874924
164	0x3ea18509	0.3154681
165	0xbea98d15	-0.3311545
166	0x3cb3c102	0.02194262
167	0xbeb29910	-0.34882402
168	0x3ebc7224	0.36805832
169	0xbbddbcba	-0.0067668827
170	0xbe918b73	-0.28426704
171	0xbecead57	-0.40366623
172	0x3e35699c	0.17716068
173	0xbdf94d8e	-0.121729955
174	0x3ea39248	0.3194754
175	0x3e6e81a2	0.23291638
176	0x3ea26b9a	0.31722718
177	0x3e800d7a	0.25010282
178	0xbe833d02	-0.25632483
179	0xbe63c96b	-0.22244804
180	0xbe0e14dd	-0.13875146
181	0xbe85647a	-0.2605322
182	0xbec04e30	-0.37559652
183	0xbe20a1bf	-0.15686701
184	0x3edbae18	0.4290626
185	0xbe1d5142	-0.15363029
186	0xbe5dfda9	-0.21678795
187	0x3ee61972	0.44941288
188	0xbed0b068	-0.40759587
189	0x3e8d1276	0.27553147
190	0x3e8fa667	0.28056642
191	0xbe64d666	-0.22347412
192	0x3efa7f8e	0.48925442
193	0xbd9a3814	-0.07530227
194	0xbd6e285e	-0.058143966
195	0xbee52720	-0.44756413
196	0xbea1aaf6	-0.31575745
197	0xbe839ef0	-0.25707197
198	0x3c93f3eb	0.018060645
199	0xbea894fc	-0.32926166
200	0xbee6dffb	-0.4509276
201	0x3e3d0763	0.18459849
202	0x3e78402f	0.24243234
203	0x3efb95b0	0.4913764
204	0x3ea584f1	0.3232799
205	0xbe3f005e	-0.18652484
206	0xbde32411	-0.110908635
207	0x3f0034ee	0.50080764
208	0xbef9ad37	-0.48764965
209	0xbd687cfe	-0.056759827
210	0x3e953eb7	0.2914941
211	0xbe630bb7	-0.22172438
212	0xbe23717a	-0.15961257
213	0xbed68ab1	-0.41902688
214	0xbe397e6f	-0.18114637
215	0xbefa8239	-0.48927477
216	0x3eec185b	0.46112332
217	0x3ca56331	0.0201889
218	0xbe2895f7	-0.16463457
219	0x3eb55795	0.35418382
220	0xbdcd2bbf	-0.100181095
221	0x3e805b31	0.25069574
222	0x3dc5d8f1	0.09660519
223	0x3dc0ca9d	0.094136454
224	0x3e9af822	0.30267435
225	0x3e89e0b4	0.26929247
226	0xbe465139	-0.19366921
227	0x3edaffd5	0.4277331
228	0xbd3f522c	-0.046709225
229	0xbed48170	-0.41505003
230	0x3ebc26fb	0.3674849
231	0x3e797f3c	0.24364942
232	0x3eb85a40	0.36006355
233	0xbefe803d	-0.49707213
234	0x3ee3bff5	0.4448239
235	0x3d87ead1	0.066365846
236	0xbe19353a	-0.1496171
237	0xbdbaaad1	-0.09114612
238	0xbea7a610	-0.32743883
239	0xbeba519b	-0.36390385
240	0xbdcbfe81	-0.09960652
241	0xbc0fe23a	-0.008781964
242	0x3e9c1c0b	0.30490145
243	0x3ec027ef	0.37530467
244	0x3e52f243	0.20600228
245	0xbd467289	-0.048449073
246	0x3e9eaedd	0.30992785
247	0xbc29e10c	-0.010368597
248	0x3edf0de9	0.435653
249	0x3ea5d1b3	0.3238655
250	0x3d930d64	0.071802884
251	0xbe243c64	-0.16038662
252	0x3dcaffa5	0.099120416
253	0x3e3029b7	0.17203413
254	0xbe42890e	-0.18997595
255	0x3ddae8db	0.10688945

first_layer.linear.bias f4 [256]
0	0xbea4a5c0	-0.32157707
1	0x3f2afbab	0.66790265
2	0xbedb2f33	-0.42809448
3	0x3e8192ec	0.25307405
4	0x3f29cdfd	0.6632994
5	0x3e925cbb	0.28586373
6	0xbe1b4785	-0.15164001
7	0xbf0555c3	-0.52083987
8	0xbea7fc23	-0.32809553
9	0x3d2b79be	0.04186415
10	0x3e82ce97	0.2554824
11	0x3e84fa21	0.25972083
12	0xbec28b23	-0.37996778
13	0xbf122878	-0.57093
14	0x3eb07c28	0.34469724
15	0x3f3405a3	0.703211
16	0xbf0907b0	-0.53527355
17	0x3f2ff812	0.687379
18	0x3ee31f66	0.44359893
19	0x3e98e3e2	0.2986136
20	0xbedacf76	-0.42736405
21	0x3ed77d00	0.42087555
22	0xbf06badc	-0.52628875
23	0xbc351b49	-0.011053869
24	0x3ebe7080	0.37195206
25	0x3f0ded07	0.554398
26	0xbe83bb01	-0.2572861
27	0x3e9c3200	0.30506897
28	0x3e46b781	0.19405939
29	0xbddebe4a	-0.108761385
30	0xbc3b4e98	-0.011432312
31	0xbf2c0510	-0.67195225
32	0xbf1ac2b0	-0.6045332
33	0x3f0bbe99	0.54587704
34	0x3e2bf8cf	0.16794132
35	0xbf11c667	-0.5694336
36	0x3e7caf13	0.2467616
37	0xbd39025f	-0.045168277
38	0xbc2538d9	-0.010084354
39	0xbe95f8b2	-0.29291302
40	0xbee0d845	-0.43915
41	0x3ef61316	0.48061436
42	0x3ed43658	0.4144771
43	0x3eaa3c12	0.33248955
44	0xbd218310	-0.03943163
45	0x3f3190eb	0.6936175
46	0x3d8030cd	0.06259308
47	0xbf2fe433	-0.6870758
48	0xbf327aa8	-0.6971841
49	0xbe1a96d1	-0.15096594
50	0xbe7b41bf	-0.24536799
51	0x3f1041b3	0.5635025
52	0xbed8fd9d	-0.42380992
53	0xbeb84fa3	-0.35998258
54	0xbe51b2ae	-0.20478317
55	0x3eb3dcda	0.35129434
56	0xbd019532	-0.031636424
57	0x3f13fe85	0.5781024
58	0x3f072e2a	0.52804816
59	0xbdf14804	-0.11781314
60	0x3dab5dec	0.083675236
61	0xbf1c877b	-0.61144227
62	0xbe4f2bde	-0.20231578
63	0xbf282462	-0.65680516
64	0x3e21d939	0.1580552
65	0xbe84e874	-0.25958598
66	0x3cd635ed	0.02614876
67	0xbdb890cb	-0.09011992
68	0x3f24c472	0.6436225
69	0xbe8b6b8b	-0.27230486
70	0x3e204195	0.15650018
71	0xbe71ccb1	-0.2361324
72	0x3d8916c3	0.066937946
73	0xbf275fd3	-0.6538059
74	0xbf03b8fb	-0.5145413
75	0xbde092a5	-0.1096547
76	0xbec942e4	-0.39308846
77	0xbdb62b8e	-0.08895026
78	0xbeabfebf	-0.33592793
79	0x3f1350d6	0.5754522
80	0x3eb1e1ab	0.34742483
81	0xbdda080c	-0.10646066
82	0x3f213263	0.6296751
83	0x3f2321cc	0.63723445
84	0xbdff4960	-0.12465167
85	0xbf263045	-0.64917403
86	0xbded0893	-0.11573901
87	0x3f3307d6	0.6993383
88	0xbf01015b	-0.50392693
89	0xbee934bb	-0.45548043
90	0x3e3fe009	0.18737806
91	0xbf21605c	-0.6303766
92	0xbe43da4d	-0.19126244
93	0x3b1670ff	0.0022955535
94	0xbeef7e8c	-0.46776235
95	0xbeca7b45	-0.39547172
96	0xbeabee5a	-0.33580285
97	0xbeb3c294	-0.3510939
98	0x3dd8910f	0.10574543
99	0xbe22d3ba	-0.1590108
100	0x3e5aa399	0.2135147
101	0xbea30591	-0.31840184
102	0x3e647b07	0.22312556
103	0x3e594ef4	0.21221524
104	0xbf258212	-0.64651597
105	0xbee54b1b	-0.44783863
106	0xbf21663d	-0.6304663
107	0x3daad209	0.08340842
108	0x3ed98340	0.42482948
109	0xbe92b2f3	-0.28652152
110	0x3ed46db3	0.41489944
111	0x3e3a5d58	0.1819967
112	0xbbab8fcb	-0.0052356473
113	0x3e8d2560	0.27567577
114	0xbf0a4acb	-0.54020375
115	0xbeb61273	-0.3556095
116	0xbec41197	-0.3829467
117	0xbe8934e2	-0.2679816
118	0x3ece6c99	0.40317228
119	0xbedbbefe	-0.42919153
120	0x3f3096ef	0.68980306
121	0xbf256248	-0.6460309
122	0x3ea2d168	0.3180039
123	0xbf044805	-0.51672393
124	0x3f0fddf9	0.5619808
125	0xbea1ebf4	-0.3162533
126	0x3e4811b2	0.19538
127	0x3dcc7ace	0.09984361
128	0x3f211b1b	0.62931985
129	0x3c64da6d	0.013968092
130	0xbf2b22fb	-0.6685025
131	0x3ee74d35	0.45176092
132	0xbf1fe7bf	-0.6246299
133	0xbbf34ec1	-0.0074251597
134	0x3c0edf4f	0.008720233
135	0x3eb82a5c	0.35969818
136	0x3df686f8	0.12037462
137	0x3f203a6d	0.6258915
138	0x3f174152	0.59084046
139	0xbdceb38f	-0.10092842
140	0xbed59244	-0.41713154
141	0x3ec4a0ac	0.38403833
142	0xbf161708	-0.5862889
143	0x3da919fb	0.082569085
144	0xbee9dba3	-0.45675382
145	0xbddf4af7	-0.1090297
146	0xbe4a0bbb	-0.19731037
147	0xbee4a22f	-0.44654986
148	0xbda0ac74	-0.07845393
149	0xbef86031	-0.48510888
150	0x3e993fa8	0.29931378
151	0x3f0a4f90	0.5402765
152	0x3f0731a5	0.52810127
153	0x3efb3c95	0.49069658
154	0xbe5b929b	-0.21442644
155	0x3f15feaa	0.5859171
156	0x3e3f9a20	0.18711138
157	0x3ec2df05	0.38060775
158	0x3f17b2da	0.5925728
159	0xbe711bf3	-0.23545818
160	0xbf294737	-0.6612429
161	0xbebe9cca	-0.37228996
162	0x3f1cea76	0.6129526
163	0xbf290493	-0.66022605
164	0xbf20c80d	-0.62805253
165	0xbf35fd76	-0.71089876
166	0xbf08715c	-0.5329797
167	0x3f23f640	0.6404762
168	0x3f19b5ec	0.60043216
169	0xbec45b6d	-0.38351002
170	0x3f17392c	0.5907161
171	0x3e9ec20b	0.31007418
172	0xbe90f3aa	-0.283109
173	0xbe7f8182	-0.24951747
174	0xbf2ddade	-0.6791209
175	0xbe706872	-0.23477343
176	0x3f2055e8	0.6263108
177	0x3ea9767d	0.33098212
178	0xbe15e03e	-0.14636323
179	0x3ea155df	0.31510827
180	0xbde1e967	-0.11030846
181	0xbf34b0b1	-0.7058211
182	0xbdaff2a6	-0.085912034
183	0x3f11d148	0.5695996
184	0xbe11fc98	-0.14256513
185	0x3e840231	0.25782922
186	0xbef953ba	-0.4869669
187	0xbf2eca13	-0.6827709
188	0x3ee31a43	0.44355974
189	0xbf343e34	-0.70407414
190	0xbeb8e92c	-0.36115396
191	0xbe098029	-0.13427795
192	0xbd91156d	-0.07084165
193	0x3dd84a5e	0.105610594
194	0x3e1f3aa1	0.15549709
195	0x3d960f96	0.073271915
196	0xbf20000d	-0.6250008
197	0xbed69697	-0.41911766
198	0x3eb725fb	0.35771164
199	0xbea8e6f8	-0.32988715
200	0xbf056284	-0.5210345
201	0x3f040de0	0.5158367
202	0x3dffff2c	0.12499842
203	0xbecb375e	-0.3969068
204	0xbee2e508	-0.44315362
205	0x3e9f3b76	0.31100053
206	0xbf193529	-0.5984674
207	0x3dd7cd1b	0.10537168
208	0xbf066db0	-0.5251112
209	0x3e446d5e	0.19182345
210	0x3ea6cf59	0.3258007
211	0x3ebb7c77	0.36618397
212	0x3f0e3d17	0.55561966
213	0xbdec2943	-0.115313075
214	0x3f26253b	0.6490056
215	0xbe450382	-0.1923962
216	0x3e9b2739	0.30303362
217	0xbf238f19	-0.63890225
218	0xbf1176af	-0.5682172
219	0xbefca7b4	-0.49346697
220	0xbf113b74	-0.56731343
221	0x3e52a677	0.20571314
222	0xbdb7f3ec	-0.08982071
223	0x3f179cbd	0.5922354
224	0xbec993cc	-0.39370573
225	0xbe343241	-0.17597295
226	0xbd0fa280	-0.03506708
227	0xbdfc4f45	-0.12319807
228	0x3d516c9f	0.05112898
229	0x3edc68ca	0.43048698
230	0xbb8737f4	-0.004126543
231	0xbf26a1cb	-0.65090626
232	0xbf140355	-0.57817584
233	0xbee5d25c	-0.44887054
234	0x3e4ae2d5	0.19813092
235	0x3e4d9818	0.2007755
236	0x3e19bfba	0.15014544
237	0x3eb0ffba	0.34570104
238	0x3f2cd44b	0.67511433
239	0x3ea1dfba	0.31616002
240	0x3f05fb84	0.5233691
241	0x3f00fb9b	0.5038392
242	0xbe335dc6	-0.1751624
243	0xbf2be9c6	-0.67153585
244	0xbe4a9a1b	-0.19785349
245	0x3ef9fa79	0.48823908
246	0x3f1b7c16	0.60736215
247	0x3a269805	0.000635505
248	0xbec797b0	-0.38982916
249	0xbe7714b8	-0.24128997
250	0xbd579bf6	-0.05263897
251	0x3eeef1e5	0.46668926
252	0xbefdfa07	-0.49604818
253	0x3f105391	0.5637751
254	0xbcdc0348	-0.026857033
255	0xbec624e8	-0.38700032

hidden_layers.0.linear.weight f4 [256, 256]
0	0xbbaf78ec	-0.005354991
1	0x3b9eb30b	0.004843121
2	0x3a5684bb	0.00081832305
3	0x3b7f1ff3	0.0038928955
4	0xbbce2fc6	-0.006292316
5	0x3ba325db	0.004978878
6	0xbb19cc48	-0.0023467708
7	0x3abad709	0.0014254759
8	0x3aa756a4	0.001276691
9	0xba741bd2	-0.0009312007
10	0xbbdf034e	-0.006805814
11	0xba5cf05a	-0.0008428149
12	0x39b41758	0.00034349668
13	0x3bbc87bc	0.0057534855
14	0x3bbcc022	0.0057602087
15	0x3b8bf0b3	0.004270637
16	0xb9fdd0e4	-0.00048411556
17	0xbba0fa83	-0.004912676
18	0xba9bd9ba	-0.0011890449
19	0xbb70ac85	-0.0036723923
20	0xbb51d272	-0.0032016304
21	0xbb063720	-0.0020479634
22	0xbaed32bb	-0.0018096784
23	0x3c289a98	0.010290764
24	0x3bcdc9cf	0.006280161
25	0xbb0e029c	-0.0021669036
26	0xbb1d23cf	-0.0023977642
27	0xbc164fcf	-0.009174301
28	0xbb8e4f60	-0.0043429583
29	0xb99f0ee6	-0.00030337943
30	0xbbba2846	-0.0056810705
31	0xbb1c68f2	-0.0023866263
32	0x3bd25f7a	0.006420073
33	0x3a99833a	0.0011712082
34	0xbb910cb3	-0.0044265627
35	0x3b3df6de	0.0028986256
36	0xbbae497c	-0.0053188186
37	0xbb534984	-0.0032239864
38	0xbb03c193	-0.0020104393
39	0xbb85c60b	-0.0040824465
40	0x3a371711	0.0006984333
41	0x38251005	3.9353985e-05
42	0x3ad640cc	0.0016346215
43	0x3bbb222c	0.0057108607
44	0x39d4f9d0	0.00040621916
45	0x3aa5be06	0.0012645132
46	0x3bdb0a0f	0.0066845487
47	0xbac2dcfb	-0.0014866883
48	0x3b0cd068	0.0021486524
49	0x3ae78ad3	0.0017665274
50	0x39f7ccae	0.0004726401
51	0xbb0d043c	-0.0021517416
52	0xbba16118	-0.0049249046
53	0x3bac3cfd	0.005256294
54	0x3bba3f7e	0.0056838384
55	0xbb1835b1	-0.0023225362
56	0x3b47a3f2	0.003046271
57	0x3b81795c	0.0039512347
58	0xba9c471b	-0.0011923047
59	0x398d2691	0.0002692235
60	0xbba43ae1	-0.0050119017
61	0x3c2123eb	0.009835224
62	0x3aac8a15	0.001316371
63	0xbbaa462b	-0.005196353
64	0x3b0ff9ad	0.0021968887
65	0x39b5f4b7	0.00034705337
66	0x3bc72153	0.0060769706
67	0xbb252e8b	-0.0025204744
68	0x39a48db4	0.00031386095
69	0xbb612140	-0.0034352094
70	0x39d74399	0.0004105836
71	0x3b18d390	0.002331946
72	0xbac9f174	-0.0015407042
73	0x3a9df51d	0.0012051199
74	0xbb41100b	-0.0029459025
75	0x3b978f3e	0.00462523
76	0xbb18992e	-0.0023284662
77	0xbb9481cb	-0.004532074
78	0x3ba67e6c	0.0050809886
79	0xbb1c667f	-0.0023864803
80	0x3ba6917a	0.00508326
81	0x3b360d5c	0.002777896
82	0xba6b78ac	-0.000898252
83	0x3bba703d	0.0056896494
84	0xbb281c82	-0.0025651758
85	0x3bf70052	0.00753788
86	0x3b378977	0.002800552
87	0x3ad01ced	0.0015877761
88	0xbb85e71b	-0.004086388
89	0x3b2bdca6	0.0026224046
90	0xbaa161cc	-0.0012312471
91	0x395cb68b	0.00021048838
92	0x3b601413	0.0034191653
93	0xbacab192	-0.0015464297
94	0xbae884a7	-0.0017739729
95	0x3b2b2f27	0.0026120634
96	0xbb8a170f	-0.0042141746
97	0xbb41a8b9	-0.002955003
98	0x3b95a995	0.004567335
99	0x3a811104	0.000984699
100	0x3a36c6db	0.0006972381
101	0xbb408b21	-0.0029379802
102	0xbb38db98	-0.002820706
103	0x3b8cb4f6	0.004294033
104	0x3b224693	0.0024761304
105	0x3a7c54a1	0.0009625648
106	0x3b720401	0.0036928656
107	0x3a09e7a5	0.0005260653
108	0x3a8000bb	0.0009765843
109	0x3b8cf796	0.0043019755
110	0x3a82c6cb	0.0009977458
111	0xbb872966	-0.004124808
112	0xbc221149	-0.009891816
113	0xbb13ef05	-0.0022572887
114	0x3abef5fd	0.001456916
115	0xbc006cce	-0.007838441
116	0xba0a4202	-0.0005274118
117	0x3b2437d3	0.0025057688
118	0x3b5d70cf	0.0033789163
119	0x3c386dc0	0.011256635
120	0x3ab595bc	0.0013853828
121	0xbbc7c37c	-0.0060963016
122	0x3b0d4fa6	0.0021562367
123	0xbb662328	-0.003511617
124	0xbbb0a868	-0.0053911693
125	0xbb070fff	-0.00206089
126	0xbba7b654	-0.0051181708
127	0xb9cb11eb	-0.00038732527
128	0x3b3df640	0.0028985888
129	0x3bef78d8	0.007308107
130	0x3b90b879	0.004416522
131	0x3b21c8fa	0.0024686442
132	0xbb2020e7	-0.0024433674
133	0x3b87429a	0.0041278126
134	0x3ae141c4	0.0017185737
135	0x3b4ab63b	0.0030931372
136	0xb9fe7e2e	-0.00048540666
137	0xbb79adcc	-0.0038097976
138	0xbad57cc2	-0.0016287791
139	0xba9a7ba2	-0.0011786113
140	0x3b8e004b	0.004333531
141	0x3bffc7c0	0.0078057945
142	0xbb9632b5	-0.0045836815
143	0xbb9be64e	-0.004757679
144	0x3bb19964	0.005419897
145	0xbb1493b0	-0.0022671036
146	0x3ae55ebe	0.0017499549
147	0xbb24184f	-0.0025038903
148	0xbaf4cd57	-0.0018676919
149	0x3b536a13	0.003225927
150	0x3b58c57b	0.0033076692
151	0x3b62f451	0.0034630487
152	0x3ac1d183	0.0014787171
153	0xbb84b367	-0.0040497067
154	0x3a576f49	0.0008218182
155	0xbb1c1a45	-0.0023819369
156	0x3b97127b	0.0046103573
157	0xbb081bdf	-0.0020768566
158	0xbbb1665b	-0.005413813
159	0xbad1d104	-0.0016007726
160	0xba81b9b1	-0.0009897259
161	0x39c6ace6	0.00037894322
162	0xbb462f97	-0.0030240768
163	0xbab10b84	-0.001350746
164	0xba7bbb47	-0.00096027966
165	0x3b1c16ff	0.0023817418
166	0xbb9419e6	-0.004519689
167	0xb9ab87f6	-0.0003271696
168	0x3ab5d1e4	0.0013871756
169	0xbbe91976	-0.007113631
170	0x3a324190	0.00067999307
171	0xbb25d9fe	-0.0025306935
172	0x3988174c	0.000259573
173	0xbb90e510	-0.0044218376
174	0x3a33cba0	0.00068586506
175	0xbaeda8b0	-0.0018131938
176	0xbb242a38	-0.0025049578
177	0x3a5fe2a4	0.0008540547
178	0xbc1bd4cc	-0.009511184
179	0xbb81f94f	-0.0039664875
180	0xbb145e5f	-0.0022639257
181	0x3b34c746	0.0027584597
182	0xbbcf459c	-0.0063254368
183	0xbb85c409	-0.004082207
184	0xb751d057	-1.2505879e-05
185	0xbb9ef0e4	-0.0048504937
186	0x3b082ea8	0.0020779762
187	0xba2b9017	-0.00065446034
188	0xba62531e	-0.0008633601
189	0x3b563e17	0.0032690817
190	0xba203b2f	-0.00061123347
191	0x3b32c0d0	0.002727557
192	0x3ba5436c	0.0050434377
193	0x3a44a824	0.00075018615
194	0xbb3effe6	-0.0029144227
195	0xbb873cc0	-0.004127115
196	0xbb952186	-0.0045511154
197	0x3b81e68f	0.0039642523
198	0x3b1a4792	0.0023541194
199	0x3b8ac238	0.0042345785
200	0x3b22b276	0.002482561
201	0x3a930bee	0.0011218765
202	0xbb706045	-0.0036678475
203	0xbade8010	-0.0016975421
204	0xbbb888e1	-0.0056315516
205	0x3ba69907	0.0050841602
206	0x3a0841e3	0.0005197806
207	0x3aae3b10	0.0013292748
208	0x39decc50	0.00042495364
209	0xbaab3887	-0.0013063111
210	0xbb653a17	-0.0034977251
211	0xb85be986	-5.2431154e-05
212	0x3b209df5	0.0024508212
213	0xba005892	-0.00048960105
214	0x3b7e5b2e	0.0038811672
215	0x3b725dc3	0.0036982156
216	0x3b0ac5ad	0.0021174953
217	0xba8a8b77	-0.0010570128
218	0xbbc531b3	-0.0060178875
219	0xbba3cb81	-0.004998625
220	0xbac286ce	-0.00148412
221	0x3bb1dfe8	0.005428303
222	0x3b0e6524	0.0021727765
223	0x3b272797	0.0025505775
224	0xb9a0d0ed	-0.0003067324
225	0x3a9093f8	0.0011030426
226	0xbbc173b4	-0.0059036855
227	0x3bef260e	0.0072982376
228	0x3aa7ff67	0.0012817205
229	0xbb44ad6b	-0.0030010592
230	0x3ba1a79d	0.004933311
231	0x3aa2808f	0.0012397933
232	0x3abadccf	0.001425648
233	0x3c063a6f	0.008192643
234	0x3aa89796	0.0012862559
235	0x3c20d885	0.009817247
236	0xbb9372a4	-0.00449975
237	0xbacfd11a	-0.0015855164
238	0xb9db8b85	-0.00041874885
239	0x3b46e8c8	0.003035115
240	0x3a190cd5	0.0005838399
241	0x3ae405ee	0.0017396787
242	0xbb2b9b67	-0.0026185156
243	0xbb518449	-0.0031969717
244	0xb9e7c9a8	-0.0004421
245	0xbbb0606d	-0.0053825886
246	0xbb4005a1	-0.002930023
247	0x3991023e	0.00027658226
248	0x3ae83878	0.0017717024
249	0x3a702e11	0.0009162138
250	0xbbf4d355	-0.007471482
251	0x3a2778e3	0.0006388558
252	0x3b98826e	0.0046542203
253	0x3b3c33d7	0.0028717422
254	0xbb78c8e2	-0.0037961532
255	0x3b2fe0ae	0.00268368

hidden_layers.0.linear.bias f4 [256]
0	0x3cca427f	0.024689911
1	0x3cc37de3	0.023863738
2	0xbd1dccc4	-0.038525358
3	0x3cbed2fb	0.023293963
4	0x3ac14487	0.0014745154
5	0x3d0da151	0.03457767
6	0xbd4a2bcc	-0.049358174
7	0xbbf1735e	-0.007368489
8	0x3d53f029	0.051742706
9	0x3b360b02	0.0027777557
10	0x3d6bd9c1	0.057580713
11	0x3d4c79c4	0.049920812
12	0x3d7377f8	0.059440583
13	0x3d41b3d5	0.04729064
14	0x3d75e246	0.060030244
15	0xbd1eb981	-0.03875113
16	0xbd058019	-0.032592867
17	0xbd5d0a22	-0.05396474
18	0x3d79bd1a	0.060971357
19	0x3bd71c31	0.00656464
20	0x3ca96b09	0.020680921
21	0x3cc7bb9a	0.024381448
22	0x3cd85b2f	0.026410667
23	0x3b851ff0	0.004062645
24	0xbd572e7d	-0.05253457
25	0x3cd0c9b6	0.025486808
26	0x3d727ce1	0.059201125
27	0xbd564176	-0.052308522
28	0x3d652117	0.05593976
29	0xbca7abef	-0.020467727
30	0xbd40904e	-0.04701262
31	0xbc28140c	-0.010258686
32	0x3c189fd8	0.0093154535
33	0x3c3ca111	0.011513011
34	0x3c91fc3d	0.017820472
35	0xbd6ce551	-0.05783588
36	0x3d42d682	0.04756785
37	0x3d78f9f5	0.060785253
38	0x3d7cfe8f	0.061766203
39	0x3d20ee9c	0.039290056
40	0x3cce7cc3	0.025205975
41	0x3c9d99ca	0.019238371
42	0xbb7cd1d3	-0.0038577213
43	0x3bc8b687	0.0061252746
44	0xbc9d8278	-0.019227251
45	0xbd2ce1f9	-0.04220769
46	0xbd5eacf5	-0.054364163
47	0xbd0f455c	-0.034978256
48	0xbcb1c397	-0.02169971
49	0xbc5fc52b	-0.013657848
50	0x3d6946c6	0.05695226
51	0xbc346372	-0.011010038
52	0xbcbb4747	-0.022861136
53	0x3d11e5ce	0.03561955
54	0x3c9760fc	0.018478863
55	0x3c919057	0.017769022
56	0x3cb2d0e6	0.021828126
57	0x3bda1c2e	0.0066561913
58	0xbc4a986e	-0.012365444
59	0x3d5fa2a0	0.05459845
60	0x3d6c76ab	0.057730358
61	0xbc28302b	-0.01026539
62	0x3a36fa01	0.00069800025
63	0xbd7646ec	-0.06012623
64	0x3d3f9b3b	0.0467789
65	0xbd12d482	-0.035847194
66	0xbd1ef575	-0.038808305
67	0xbc4c361e	-0.012464074
68	0x3d3f49ab	0.046701115
69	0x3b71187f	0.0036788282
70	0xbca43ad8	-0.02004759
71	0x3cb5be2d	0.02218541
72	0x3d38c0e1	0.04510582
73	0x3d4bb837	0.049736228
74	0xbaeed687	-0.0018221893
75	0xbd2ce72e	-0.042212658
76	0xbb18f5c3	-0.0023339845
77	0x3d24a7aa	0.04019896
78	0xbd135f2a	-0.035979427
79	0x3d81bea7	0.06335192
80	0xbd7a6f88	-0.06114152
81	0xbc040bc5	-0.008059447
82	0x3d235f20	0.03988564
83	0xbd0a6f96	-0.033797823
84	0x3d0e938d	0.034808684
85	0xbbec2d23	-0.007207529
86	0xbc8671d7	-0.016411705
87	0x3c9b0ea0	0.018927872
88	0x3d34b71d	0.044119943
89	0xbcdbbbd2	-0.026822958
90	0xbbd66108	-0.0065423287
91	0xbd373495	-0.04472788
92	0xbcf85421	-0.030313553
93	0xbd05f9af	-0.03270882
94	0xbc450aba	-0.012026483
95	0xbd2cce6e	-0.042189054
96	0xbd1d1cc3	-0.038357507
97	0xbd17de04	-0.037076965
98	0x3d50b583	0.050954353
99	0x3cd20329	0.025636273
100	0x3bb4edc6	0.005521509
101	0x3cae32f9	0.02126454
102	0xbd242ce3	-0.04008187
103	0xbd14e3ce	-0.036350064
104	0xbd6af5c8	-0.0573633
105	0xbd7c8587	-0.06165078
106	0x3cb45a35	0.02201567
107	0x3d2369c3	0.039895784
108	0x3c9ea56d	0.01936599
109	0xbd57bb5a	-0.052668907
110	0x3c903ea1	0.017607989
111	0xbd6425b0	-0.055700004
112	0xbcc8fb26	-0.02453382
113	0xbd62057f	-0.055181023
114	0x3d782a87	0.060587432
115	0x3c9eb083	0.019371277
116	0x3c83c858	0.016086742
117	0x3bbf3944	0.005835684
118	0xbcc27332	-0.02373657
119	0x3d239290	0.039934695
120	0xbd48b2e0	-0.048998713
121	0xbd0e7bcd	-0.034786034
122	0x3d09d2fe	0.033648483
123	0xbd7a8ba7	-0.06116834
124	0xbd0cbec0	-0.0343616
125	0xbd675acc	-0.056483075
126	0xb929cf8d	-0.00016194415
127	0x3d41f194	0.047349527
128	0x3d17c4a8	0.03705278
129	0xbd4121e4	-0.04715146
130	0xbd74a4d3	-0.0597275
131	0xbc597966	-0.013273573
132	0xbd792937	-0.06083032
133	0xbd5c7620	-0.05382359
134	0x3d3821de	0.044954173
135	0x3c88d2ba	0.016702045
136	0xbd8210fc	-0.06350896
137	0xbac6a650	-0.0015155766
138	0x3cb31a1c	0.021863036
139	0x3c972b89	0.018453376
140	0x3d31271e	0.043250196
141	0xbcda78e9	-0.026668983
142	0xbd22f7b6	-0.039787017
143	0xbc97984c	-0.018505238
144	0xbb9beb9e	-0.0047583124
145	0xbc35273b	-0.011056717
146	0xbd0f1911	-0.034936015
147	0xbce51909	-0.02796604
148	0xbd4c1508	-0.049824744
149	0x3d4ca9b8	0.049966544
150	0xbd1f27aa	-0.038856186
151	0x3d67a766	0.056556128
152	0x3d4b1891	0.049583975
153	0xbd125e27	-0.035734322
154	0x380acf5d	3.3094886e-05
155	0xbd002c93	-0.03129251
156	0x3bdd57d3	0.006754854
157	0x3d2a2627	0.04154029
158	0xbb863593	-0.004095742
159	0x3d5a974b	0.05336694
160	0x3d788b47	0.0606797
161	0xbd1e60f7	-0.03866669
162	0xbd6cb040	-0.057785273
163	0xbd1865d8	-0.0372065
164	0x3d5691b1	0.052385036
165	0x3d00d311	0.03145129
166	0x3cf5479d	0.029941374
167	0x3c43b739	0.011945539
168	0xb826c044	-3.9756545e-05
169	0xbc8b4404	-0.017000206
170	0xbb862ad2	-0.00409446
171	0xbd008938	-0.031380862
172	0xbd497857	-0.04918703
173	0xbb78ab88	-0.0037944037
174	0xbc5d200f	-0.013496413
175	0x3d044d5b	0.032300334
176	0xbd4c65ba	-0.0499017
177	0x3d039a09	0.03212932
178	0xbcf77259	-0.030205892
179	0x3d7b44c5	0.06134488
180	0xbbd0a04c	-0.006366765
181	0xbca7d17c	-0.020485632
182	0xbbcb7306	-0.00620878
183	0x3c95838d	0.018251205
184	0x3d762950	0.060097992
185	0xbbdc3645	-0.0067203366
186	0x3cce64d8	0.02519457
187	0xbd6a9e5c	-0.05727993
188	0x3a32576b	0.00068031874
189	0x3d563051	0.052292172
190	0x3cb45712	0.022014175
191	0x3d2a17c5	0.041526575
192	0x3c5599a3	0.013037118
193	0x3d25a795	0.04044302
194	0xbd43b39e	-0.04777872
195	0xbb52e81e	-0.003218181
196	0xbd59c361	-0.053164843
197	0xbd19ba43	-0.03753115
198	0x3cd8d773	0.026469922
199	0x3d806d43	0.0627084
200	0xbd79c243	-0.060976278
201	0x3c4b6dbd	0.0124163
202	0x3cf637e3	0.030055946
203	0xbced41a4	-0.028961964
204	0x3ccf60a5	0.025314638
205	0xbd2fcd8a	-0.042920627
206	0x3c05a77e	0.008157609
207	0x3c902bd6	0.017599028
208	0xbc09a9e8	-0.008402325
209	0x3d1e9b64	0.03872241
210	0x3cc8e19f	0.024521647
211	0xbd4df94a	-0.05028657
212	0xbbaf0887	-0.0053415927
213	0xbd3ff524	-0.046864644
214	0x3d3096a6	0.04311242
215	0x3cfba357	0.030717535
216	0x3c3fb3d6	0.011700591
217	0x39d80fa5	0.00041210387
218	0xbccb2e5a	-0.024802376
219	0x3cffb05a	0.03121202
220	0x3d56fe60	0.052488685
221	0x3d260c79	0.04053924
222	0xbc5a7366	-0.013333177
223	0x3bfc8190	0.0077058747
224	0x3ce6212e	0.028091993
225	0xbbbe7da0	-0.0058133155
226	0xbc707bad	-0.014677924
227	0xbd7a0d92	-0.061048098
228	0x3d02d48f	0.031940993
229	0x3d868b28	0.06569511
230	0xbd816d39	-0.06319661
231	0xbd322fb8	-0.04350254
232	0x3cd7f385	0.026361236
233	0x3d59b030	0.05314654
234	0x3c817ea6	0.015807461
235	0x3d5fa48c	0.054600284
236	0xbd66f583	-0.056386482
237	0xbb19ceae	-0.0023469138
238	0xbc7b3a3d	-0.015333709
239	0xbc9e006c	-0.01928731
240	0x3bc4cde3	0.006005989
241	0xbd307a6c	-0.0430855
242	0x3d7b3d58	0.0613378
243	0xbd2e6f84	-0.04258682
244	0xbcccca1b	-0.024998715
245	0xbd4d5d7c	-0.05013798
246	0xbd6bf492	-0.057606287
247	0x3cc78b8c	0.024358533
248	0xbc812aad	-0.01576742
249	0xbca64cf3	-0.020300364
250	0x3c3dff3f	0.0115965
251	0xbcfe77f2	-0.031063054
252	0x3c29ba5f	0.010359376
253	0xbbd5f1f0	-0.0065290853
254	0x3d2e65ea	0.04257766
255	0xbcb74ba9	-0.022374945

hidden_layers.1.linear.weight f4 [256, 256]
0	0x3bbd6c23	0.005780713
1	0x3af8aa49	0.0018971647
2	0xbbc56df7	-0.0060250717
3	0x3b493bd9	0.0030705838
4	0x3a4c6ca4	0.0007798171
5	0xba837271	-0.0010028613
6	0x3ae33708	0.0017335126
7	0x3b8ef84e	0.0043630963
8	0xb9e6263a	-0.000438975
9	0x3bb98bbe	0.0056624105
10	0xbaada399	-0.0013247608
11	0xba9cd573	-0.0011965468
12	0xbbe5f3cc	-0.0070175882
13	0xbba07f1c	-0.004897965
14	0xbb519644	-0.0031980434
15	0xbbe8a456	-0.0070996685
16	0x3b43b920	0.0029864982
17	0x3a9ecfed	0.001211641
18	0x3a8b1167	0.0010610045
19	0x3b91a611	0.0044448455
20	0x3b8b7e65	0.0042570108
21	0xbc07e7a3	-0.008294973
22	0xbb732a03	-0.0037103898
23	0xbba1e348	-0.004940424
24	0xbb1f716d	-0.0024329082
25	0x3af7e9ce	0.0018914284
26	0x3c08950e	0.008336319
27	0xbbf50945	-0.0074779117
28	0xbc09149d	-0.008366731
29	0x3bd5b749	0.0065220934
30	0xbbd45a7d	-0.0064805136
31	0xb815f5de	-3.575335e-05
32	0xbba87ebc	-0.005142061
33	0xbb0918ae	-0.0020919251
34	0xbb0ee5d2	-0.0021804464
35	0x3b3b3ea3	0.002857127
36	0x3b9b4498	0.0047384016
37	0xba6c1938	-0.00090064434
38	0x3bb3e045	0.0054893815
39	0xb9ed4537	-0.00045255732
40	0xbb838e19	-0.004014742
41	0xbb1f5a6e	-0.0024315375
42	0xbaa401d1	-0.0012512748
43	0x3bb14e73	0.005410963
44	0x3b963806	0.0045843152
45	0xbb3485e1	-0.0027545618
46	0x3c225632	0.009908246
47	0xbb135d54	-0.0022486048
48	0xbb44d50c	-0.0030034212
49	0xbb3351af	-0.002736192
50	0x3bcbf0b9	0.0062237647
51	0x39da6f1c	0.00041662983
52	0x3b97631e	0.00461997
53	0xba35bfc6	-0.00069331785
54	0x3b07ed42	0.0020740782
55	0x3b2edcea	0.0026681968
56	0x3b6595dc	0.003503195
57	0x3acdf110	0.0015712101
58	0x3c085e94	0.00832333
59	0xbbcfa71a	-0.0063370587
60	0xbb57c407	-0.0032923238
61	0xbbf97680	-0.0076130033
62	0xbbc1fe77	-0.005920227
63	0x3b41f0d2	0.0029593003
64	0x3a5b75cf	0.0008371742
65	0xbb1d917d	-0.0024043017
66	0x3bc87f67	0.006118703
67	0xbb41681d	-0.002951152
68	0xb9e26ca1	-0.00043187014
69	0x3b198c09	0.0023429415
70	0xbb3520cc	-0.0027637957
71	0x39c29ac4	0.00037117873
72	0x3bdb5b2c	0.006694218
73	0xbb999750	-0.0046872273
74	0xbbe903ed	-0.0071110637
75	0xbb955667	-0.004557419
76	0x3c12643c	0.008935031
77	0x3b74e1c6	0.0037366017
78	0xbb32b7af	-0.0027270128
79	0x3b007b66	0.0019604801
80	0xb99c500f	-0.00029814287
81	0xba15bbc6	-0.00057118793
82	0x3b9b27e4	0.00473498
83	0x3bb657bb	0.0055646575
84	0x3bb48afb	0.005509732
85	0x3b6ca43e	0.0036108638
86	0xbb6084cc	-0.003425884
87	0xbb7fcb57	-0.0039031112
88	0x3b4a85e1	0.0030902552
89	0xbb62904d	-0.0034570873
90	0xb9558281	-0.0002036188
91	0xbbdbf879	-0.00671297
92	0x3b46d05a	0.003033659
93	0x3be09994	0.0068542454
94	0xbaa2dc44	-0.0012425263
95	0x3bc84a21	0.0061123525
96	0x3b17d7d3	0.0023169413
97	0xbaf64775	-0.0018789606
98	0xbc0f8bf0	-0.008761391
99	0xbb8e039a	-0.0043339254
100	0x3a950bd6	0.0011371325
101	0x3aee1458	0.0018164022
102	0xbaa8abe7	-0.0012868614
103	0xbb109a13	-0.0022064492
104	0x3b23c335	0.0024988179
105	0xbaa06326	-0.001223658
106	0xbb782b6a	-0.0037867674
107	0x3b57cf7a	0.0032930062
108	0x3991d542	0.00027815445
109	0x3979c21c	0.00023818802
110	0x39f85896	0.00047368248
111	0x39ff2706	0.00048666465
112	0xba803be1	-0.000978347
113	0xbac16963	-0.0014756139
114	0x3bf7593d	0.00754848
115	0x3b98b019	0.0046596644
116	0x3b30422c	0.002689491
117	0x3bcfe3fd	0.006344317
118	0x3ac47bc1	0.0014990495
119	0x3bd520ac	0.006504139
120	0xba47d647	-0.00076231774
121	0x3bd2fdaf	0.006438933
122	0x3b9c00e5	0.004760849
123	0xbbafa647	-0.005360398
124	0xba493b2f	-0.00076763605
125	0xbb9839e8	-0.004645575
126	0xba3555c1	-0.00069173804
127	0xbb6d3e7c	-0.0036200574
128	0x3adc7e81	0.0016822369
129	0x3bfc5ae8	0.0077012666
130	0x3b72539a	0.00369761
131	0x3bbc70d5	0.0057507553
132	0x3b6ace14	0.0035828399
133	0xbb748ad1	-0.0037314186
134	0xbbafd65b	-0.0053661293
135	0xba7e1189	-0.0009691944
136	0x3affc0f9	0.0019512466
137	0x3b7f30d8	0.0038939025
138	0x3a7c3309	0.0009620642
139	0x3b76aa6e	0.0037638205
140	0x39c93dde	0.00038383802
141	0x3bea419e	0.0071489355
142	0xba952ce9	-0.0011381182
143	0xba563dfa	-0.00081726874
144	0xbb093b2c	-0.002093981
145	0xb7b85147	-2.1972357e-05
146	0x3b44ad66	0.003001058
147	0x3b99322d	0.004675171
148	0x3976f0bb	0.00023550067
149	0x3bfc0d7c	0.007692037
150	0x3b4a3064	0.0030851597
151	0xbaab94c0	-0.0013090596
152	0xba1866eb	-0.0005813676
153	0x3aaa2b08	0.0012982795
154	0xbb660903	-0.0035100586
155	0x3bb62863	0.0055590137
156	0xbbed92ec	-0.0072501805
157	0x3bdcab1b	0.0067342645
158	0xbad9d9c2	-0.0016620683
159	0xbb7240c3	-0.003696487
160	0xbbc4c13a	-0.0060044797
161	0x3b36aabb	0.002787276
162	0x3ae59d3e	0.0017518175
163	0x3937c793	0.00017526587
164	0x3b99b345	0.00469056
165	0x3b69672a	0.003561447
166	0xbb49dc43	-0.0030801452
167	0xbba8bfd1	-0.0051498194
168	0xbb534d30	-0.0032242052
169	0x3c17e3f0	0.009270653
170	0xbb9c551d	-0.0047708885
171	0x3b66fd9c	0.0035246378
172	0xbb44df67	-0.0030040385
173	0x3ba77a66	0.0051110266
174	0xbb3fc063	-0.0029258959
175	0xbbf49eb0	-0.007465206
176	0x3a825612	0.0009943864
177	0xbb10beda	-0.0022086413
178	0x3be2823a	0.006912497
179	0xbbda785a	-0.006667179
180	0xbb04c070	-0.0020256303
181	0xbbd6280d	-0.006535536
182	0x3b804083	0.0039139404
183	0x3bbf4afa	0.0058377953
184	0x3bd25bf7	0.0064196545
185	0x38b3423f	8.5477244e-05
186	0x3b639415	0.0034725715
187	0xbb592e4d	-0.003313917
188	0xbb5d12f2	-0.0033733216
189	0xbb8cb818	-0.0042944066
190	0xbbb9f0bf	-0.005674451
191	0xbb681919	-0.003541535
192	0xbb7d8cdd	-0.0038688697
193	0x3b3ab214	0.002848749
194	0xbb3d1575	-0.00288519
195	0x3910451d	0.00013758657
196	0x3bf4c1dd	0.0074693994
197	0x3bc2f208	0.0059492625
198	0xbb13ef6b	-0.0022573124
199	0xbaa6ff55	-0.001274089
200	0xbb80074c	-0.00390712
201	0x3bec9caa	0.0072208242
202	0x3b88e24c	0.0041773673
203	0x3b842b1d	0.00403346
204	0x3bdc8cef	0.006730668
205	0x3b029683	0.0019926138
206	0xbb94b628	-0.0045383163
207	0xb7c4d02c	-2.3461958e-05
208	0xbb755d23	-0.0037439547
209	0xbb14929f	-0.00226704
210	0x3b9ff6be	0.004881709
211	0x3b179125	0.0023127284
212	0x3aa20954	0.0012362399
213	0xbb52d885	-0.0032172513
214	0xbabc9db2	-0.0014390259
215	0xbb6b5041	-0.003590599
216	0xbb6b0981	-0.003586382
217	0x3ba533c0	0.0050415695
218	0x3b898164	0.004196333
219	0xb84ef483	-4.9341947e-05
220	0x3b6afa9b	0.003585494
221	0x3b20710f	0.002448145
222	0xbb65822c	-0.0035020215
223	0x3b414234	0.0029488923
224	0xbae8a8d8	-0.0017750515
225	0x3b8264e3	0.003979312
226	0xbb7d3e6e	-0.0038641947
227	0x3beac0aa	0.0071640806
228	0x3a86304d	0.0010237783
229	0x3aca486f	0.0015432964
230	0x3bd63afc	0.006537793
231	0x39b6db50	0.00034877146
232	0xbb67cb5e	-0.003536902
233	0x3a91629f	0.0011092013
234	0x3bc83a26	0.0061104475
235	0x3b2ba782	0.0026192372
236	0xb878e9e4	-5.9345635e-05
237	0xbbee7b0f	-0.0072778533
238	0xbb78e29b	-0.0037976864
239	0x3a2da4c4	0.0006623978
240	0x3bab84c3	0.0052343323
241	0x3ba679f8	0.005080458
242	0xbb9b8a8a	-0.0047467398
243	0xb9ac5994	-0.00032873137
244	0x3b70795e	0.0036693434
245	0x3ba89779	0.00514501
246	0xbb8f1fd8	-0.0043678097
247	0xbb93b979	-0.004508194
248	0x3b1cdb92	0.0023934585
249	0x3ae8ef6f	0.0017771552
250	0xbb078bcb	-0.0020682688
251	0x3b7bbe4e	0.003841299
252	0x3b0f43d1	0.002186049
253	0x3bc2c859	0.0059442935
254	0xbc08c92d	-0.008348745
255	0xbb6a31b5	-0.0035735194

hidden_layers.1.linear.bias f4 [256]
0	0x3d7cef7d	0.06175183
1	0x3d28ab1f	0.04117882
2	0x3d66c53e	0.05634045
3	0x3d056043	0.032562505
4	0xbca9ae53	-0.020713007
5	0x3d461ca0	0.048367143
6	0xbd451e81	-0.048124794
7	0x3d2794ab	0.040913265
8	0x3d69d938	0.05709192
9	0xbcb68bba	-0.022283424
10	0xbd187883	-0.037224304
11	0x3a1393c1	0.0005629622
12	0xbd6d9eca	-0.05801276
13	0xbc8dea96	-0.017323773
14	0xb9ffd633	-0.0004879698
15	0xbd775280	-0.060381413
16	0x3bb1c79a	0.0054254057
17	0x3d638680	0.05554819
18	0x3b80d487	0.0039315852
19	0x3d30d11b	0.04316817
20	0x3d80d61e	0.062908396
21	0xbadecd04	-0.0016998355
22	0xbd0538c0	-0.032524824
23	0xbce5cc0c	-0.028051399
24	0xbd2c029b	-0.041994672
25	0xbd3504b6	-0.044193946
26	0x3d3e6305	0.04648115
27	0xbd154875	-0.036446054
28	0x3d038a18	0.03211412
29	0xbcb4b0bd	-0.022056932
30	0xbd50c6a1	-0.050970677
31	0xbbe1c1cf	-0.006889559
32	0x3d27521e	0.040849797
33	0x3d131f93	0.035918783
34	0xbc740a15	-0.014894982
35	0xbd238fdc	-0.039932117
36	0x3d3a2ef1	0.045454923
37	0x3d2692ed	0.040667463
38	0xbbdb15fe	-0.0066859713
39	0xbce158b8	-0.027508125
40	0x3caf189f	0.021374045
41	0x3d50cd2d	0.05097692
42	0x3cfadc1d	0.030622536
43	0x3a979aaa	0.0011566479
44	0xbb35dd91	-0.0027750472
45	0xbc182ce7	-0.009288049
46	0xbc62da9c	-0.013846066
47	0x3d0fad9c	0.035077676
48	0x3d2d05fd	0.04224204
49	0x3d1846db	0.037176948
50	0xbd70210b	-0.058625262
51	0x3c45d60c	0.0120749585
52	0xbd4e6304	-0.050387397
53	0x3d386fcf	0.045028504
54	0x3cb34b36	0.02188645
55	0x3d6bd7b4	0.057578757
56	0x3cd75cbf	0.026289342
57	0x3d723283	0.059130203
58	0x3d119029	0.035537872
59	0xbd7ecec2	-0.0622089
60	0xbd740a51	-0.05958015
61	0x3d3d31a1	0.046189908
62	0xbc62caa3	-0.013842258
63	0xbd5abce6	-0.053402804
64	0xbd41b216	-0.047288977
65	0x3d532d62	0.051556952
66	0xbb9a4ca0	-0.0047088414
67	0xbd2a91a6	-0.041642807
68	0xbd67c80c	-0.056587264
69	0xbd7647c0	-0.06012702
70	0xbd179bca	-0.037013806
71	0xbc23553a	-0.00996905
72	0x3d22968f	0.039694365
73	0xbcb313f7	-0.021860106
74	0xbcbbcf58	-0.022926018
75	0x3c9cc0cb	0.0191349
76	0xbc344503	-0.011002782
77	0xbc97bbe1	-0.018522205
78	0x3d04e0d1	0.032440964
79	0xbc9e2df3	-0.01930902
80	0xbc7df701	-0.015500785
81	0x3d1f444b	0.03888349
82	0x3d2677d5	0.040641624
83	0xbc4dfe53	-0.012572843
84	0xbd09763c	-0.033560023
85	0x3bb9b0ce	0.0056668287
86	0xbd75a6d7	-0.059973564
87	0xbd4fa537	-0.05069467
88	0xbb913271	-0.004431062
89	0x3d295c0c	0.04134755
90	0xbb87e492	-0.0041471208
91	0x3c8d0483	0.017214065
92	0x3ce59359	0.028024362
93	0xbc1c9ad2	-0.009558396
94	0x3c3b78c9	0.011442372
95	0x3bde2c6f	0.0067801992
96	0xbd63d66d	-0.055624414
97	0x3b753edf	0.0037421507
98	0x3d04389b	0.032280546
99	0xbc7dc4c1	-0.015488804
100	0x3b551d6a	0.0032518753
101	0x3c30902b	0.01077656
102	0x3bfe400c	0.0077591
103	0x3d75b09e	0.05998289
104	0xbd2037a5	-0.039115567
105	0x3d2b7d65	0.041867632
106	0x3cff7960	0.031185806
107	0xb9d881f3	-0.0004129555
108	0xbbc8927b	-0.0061209775
109	0x3d43cbb6	0.047801696
110	0xbd4d2072	-0.05007977
111	0xbd4db990	-0.050225794
112	0x3d60122a	0.054704823
113	0x3cf3395b	0.029690435
114	0xbd7abbbf	-0.061214205
115	0xbcc830ef	-0.024437396
116	0xbd1ad090	-0.037796557
117	0x3d3dff9c	0.046386346
118	0x3b90f59c	0.00442381
119	0x3d1f5812	0.03890235
120	0x3d4099f6	0.04702183
121	0xbd67b7f2	-0.05657191
122	0xbc10c5bb	-0.008836205
123	0x3d64a573	0.055821847
124	0x3d23fd4d	0.04003649
125	0xbb70162a	-0.0036634305
126	0xbc869764	-0.01642961
127	0xbbde59d7	-0.006785612
128	0x39a9f795	0.00032418655
129	0xbc9e9a88	-0.019360796
130	0x3d254506	0.04034903
131	0x3d4dfeec	0.05029194
132	0xbb9e0ce0	-0.004823312
133	0x3d674824	0.056465283
134	0xbd688b96	-0.056773745
135	0x3cdee6c2	0.027209643
136	0x3d358e5e	0.044325225
137	0x3bc87bd2	0.006118276
138	0x3b484494	0.0030558454
139	0xbd0c7443	-0.034290563
140	0xbc8c103f	-0.01709759
141	0x3c137888	0.009000905
142	0xbd6508ad	-0.055916477
143	0xbd3d4af7	-0.04621407
144	0xbcbecf86	-0.023292314
145	0x3d5e2a25	0.05423941
146	0x3cb45f3d	0.02201807
147	0x3d009d27	0.031399872
148	0xbd0c59c7	-0.034265306
149	0xbd3f1125	-0.04664721
150	0x3d563253	0.052294087
151	0xbce3d8fb	-0.027813425
152	0xbce3fac9	-0.027829545
153	0x3c1bba7e	0.009504912
154	0xbd005244	-0.031328455
155	0x3d0d9052	0.034561463
156	0xbbdf814a	-0.0068208324
157	0x3d6445ed	0.05573075
158	0x3d1c7989	0.038201842
159	0x3d3d2b09	0.04618362
160	0xbd00a6a5	-0.031408925
161	0x3c50ea20	0.012751132
162	0xbd66448d	-0.05621772
163	0xbb81036f	-0.003937177
164	0xbd03bd7b	-0.032163125
165	0x3d801a9a	0.06255074
166	0xbd542780	-0.051795483
167	0xbd474313	-0.04864795
168	0x3c494bcc	0.012286138
169	0x3d64f299	0.05589542
170	0x3d1c1397	0.03810462
171	0x3d72a861	0.05924261
172	0x3b658fe9	0.0035028404
173	0xbd35eede	-0.044417255
174	0x3d1e272d	0.03861158
175	0xbcf689db	-0.030095031
176	0xbcb962bc	-0.022630088
177	0xbd8068b9	-0.06269974
178	0x3b224507	0.0024760382
179	0xbcd8792d	-0.026424969
180	0xbd03c830	-0.032173336
181	0x3ca4eae1	0.02013153
182	0xbc40f07e	-0.011776088
183	0xbce6b1bb	-0.02816092
184	0xbd0be1d9	-0.034150932
185	0xbd5ac541	-0.053410772
186	0xbbc7b616	-0.0060947044
187	0xbca5e950	-0.020252854
188	0x3ce11a4e	0.027478363
189	0xbd6d1e56	-0.05789026
190	0xbc2e9787	-0.010656244
191	0x3d4e64f9	0.050389264
192	0xbcb9cd2e	-0.022680845
193	0x3c6d98f1	0.014501796
194	0x3d3aaed7	0.045576897
195	0x3cc124cb	0.023577115
196	0xbd209848	-0.039207727
197	0xb9cf7044	-0.0003956576
198	0xbd372380	-0.04471159
199	0xbc8736dd	-0.016505653
200	0xbcaab20b	-0.02083685
201	0xbc9f7d76	-0.019469004
202	0x3d588fc8	0.052871495
203	0x3d3fde3c	0.0468428
204	0x3c9cf447	0.01915945
205	0xbd036bc9	-0.032085214
206	0x39cb477e	0.00038772443
207	0xbd09e41f	-0.03366482
208	0x3d038608	0.032110244
209	0xbc5a3e2c	-0.013320487
210	0x3d56602b	0.052337807
211	0x3ce1d700	0.02756834
212	0x3d19abd0	0.03751737
213	0x3c88b300	0.016686916
214	0x3ce6d952	0.028179798
215	0x3d6d2972	0.057900853
216	0xbca889ac	-0.02057346
217	0xbc4d2c22	-0.012522729
218	0x3d4890aa	0.048966087
219	0xbd2807c8	-0.041023046
220	0x3d344d0c	0.04401879
221	0xbd09437a	-0.033511616
222	0x3d23c0e3	0.039978873
223	0x3b9bdd48	0.0047566034
224	0xbc4bd466	-0.012440776
225	0xbd7ad5e4	-0.06123914
226	0x3c91796f	0.0177581
227	0x3d0fb79c	0.035087213
228	0x3ba30a66	0.004975605
229	0xbcd3c82b	-0.025852283
230	0xbd822a89	-0.06355769
231	0xbc9f04e9	-0.019411521
232	0x3d2ea512	0.042637892
233	0x3d74ce82	0.059767254
234	0x3d271621	0.04079259
235	0x3d1a8268	0.03772202
236	0x3c89da30	0.016827673
237	0x3c23ce28	0.009997882
238	0x3d2a9ab3	0.04165144
239	0xbcc30a8d	-0.023808742
240	0x3bde67df	0.0067872847
241	0xbd6aaa92	-0.057291575
242	0xbd5d9aac	-0.054102585
243	0xbd2f07af	-0.042731937
244	0x3cf3a07d	0.029739613
245	0x3d4c5337	0.049884047
246	0x3cd8c76b	0.026462277
247	0x3d38571b	0.045004945
248	0x3be6e0a6	0.007045823
249	0xbd62a724	-0.05533518
250	0xbca56df6	-0.020194035
251	0x3c560655	0.013063033
252	0x39c41cda	0.0003740553
253	0xbaaf7501	-0.001338631
254	0xbd66bb10	-0.05633074
255	0xbd4a1adf	-0.049342033

hidden_layers.2.linear.weight f4 [256, 256]
0	0xbbf1603b	-0.007366208
1	0xbba8a59e	-0.005146696
2	0xbbae0de3	-0.005311714
3	0xbb5a4339	-0.0033304228
4	0x3bccd18c	0.006250566
5	0xbc49cc15	-0.012316723
6	0x3b463057	0.0030241215
7	0xba3d6a58	-0.0007225624
8	0x3b3ad579	0.0028508587
9	0xbb43a18a	-0.0029850923
10	0x3bfbb1e6	0.0076811193
11	0x3bd28300	0.006424308
12	0xbba6c584	-0.0050894637
13	0x3bc68615	0.0060584643
14	0xbaa7ff3e	-0.0012817157
15	0x3b349b3c	0.0027558347
16	0xbb98c92a	-0.0046626525
17	0xbb044bec	-0.0020186855
18	0xbbf5007f	-0.007476866
19	0xbbee12ec	-0.0072654393
20	0xbab59a9a	-0.0013855279
21	0xbbc56b23	-0.0060247346
22	0xbbe6175e	-0.0070218286
23	0xbacb1383	-0.0015493486
24	0xbae09889	-0.0017135303
25	0x3b9a5d3d	0.004710822
26	0x3b338438	0.002739204
27	0x3bb1af9f	0.005422547
28	0x3b7389f7	0.003716109
29	0x3c119fbd	0.008888182
30	0x3a6adc8b	0.0008959255
31	0x3a52157b	0.0008014065
32	0x3b7e9db8	0.0038851332
33	0x3bbfcddd	0.0058533982
34	0x3be54fb3	0.0069980263
35	0xbb1488ed	-0.0022664622
36	0x3a72155d	0.0009234751
37	0xba9a981f	-0.0011794603
38	0xbc30f7b6	-0.010801246
39	0xbbea9abc	-0.007159559
40	0xba09c809	-0.0005255943
41	0xbb08149a	-0.0020764233
42	0xba0458c7	-0.0005048629
43	0xbb1b44fc	-0.002369224
44	0xbba96127	-0.005169052
45	0xbba6c4ce	-0.005089379
46	0xba7ca07e	-0.00096369523
47	0x3bed15e4	0.0072352756
48	0xbbe1e10c	-0.0068932828
49	0x3bb03637	0.0053775567
50	0xbb3a6b59	-0.0028445332
51	0x3b7b6672	0.0038360623
52	0xbbbac5ac	-0.005699834
53	0xbb92cd0f	-0.0044800113
54	0xbba0551b	-0.004892958
55	0xbb5f6711	-0.0034088532
56	0xbb580bf1	-0.0032966102
57	0x3b5ca3ca	0.0033666962
58	0xba9fc72d	-0.0012190096
59	0x3c2b123a	0.010441357
60	0xbb674a27	-0.0035292
61	0x3ab4bd08	0.0013789246
62	0x3a4a672c	0.0007721062
63	0xbb5816df	-0.0032972617
64	0x3b5b75fa	0.0033487068
65	0xbb3db6ed	-0.0028948144
66	0x3b5714d2	0.0032818806
67	0x39a085a7	0.00030617157
68	0x3aaa96f3	0.0013014957
69	0x3b91cda5	0.0044495636
70	0x3b6f6400	0.003652811
71	0xbbd4e5ad	-0.006497106
72	0xbbe63b6f	-0.007026128
73	0x3a1dd71b	0.0006021128
74	0x3b358cf3	0.002770242
75	0xbb425130	-0.0029650442
76	0x38965798	7.168873e-05
77	0x3bb78af7	0.0056012827
78	0x3b4f7d0e	0.0031660232
79	0x3b5b080f	0.0033421551
80	0xbb44c051	-0.0030021856
81	0xbaa19c93	-0.0012329988
82	0x39e4e200	0.00043655932
83	0xba226e8e	-0.00061962835
84	0x3b8f1bd1	0.0043673296
85	0x3a8a71a5	0.0010562433
86	0xb96a4e42	-0.00022345132
87	0xbb67f335	-0.0035392765
88	0xbbd4f20e	-0.0064985817
89	0x3b4f828f	0.0031663512
90	0x3ba60d0c	0.0050674733
91	0x3c054608	0.0081343725
92	0xbab9d7ce	-0.0014178695
93	0x3bea3073	0.007146889
94	0x3b9e2da3	0.0048272177
95	0xba48e6c5	-0.0007663782
96	0x3a8a340b	0.0010544074
97	0xbb8dcdfd	-0.004327534
98	0xbaf72740	-0.0018856302
99	0x38b22b70	8.495792e-05
100	0x3be84788	0.0070886053
101	0xb98d1ce4	-0.0002691514
102	0xbb0c285d	-0.0021386363
103	0x3a863884	0.0010240232
104	0x3b3b412c	0.002857278
105	0x3c069ae7	0.0082156425
106	0xbb99c69e	-0.0046928665
107	0x3b529fe6	0.0032138764
108	0xbc34c44a	-0.011033127
109	0xbb91c772	-0.0044488246
110	0xbbdef180	-0.0068036914
111	0x3a44aa03	0.00075021404
112	0x3bdd54b7	0.0067544836
113	0x3b86980e	0.004107482
114	0xb91d8bd9	-0.00015024784
115	0x3acbeb5d	0.0015557815
116	0xb95a5c93	-0.00020824587
117	0xbb9b82bb	-0.004745809
118	0x3bc9a72b	0.006153961
119	0xbadd5913	-0.0016887508
120	0x3ad3affa	0.0016150468
121	0xba0a44e7	-0.00052745495
122	0xbc0fd272	-0.008778201
123	0x3b6eeb51	0.0036456177
124	0xbad5994a	-0.0016296294
125	0xbb68d7ed	-0.0035529092
126	0xb9d09dc7	-0.00039790405
127	0xbc14108e	-0.00903715
128	0xbb86c1f1	-0.004112475
129	0xbb4ce886	-0.0031266524
130	0xbab19484	-0.001354829
131	0xbb94149b	-0.004519058
132	0x3bf40c25	0.007447737
133	0x3c07bc30	0.0082846135
134	0xbbd31192	-0.0064413035
135	0x3aee2495	0.0018168861
136	0xbc058afb	-0.008150811
137	0x3b9e0448	0.0048222877
138	0x3c12ceb1	0.008960412
139	0xbc07f88b	-0.008299003
140	0xbb928917	-0.004471909
141	0xba28c2e8	-0.00064377347
142	0xbb13acc9	-0.0022533408
143	0xbb41e3f0	-0.0029585324
144	0xba94129c	-0.001129705
145	0xbadeb60c	-0.001699151
146	0xbbe78038	-0.0070648454
147	0x3b01a747	0.0019783543
148	0x3a49ea3f	0.0007702447
149	0xbb694fc4	-0.0035600523
150	0x3c114d1c	0.008868482
151	0x3bb06bdc	0.0053839516
152	0x3b44ec0d	0.0030047924
153	0xba503cea	-0.0007943647
154	0x3bc4908e	0.0059986776
155	0x3b0e29bd	0.0021692358
156	0x3c0a276e	0.008432252
157	0x3bb8529b	0.0056250817
158	0x3acce20b	0.0015631331
159	0xbb848ab9	-0.0040448573
160	0xbb502610	-0.0031760968
161	0xbb7da6e6	-0.0038704216
162	0x3950d578	0.00019915949
163	0x3baa3a26	0.00519492
164	0x3af3fad2	0.0018614179
165	0xbb7d4db2	-0.0038651046
166	0xb9fbfc3f	-0.0004806239
167	0xba920560	-0.0011140518
168	0x3bf03e61	0.007331655
169	0xba277d0d	-0.00063891785
170	0x3aa95956	0.0012920301
171	0x3b80504f	0.0039158235
172	0x3a0f4da1	0.00054665847
173	0x3a95758d	0.0011402831
174	0x3bb73d7e	0.0055920472
175	0x3b5515ce	0.0032514217
176	0xbac54f05	-0.0015053457
177	0xbb563ca0	-0.0032689944
178	0x3b6b948c	0.0035946695
179	0xbaf3659f	-0.0018569714
180	0xb73b4e9f	-1.1164374e-05
181	0xbbd5bf6b	-0.006523063
182	0x3b8d0a30	0.004304193
183	0x3991f8e6	0.00027842
184	0xb9f200f7	-0.00046158556
185	0xbb8d2c62	-0.0043082694
186	0xbaaa2c68	-0.0012983205
187	0x398f01ce	0.0002727643
188	0x3ab0a6d6	0.0013477455
189	0xbb89bef9	-0.004203674
190	0xbaf0680c	-0.0018341555
191	0xbbe3aabf	-0.0069478448
192	0x3b358473	0.0027697354
193	0x3b787df1	0.0037916864
194	0x3bba3740	0.005682856
195	0x38df471a	0.00010646712
196	0xbbbd26dc	-0.0057724547
197	0x3ada25c9	0.0016643341
198	0xbb0c59ae	-0.0021415758
199	0x3a983d6e	0.0011614987
200	0xbb78eee1	-0.003798418
201	0x3bdd295b	0.0067493147
202	0xbad96921	-0.0016587117
203	0x3b6ab972	0.00358161
204	0xbb0b49b1	-0.002125364
205	0x3b8af077	0.0042400914
206	0xbb0fee1a	-0.0021961988
207	0xba90c0b3	-0.0011043757
208	0xba5cbdc4	-0.0008420611
209	0xbbca2d13	-0.006169924
210	0xb9f63fea	-0.00046968396
211	0x3b0a45ca	0.0021098726
212	0x3608cbec	2.0384277e-06
213	0x3c116c6a	0.008875946
214	0xbb49d37a	-0.0030796216
215	0xbb63849f	-0.00347165
216	0xba943a7e	-0.0011308936
217	0x3b81cc36	0.0039611114
218	0xbbee60d1	-0.007274725
219	0xbb3cb54f	-0.0028794592
220	0x3acb6e9e	0.0015520637
221	0x3af589ad	0.0018733047
222	0x3a3836b8	0.00070271967
223	0x3b6e52e4	0.0036365325
224	0x3bfdccc6	0.007745358
225	0xbabf072c	-0.0014574281
226	0xb8ed8dda	-0.000113274626
227	0x3ae19ec2	0.0017213451
228	0xbc312012	-0.010810869
229	0xbc01000f	-0.007873549
230	0x3bbe378a	0.0058049606
231	0xbbc990d4	-0.006151298
232	0xbb64f171	-0.003493395
233	0x3a20628d	0.0006118201
234	0xba759651	-0.0009368407
235	0xba9d7dd5	-0.001201565
236	0xbbc25435	-0.0059304484
237	0xbbe027f4	-0.0068407003
238	0xbbd84172	-0.0065995986
239	0x3ba5679f	0.005047753
240	0x3c0c4513	0.00856139
241	0xba7eca88	-0.00097195106
242	0x3bfc271e	0.007695093
243	0x3bbc3a7b	0.005744276
244	0x3a2ded1a	0.0006634757
245	0xbb542ffa	-0.003237723
246	0xbbd505f8	-0.0065009557
247	0xbbfea4f8	-0.0077711307
248	0xbb092eab	-0.0020932357
249	0xbc19ca57	-0.0093866205
250	0x3ae315be	0.0017325205
251	0x3ada6dce	0.0016664804
252	0x3942e255	0.00018585597
253	0xba54a17a	-0.000811122
254	0x3ba8a43f	0.005146533
255	0xb9b5308f	-0.0003455919
