My-Siren/result/image_fit/relu/model_final.pth (torch, 796935 bytes, 9 tensors)

first_layer.linear.weight f4 [256, 2]
0	0x3f448726	0.7676872
1	0x3e1b4ad3	0.15165262
2	0xbdfed5c5	-0.12443117
3	0xbf459c57	-0.7719168
4	0x3f3354a7	0.70051044
5	0xbf5bf582	-0.8592149
6	0xbf0dd5bf	-0.55404276
7	0xbeed499a	-0.46345216
8	0xbdc9f487	-0.09861093
9	0x3eef33c4	0.46719182
10	0x3e2418e0	0.16025114
11	0x3ececad6	0.40389127
12	0xbef5b6f7	-0.47991154
13	0xbe8752b9	-0.264303
14	0x3f8717fb	1.0554193
15	0x3f07cc95	0.5304654
16	0xbfb4e9e8	-1.4133883
17	0xbf1a8982	-0.6036607
18	0x3ef09565	0.4698898
19	0x3e22942f	0.1587684
20	0xbea57f90	-0.32323885
21	0x3f5e9d49	0.8695875
22	0xbcd56ce8	-0.026052907
23	0xbdd2d04d	-0.102936365
24	0x3f77cd0b	0.96797246
25	0x3e9390ed	0.28821507
26	0x3db84b73	0.08998766
27	0x3f45a4b6	0.77204454
28	0x3f23ab22	0.63933
29	0x3eae053c	0.3398837
30	0x3f870868	1.054944
31	0x3e1d7b09	0.15378965
32	0xbfd5c7ad	-1.6701561
33	0x3ed3f805	0.4140016
34	0x3fd218e1	1.6413842
35	0xbf51b416	-0.81915414
36	0xbebc109e	-0.36731428
37	0x3eea7786	0.45794314
38	0x3ed1610c	0.40894353
39	0x3f3208fe	0.6954497
40	0xbf327108	-0.6970372
41	0xbf33797b	-0.7010724
42	0x3eb83a93	0.3598219
43	0x3fc81209	1.5630504
44	0x3f700b02	0.93766797
45	0xbe8edf9d	-0.27904978
46	0xbf26a4ac	-0.6509502
47	0xbe98b124	-0.29822648
48	0x3f2d4ebe	0.67698276
49	0x3efb46c3	0.49077424
50	0x3ec49885	0.38397613
51	0xbf29a4fb	-0.66267365
52	0xbf8a4d38	-1.0804815
53	0x3f29ee58	0.6637931
54	0xbebb46fd	-0.36577597
55	0x3dde0cf0	0.108423114
56	0xbe9e10db	-0.30872235
57	0xbfa96808	-1.3234873
58	0x3f61d022	0.8820821
59	0x3deb25bd	0.114818074
60	0x3e87a9e1	0.26496795
61	0xbe3deb87	-0.18546878
62	0xbef063a9	-0.46951035
63	0xbe2507d7	-0.16116272
64	0x3f2f72cb	0.68534535
65	0xbf5a733d	-0.8533209
66	0x400a6190	2.1622047
67	0xbee2cc91	-0.44296697
68	0xbf82d8f2	-1.0222456
69	0x3f408017	0.7519545
70	0xbf1f1035	-0.62134105
71	0x3e2fc34f	0.17164348
72	0xbf9e7887	-1.2380532
73	0xbf2982f1	-0.66215426
74	0xbf136639	-0.57577854
75	0xbdd2a3bd	-0.10285137
76	0x3f16e4e3	0.58943003
77	0xbf14e193	-0.581567
78	0xbf1e90ef	-0.619399
79	0x3f78576d	0.970084
80	0x3e2869c1	0.16446592
81	0xbe03ce0e	-0.12871572
82	0xbf910a76	-1.1331317
83	0x3e57eeb4	0.21087152
84	0x3fa5e087	1.2959145
85	0xbfe12143	-1.7588276
86	0xbeb5b90c	-0.35492742
87	0x3e20662c	0.15663975
88	0xbf330ef2	-0.6994468
89	0xbfd8af63	-1.6928524
90	0x3e8f293d	0.2796115
91	0x3fb62b33	1.4231933
92	0xbd86025a	-0.06543417
93	0xbf10e1ba	-0.5659443
94	0xbeda141a	-0.4259346
95	0xbfda907c	-1.7075343
96	0x3eff2306	0.49831408
97	0xbece4986	-0.4029047
98	0xbf7139d5	-0.9422887
99	0xbdb23454	-0.08701387
100	0x4006d71b	2.106879
101	0xbf3e44d1	-0.74323756
102	0xbf0a6037	-0.5405306
103	0x3f75dcae	0.96039855
104	0x3eddff6c	0.43358934
105	0xbf2c77bb	-0.67370194
106	0x3f2ee217	0.68313736
107	0x3e8f1f27	0.27953455
108	0xbf12a323	-0.57280177
109	0x3f3756f1	0.7161704
110	0xbf7f27e9	-0.99670273
111	0x3efbc1dc	0.4917134
112	0x3f82b356	1.0210979
113	0xbf685f91	-0.9077082
114	0x3f81e5f8	1.0148306
115	0xbecd515b	-0.40101132
116	0xbf801130	-1.0005245
117	0x3faca6bd	1.3488384
118	0xbe2279da	-0.15866795
119	0xbfa53bbb	-1.2908853
120	0xbc5a762f	-0.013333841
121	0x3f456e3b	0.77121323
122	0x3e9d9225	0.30775562
123	0x3faa72fc	1.331634
124	0xbf953907	-1.1658028
125	0xbe651e48	-0.22374833
126	0xbe1ea966	-0.15494308
127	0x3fe1c3d1	1.7637883
128	0xbec89f29	-0.3918393
129	0xbe2cc86d	-0.16873331
130	0x3eadfd79	0.33982447
131	0x3fafed0d	1.3744217
132	0xbe85c81e	-0.2612924
133	0x3bd68edd	0.0065477923
134	0x3ebb5714	0.36589873
135	0x3f6717d3	0.9027073
136	0x3f2ae509	0.6675573
137	0xbfb13bdd	-1.3846394
138	0x3e2e46b8	0.17019165
139	0xbfec5071	-1.8462049
140	0x3f61450a	0.8799597
141	0xbf1042d9	-0.56352
142	0x3ee8c58a	0.4546321
143	0x3ee2e551	0.4431558
144	0x3ef07fe3	0.4697257
145	0xbee1e52d	-0.4412016
146	0xbfe1b5f5	-1.7633654
147	0x3f20ac80	0.62763214
148	0xbd73509b	-0.059403043
149	0xbfbc9ec3	-1.473595
150	0xbe32bd23	-0.17454962
151	0x3f0e6a98	0.556314
152	0x3e9cf6fb	0.3065718
153	0x3e83dcf8	0.25754523
154	0x3f0d8b43	0.5529062
155	0xbf5f5df7	-0.87252754
156	0xbf3edec1	-0.74558645
157	0x3fb5c541	1.4200822
158	0x3fb26e2d	1.3939873
159	0xbf4d6a75	-0.80240566
160	0x3f1c23ef	0.6099233
161	0xbf348bcd	-0.7052582
162	0xbea275ab	-0.317304
163	0xbfc323b6	-1.5245273
164	0x3eb1fb9f	0.34762284
165	0x3f90f91c	1.1326022
166	0xbd0d7d1b	-0.034543138
167	0xbf0aa52e	-0.54158294
168	0xbf89a754	-1.075419
169	0x3faa3b43	1.3299335
170	0xbebcd075	-0.3687779
171	0x3d0714f8	0.03297898
172	0x3f98f0c3	1.1948475
173	0x3fb8926e	1.4419687
174	0x3e9c5345	0.3053228
175	0xbfe5a09c	-1.7939639
176	0xbf7aebb0	-0.9801588
177	0xbe84fbdf	-0.25973412
178	0x3f8099f9	1.0046989
179	0x3f10c2dc	0.5654733
180	0xbf81e762	-1.0148737
181	0x3fe15fa5	1.7607313
182	0x3f9888ec	1.1916785
183	0x3fdde054	1.7334085
184	0x3e97f650	0.2968011
185	0xbfc42211	-1.5322896
186	0xbef72a11	-0.48274282
187	0x4038aeda	2.885672
188	0xbf2a9302	-0.66630566
189	0x3f39120d	0.7229317
190	0x3d0fb9bb	0.035089236
191	0xbf44a726	-0.7681755
192	0xbefc6c20	-0.49301243
193	0xbd95cb3d	-0.07314155
194	0x3f85cb9a	1.0452759
195	0xbe69798f	-0.22800277
196	0xc006577e	-2.09909
197	0x3ec50c48	0.38485932
198	0x3ebaf7f0	0.36517286
199	0xbf927f04	-1.1445012
200	0xbf6927e3	-0.9107649
201	0xc04ecbcb	-3.2311885
202	0x3f508073	0.81446
203	0x3f75baa8	0.9598794
204	0xbf1e7421	-0.6189595
205	0x3fb3f9fb	1.4060663
206	0x3f526af5	0.82194453
207	0xbe7fe7d0	-0.24990773
208	0x3faf6845	1.3703696
209	0xbf13967e	-0.5765151
210	0x3fb22157	1.3916425
211	0x3f212c9b	0.6295869
212	0x3fd70650	1.6798801
213	0xbf115e30	-0.56784344
214	0xbe1c8122	-0.15283635
215	0xbf87013a	-1.0547249
216	0x3f87caa1	1.0608712
217	0xbf037336	-0.5134767
218	0xbef359d3	-0.47529468
219	0xbe19fe3e	-0.15038392
220	0xbef5d108	-0.4801104
221	0xbef78bc5	-0.48348823
222	0x3fb22afd	1.3919369
223	0x3fd8ae21	1.692814
224	0x3e68a6d3	0.22719888
225	0xbf1624e6	-0.5865005
226	0x3f00cd37	0.50313133
227	0xbfda3f5a	-1.7050583
228	0x3f25c71e	0.64756954
229	0xbfa40105	-1.2812811
230	0xbfa66ce8	-1.3001986
231	0x3fe37f25	1.7773176
232	0x3edd44dd	0.432166
233	0x3d9a326a	0.07529147
234	0xbf248b2c	-0.6427486
235	0xbf0a1e38	-0.5395236
236	0x3f58cbcd	0.84685975
237	0x3e8cc73e	0.2749576
238	0xbe5ba441	-0.21449377
239	0xbf8d37f5	-1.1032702
240	0xbe643ce6	-0.22288856
241	0x3f7e5c53	0.99359626
242	0x3f926d85	1.1439673
243	0x3f428b5b	0.7599389
244	0xbe3f5b21	-0.18687107
245	0xbf8a4e29	-1.0805103
246	0xbf7ec797	-0.995233
247	0x3d206c65	0.039165873
248	0x3f941fe2	1.157223
249	0x3eebca9a	0.4605301
250	0xbfcbc9f7	-1.592101
251	0x3ed02e64	0.40660393
252	0x3eb9b627	0.36271784
253	0xbfad5b9c	-1.3543582
254	0x3e878670	0.26469755
255	0xbf88c656	-1.0685527

first_layer.linear.bias f4 [256]
0	0xbe421d3e	-0.18956468
1	0xbdd5c76a	-0.10438426
2	0xbf0c5966	-0.5482391
3	0x3eead9fa	0.45869428
4	0x3ea908e3	0.33014593
5	0x3d774a98	0.060373873
6	0xbc621cde	-0.013800828
7	0xbe3d514c	-0.18488044
8	0x3d075e80	0.033049107
9	0xbd76f1c5	-0.060289163
10	0xbe2fe74d	-0.17178078
11	0x3da5d635	0.080974974
12	0xbeb92119	-0.36158064
13	0xbefc1954	-0.49238074
14	0xbf3f9f78	-0.74852705
15	0x3efcc3c5	0.4936811
16	0xbdb7c80a	-0.08973701
17	0xbe8d0845	-0.27545372
18	0xbedc51c7	-0.4303114
19	0xbe6e2899	-0.23257674
20	0x3f292ec4	0.66086984
21	0xbe018f1d	-0.1265225
22	0xbe07ec2a	-0.13273683
23	0x3ec279d8	0.37983584
24	0xbf13c3b7	-0.5772051
25	0xbf323ddc	-0.6962564
26	0xbf077988	-0.52919817
27	0x3ea025d2	0.31278855
28	0xbd9467f9	-0.07246394
29	0xbe42075e	-0.18948123
30	0x3f2d5dca	0.67721236
31	0xbe274929	-0.16336502
32	0xbf371aac	-0.71525073
33	0xbf0ce3bc	-0.55034995
34	0x3ec1007b	0.3769568
35	0x3e0ed562	0.13948587
36	0xbf225479	-0.63410145
37	0xbddd434e	-0.10803853
38	0xbea0573b	-0.31316552
39	0x3e1c2236	0.15247425
40	0x3eb790bb	0.35852608
41	0x3eb1519e	0.3463258
42	0xbe94eea9	-0.29088333
43	0x3e7d605d	0.24743791
44	0x3e35a863	0.17740016
45	0xbea4ca7b	-0.3218573
46	0x3f2d26b7	0.676372
47	0x3f0ec171	0.5576392
48	0x3ed9978d	0.42498437
49	0xbf26dc7c	-0.6518018
50	0xbf04cea2	-0.51877797
51	0x3f2005f2	0.6250907
52	0x3ed7eebb	0.42174324
53	0xbd9df42e	-0.07712589
54	0x3dee35be	0.11631344
55	0x3ecfc3e7	0.4057915
56	0xbe8900de	-0.26758474
57	0x3ef09cfb	0.46994767
58	0x3e6712ad	0.22565718
59	0x3f10dfd7	0.5659155
60	0x3f20ddef	0.62838644
61	0x3ee2a533	0.44266662
62	0x3f08f40e	0.534974
63	0x3eae5ba1	0.34054282
64	0xbf27b7f0	-0.6551504
65	0x3f22c224	0.63577485
66	0xbc7502d4	-0.014954288
67	0x3ead8ef0	0.33898115
68	0x3f106e61	0.56418425
69	0xbef6ed12	-0.48227745
70	0x3f128ea5	0.5724891
71	0x3f11d330	0.5696287
72	0xbd8ee0cf	-0.069764726
73	0xbebd9bd4	-0.3703295
74	0x3e7e3e28	0.24828398
75	0x3e3bf888	0.18356526
76	0xbdf7e83a	-0.121048406
77	0xbf16df65	-0.58934623
78	0xbde3c27f	-0.111210816
79	0xbf0e5a9d	-0.55607015
80	0x3ecf0a2a	0.40437442
81	0x3f13661f	0.575777
82	0xbf15a732	-0.58458245
83	0x3dfa703d	0.12228439
84	0xbe395fe4	-0.18102986
85	0xbc5d7963	-0.01351771
86	0x3d3baaa7	0.045817044
87	0x3ee96222	0.45582682
88	0xbee63383	-0.44961175
89	0x3dc17181	0.09445477
90	0x3d890098	0.066895664
91	0x3e45fed8	0.19335496
92	0xbec16898	-0.3777511
93	0xbeb782fa	-0.35842115
94	0x3f0ee5e3	0.5581953
95	0x3e4e5ce9	0.2015263
96	0xbf26bee0	-0.65135
97	0xbf11b879	-0.5692211
98	0xbf191168	-0.59792185
99	0x3f068c78	0.5255809
100	0x3aaddf11	0.0013265332
101	0x3ed11fc2	0.40844542
102	0x3e21217f	0.15735434
103	0x3e884e9a	0.26622468
104	0x3ead555b	0.33854184
105	0x3e7d14be	0.24714944
106	0x3e8a34ac	0.2699331
107	0x3e24550e	0.16048071
108	0x3ee252c4	0.4420377
109	0xbe1d5977	-0.1536616
110	0xbef3ac2a	-0.47592288
111	0x3f01cc42	0.507023
112	0x3f02db33	0.5111572
113	0xbd99e381	-0.07514096
114	0xbc49c5db	-0.012315239
115	0x3ea33f47	0.31884214
116	0xbf2286bf	-0.63486856
117	0xbd872203	-0.06598284
118	0xbf3ab456	-0.7293142
119	0xbe9b64d0	-0.3035035
120	0x3ec2f990	0.38081026
121	0x3f114bdf	0.56756395
122	0x3e4408c1	0.19143964
123	0x3ef9429c	0.4868363
124	0xbeb19712	-0.3468557
125	0x3ef2ffe9	0.4746087
126	0xbeb72ac5	-0.35774818
127	0xbdbef607	-0.0932427
128	0xbf3cbb5b	-0.7372338
129	0x3d45e5ef	0.048314985
130	0xbe1f3cce	-0.15550539
131	0x3f1d2e6f	0.6139898
132	0x3d918918	0.07106227
133	0x3eaf53db	0.34243664
134	0x3ec1c4f6	0.37845582
135	0xbd515eed	-0.05111592
136	0x3f2bfca0	0.6718235
137	0xbf09d666	-0.5384277
138	0x3f205ffb	0.62646455
139	0xbe256842	-0.16153052
140	0x3ef2c296	0.47414082
141	0x3ed20f53	0.41027316
142	0xbed5689a	-0.41681367
143	0xbf10f018	-0.56616354
144	0x3f2c060a	0.67196715
145	0x3effb7fb	0.49945053
146	0x3f099b06	0.5375217
147	0x3d837043	0.064178966
148	0x3e84a1d4	0.25904715
149	0x3e53a6de	0.20669124
150	0xbdb2e2a8	-0.087346375
151	0x3eb2b4a5	0.34903446
152	0x3e12333f	0.14277361
153	0x3e0a15ed	0.13484927
154	0x3f2201b6	0.6328386
155	0xbcfde1d6	-0.030991476
156	0xbcd3dc35	-0.025861839
157	0x3e249d01	0.16075517
158	0x3e8704de	0.263709
159	0xbe1144f6	-0.14186463
160	0xbe08c358	-0.13355768
161	0xbecbfa54	-0.39839423
162	0xbf318ccf	-0.6935548
163	0xbf21e326	-0.63237226
164	0x3f2b897c	0.6700666
165	0x3dcc4af0	0.09975231
166	0x3e779fee	0.24182102
167	0x3eeab9b4	0.45844805
168	0x3f31dc67	0.6947693
169	0xbeadf35c	-0.3397473
170	0x3e89f12e	0.26941818
171	0x3f2e3a76	0.68057954
172	0xbf03b940	-0.51454544
173	0x3ee6e2d9	0.45094946
174	0x3cd51ea8	0.026015595
175	0xbe7807be	-0.24221703
176	0xbeb35892	-0.3502851
177	0x3eea3191	0.4574094
178	0xbf17c6b1	-0.59287554
179	0xbed5af70	-0.4173541
180	0xbf3bf207	-0.7341618
181	0x3e18ac34	0.1490944
182	0x3ea44e31	0.32090905
183	0xbf03f67e	-0.5154799
184	0x3c5949e3	0.013262245
185	0x3f31ff99	0.69530636
186	0x3e8d4fcf	0.27599952
187	0x3da5b965	0.08092002
188	0xbdc3b3ec	-0.09555802
189	0xbf1ee851	-0.62073237
190	0x3e074695	0.13210519
191	0xbebff83b	-0.37494072
192	0xbf13533a	-0.5754887
193	0xbc8055ed	-0.015665973
194	0xbf1999e4	-0.60000443
195	0x3e85b12f	0.26111743
196	0x3e9e6236	0.30934304
197	0x3f1dab69	0.61589676
198	0x3e6ed3fe	0.23323056
199	0x3f03c91e	0.51478755
200	0x3ef287a2	0.47369105
201	0xbdea1f6e	-0.11431776
202	0xbef18f0b	-0.47179446
203	0xbe719d86	-0.23595247
204	0x3e7ac277	0.24488245
205	0xbed9168d	-0.42400017
206	0x3ed8fec0	0.4238186
207	0xbf3b7112	-0.73219407
208	0xbe01ca9c	-0.12674946
209	0x3cf0d749	0.029399531
210	0xbe86a51c	-0.26297843
211	0x3e5eb351	0.21748091
212	0xbd4c5e84	-0.049894825
213	0xbe5d83e6	-0.21632347
214	0x3f1b4451	0.6065112
215	0xbe8f8cba	-0.28037053
216	0xbd55f9cb	-0.052240174
217	0x3eaa04ba	0.3320673
218	0x3f03dfa7	0.5151314
219	0xbf013239	-0.5046726
220	0x3f05fc78	0.5233836
221	0x3d99653c	0.07490012
222	0x3e339b62	0.17539743
223	0x3e5703e5	0.2099758
224	0x3f09e9bf	0.53872293
225	0x3e297832	0.16549757
226	0xbf27d844	-0.6556437
227	0x3e617192	0.2201598
228	0x3f0c2367	0.5474152
229	0xbe04de74	-0.12975484
230	0xbe896b0c	-0.26839483
231	0xbeb647dc	-0.356017
232	0xbe528145	-0.20557125
233	0xbe0d0ad1	-0.13773657
234	0x3e4bf592	0.19917896
235	0x3ef3e905	0.47638717
236	0x3ec3f81b	0.38275227
237	0xbf2764dd	-0.6538828
238	0x3f1b1ca8	0.605906
239	0x3ec2e2b7	0.38063595
240	0xbf35d7c0	-0.71032333
241	0x3d811b77	0.06304067
242	0x3ee1b919	0.4408653
243	0xbeaf10ac	-0.34192407
244	0x3ec298d9	0.38007239
245	0x3dd520f0	0.10406673
246	0xbe3bec24	-0.18351799
247	0xbdbc26e9	-0.09187109
248	0xbf3c9e62	-0.73679173
249	0xbedeeb0a	-0.43538696
250	0xbe884c2f	-0.26620623
251	0xbe53bf93	-0.20678549
252	0xbf2344b8	-0.6377673
253	0xbea18d56	-0.31553143
254	0x3e9a8b42	0.3018437
255	0x3ef0ef0a	0.47057372

hidden_layers.0.linear.weight f4 [256, 256]
0	0xbe5ac2af	-0.21363328
1	0xbd84c6f6	-0.06483261
2	0xbbb67ca9	-0.00556906
3	0x3d2304ab	0.039799374
4	0xbe361688	-0.17782032
5	0xbd5cdfa2	-0.05392421
6	0xbe488871	-0.19583298
7	0xbe7460c1	-0.23865034
8	0xbdaad1dd	-0.083408095
9	0xbdeccf86	-0.115630195
10	0xbdc420ad	-0.09576545
11	0x3df1bd44	0.11803678
12	0xbdafccc1	-0.085839756
13	0xbd39db10	-0.04537493
14	0xc074ee35	-3.827039
15	0x3db95733	0.09049835
16	0xbe509948	-0.20370972
17	0xbec2b937	-0.38031933
18	0x3e992085	0.29907623
19	0x3cf0761e	0.029353198
20	0x3c9664e5	0.018358657
21	0xbdf0b771	-0.11753739
22	0xbf2b4104	-0.6689608
23	0x3d65b428	0.056080014
24	0x3ee8cf32	0.45470577
25	0xbd000550	-0.031255066
26	0x3b98d907	0.0046645436
27	0xbc77b301	-0.015118361
28	0xbc86e742	-0.016467694
29	0xbe99f2db	-0.30068097
30	0x3ceeb881	0.029140713
31	0x3ebb3827	0.36566278
32	0x3a83c51a	0.0010053248
33	0xbee59bb8	-0.44845366
34	0xbd502443	-0.050815832
35	0x3cea4ef9	0.02860211
36	0x3cb0d4e9	0.021585898
37	0x3ecf7db1	0.40525582
38	0xbe57653c	-0.21034712
39	0xbc927f4d	-0.017882967
40	0x3e28f9d2	0.16501549
41	0xbe283013	-0.16424589
42	0xbe56d337	-0.2097901
43	0x3e54adb7	0.20769392
44	0xbe64bd27	-0.22337781
45	0xbcaec876	-0.021335822
46	0x3d08929c	0.033342943
47	0xbbb3a3d3	-0.005482176
48	0x3e0f5e0d	0.14000721
49	0xbdb3073e	-0.08741616
50	0xbf043a44	-0.51651406
51	0x3e0fece0	0.14055204
52	0x3bc2ebc1	0.005948514
53	0xbe021f3a	-0.12707224
54	0xbda8c8af	-0.08241402
55	0x3de5d1ae	0.11221634
56	0xbeeaf9bf	-0.45893666
57	0x3d4cdb2c	0.050013706
58	0xbdc23c7c	-0.09484193
59	0x3cf7e99e	0.030262765
60	0xbce9782b	-0.028499683
61	0xbe22ec69	-0.15910496
62	0x3d1b8f5b	0.03797851
63	0x3e1054c4	0.14094836
64	0xba880b07	-0.0010379263
65	0xbe3209ac	-0.17386502
66	0xbde6db43	-0.112722896
67	0x3e0b335e	0.13593814
68	0x3dc97b26	0.09837942
69	0xbda97362	-0.08273961
70	0xbbad44ab	-0.005287727
71	0x3d9920f6	0.0747699
72	0xbfa2174b	-1.2663358
73	0xbe2c17ef	-0.16806005
74	0xbd8e4507	-0.0694676
75	0xbd96b003	-0.0735779
76	0xbe21460e	-0.1574938
77	0xbdba90be	-0.09109639
78	0x3cc84b53	0.02444998
79	0x3d63970f	0.055563983
80	0x3de32514	0.110910565
81	0x3d42c2a1	0.047548894
82	0x3daf06a3	0.08546188
83	0xbdbea81b	-0.09309407
84	0x3e400036	0.1875008
85	0xbd7c0bf7	-0.061534848
86	0x3d9641bb	0.07336756
87	0xbd15cc23	-0.036571633
88	0xbe42482c	-0.18972844
89	0xbcae515c	-0.02127903
90	0xbd98549d	-0.07438014
91	0x3b944a1a	0.004525435
92	0xbde37ed8	-0.11108178
93	0x3e2c4609	0.16823591
94	0x3db2c129	0.087282486
95	0xbe2c5569	-0.16829456
96	0xbe2ced19	-0.1688732
97	0xc06824a2	-3.627236
98	0xbe3d1ded	-0.18468447
99	0x3c8b09a1	0.016972365
100	0xbfc14cf2	-1.5101607
101	0x3adb545f	0.0016733519
102	0xbd864a1e	-0.065571055
103	0xbd839baf	-0.06426179
104	0x3be3e50c	0.0069547947
105	0x3c89dc48	0.016828671
106	0xbdfb25e3	-0.12263086
107	0xbdcfe84c	-0.10151729
108	0x3e236b49	0.15958895
109	0xbf2cc3e3	-0.674864
110	0x3cb775b0	0.022394985
111	0x3e2e0cdb	0.16997091
112	0x3d438788	0.047736675
113	0x3e72a52b	0.23695819
114	0xbf93741e	-1.1519811
115	0x3da9eb27	0.08296805
116	0x3ce8a8c5	0.028400788
117	0xbed844f2	-0.422401
118	0xbfaa8211	-1.3320943
119	0x3cd4b4bc	0.025965087
120	0xbdfe60dd	-0.12420819
121	0xbc8b7c6f	-0.017027108
122	0xbd47708b	-0.048691314
123	0x3dec4752	0.11537041
124	0xbecad78e	-0.3961758
125	0xbcf6ab32	-0.03011093
126	0x3d3b16db	0.045676094
127	0x3a437769	0.0007456453
128	0x3d646a67	0.055765536
129	0x3d16bc98	0.03680095
130	0xbca51390	-0.02015093
131	0x3ce6959a	0.028147507
132	0x3daa7888	0.08323771
133	0x3daad859	0.08342046
134	0xbd9d3a7a	-0.07677169
135	0xbfba53c7	-1.4556817
136	0x3df535ef	0.11973178
137	0xbbcce10e	-0.0062524145
138	0xbd65a65d	-0.05606686
139	0x3d9fb851	0.077988274
140	0xbd20a5de	-0.039220683
141	0xbd03b4d5	-0.032154877
142	0xbd8120f4	-0.063051134
143	0xbcff101f	-0.031135617
144	0x3c28a2dc	0.010292735
145	0xb9aeecf0	-0.00033364398
146	0xbc57931f	-0.013157635
147	0xbe9f67e8	-0.31133962
148	0xba9b49db	-0.0011847572
149	0xbb978fbd	-0.0046252892
150	0xbdbbfb2c	-0.091787666
151	0xbbd47792	-0.0064839805
152	0x3e47fd76	0.19530281
153	0xbe05b16f	-0.13055967
154	0xbc5a5a03	-0.0133271245
155	0xbc8ac064	-0.016937442
156	0xbe9ba130	-0.30396414
157	0x3e0d4261	0.13794853
158	0xbd85641b	-0.06513234
159	0xbf1705a9	-0.5899301
160	0xbd4dd23b	-0.05024932
161	0xbd56d2f4	-0.052447274
162	0x3eaf1de6	0.34202498
163	0xbe1c09d3	-0.15238123
164	0x3d13f7b8	0.036124915
165	0x3d0fbf47	0.035094526
166	0xbd250d67	-0.040295985
167	0xbd989f10	-0.07452214
168	0xbe0e973f	-0.13924883
169	0xbe28f834	-0.16500932
170	0x3c79eac6	0.015253728
171	0x3e4af1b5	0.19818766
172	0x3e0fe0e8	0.14050639
173	0xbeb76a0e	-0.358231
174	0xbe4a8ef6	-0.19781098
175	0xbcef8528	-0.029238299
176	0xbdf68c3c	-0.12038466
177	0x3da056e2	0.078290716
178	0x3e1852cb	0.14875333
179	0x3e37932c	0.17927235
180	0xbe19cb9d	-0.15019079
181	0x3dddd97e	0.10832499
182	0xbd9fd90e	-0.07805072
183	0xbd43b990	-0.047784388
184	0xbd5f3e0c	-0.054502532
185	0xbb42c341	-0.0029718431
186	0x3cae6bac	0.021291576
187	0xbc0d021b	-0.008606459
188	0xbcb0d358	-0.021585152
189	0x3e2c8036	0.16845784
190	0x3dfabca4	0.122430116
191	0xbc98f621	-0.01867205
192	0x3e0a792d	0.13522787
193	0xbe25f654	-0.16207248
194	0xbc80c873	-0.015720582
195	0xbc10dcf4	-0.008841742
196	0xbdf05406	-0.11734776
197	0x3d9072f3	0.07053175
198	0x3c0e63ac	0.008690756
199	0x3debafa9	0.11508114
200	0x3d0ad1e0	0.03389156
201	0xbf5343e8	-0.8252549
202	0xbf9012b4	-1.1255708
203	0x3d78eaea	0.060770907
204	0xbe8aaccd	-0.27084962
205	0x3d97a021	0.07403589
206	0xbc2b6db9	-0.010463172
207	0xbdeec8c9	-0.116593905
208	0x3f941a5a	1.1570542
209	0xbddcc315	-0.107793964
210	0xbea4dab9	-0.32198122
211	0xbd090d40	-0.0334599
212	0xbeed7638	-0.46379256
213	0xbe80cdbb	-0.2515696
214	0xbd9d6a22	-0.07686259
215	0x3e23baea	0.15989271
216	0x3c1ff9bf	0.009764134
217	0xbd254994	-0.040353373
218	0xbe06110e	-0.13092443
219	0x3e5476ac	0.20748395
220	0x3d57d89d	0.052696813
221	0x3d776fa2	0.060409196
222	0xbc8dca6a	-0.017308433
223	0x3da875f2	0.08225621
224	0x3e64bbaa	0.22337213
225	0x3d2c1992	0.042016573
226	0xbd44f20a	-0.04808239
227	0xbe08ef69	-0.13372578
228	0x3d5132f2	0.051073976
229	0x3d7c4b2c	0.061595127
230	0xbd0a51d4	-0.033769444
231	0x3d29fdd5	0.04150184
232	0xbcf9e98a	-0.030506868
233	0xbd80368e	-0.062604055
234	0x3ca2c70d	0.019870305
235	0x3de751a6	0.1129487
236	0xbd2836ba	-0.041067816
237	0x3e260ece	0.16216585
238	0xbd3ed285	-0.046587486
239	0x3e519e57	0.20470558
240	0xbe5b961f	-0.21443985
241	0xbc93a9b9	-0.018025266
242	0xbe6534d2	-0.2238343
243	0xbe166c19	-0.14689673
244	0x3c9626ca	0.018329043
245	0xbc84afe0	-0.016197145
246	0x3e131a43	0.14365487
247	0x3de1be42	0.11022617
248	0x3e2ed0fe	0.17071912
249	0xbfc01041	-1.500496
250	0xbdd36080	-0.1032114
251	0xbd73ac5e	-0.059490554
252	0xbdfd6206	-0.12372212
253	0x3f922996	1.1418941
254	0xbd761ec3	-0.06008793
255	0xbd43fbf7	-0.047847714

hidden_layers.0.linear.bias f4 [256]
0	0x3cbf2196	0.023331445
1	0xbd45495b	-0.04816566
2	0xbd2d9619	-0.042379472
3	0x3c0f8fc4	0.008762304
4	0xbd2138de	-0.039360873
5	0xbd5ed66e	-0.054403715
6	0xbd459feb	-0.048248213
7	0x3c7d46e6	0.015458798
8	0x3d8adad4	0.067800194
9	0xbd3db456	-0.04631456
10	0xbd494db9	-0.049146388
11	0xbc8e5af6	-0.017377358
12	0xbc66cc05	-0.014086728
13	0x3d16fbf1	0.036861364
14	0xbd74978f	-0.05971485
15	0xbd7c24c8	-0.061558515
16	0xbb008681	-0.001961142
17	0x3b9f1642	0.0048549483
18	0x3cad6081	0.02116418
19	0x3d2dd12c	0.04243581
20	0xbd694622	-0.05695165
21	0xbd5fc2d8	-0.054629177
22	0xbd089f4e	-0.03335505
23	0xbcec0fcd	-0.028816128
24	0x3d505fc0	0.050872564
25	0xbc687897	-0.014188907
26	0x3cb6c8a3	0.022312468
27	0xbd02a4b5	-0.031895358
28	0x3d812aff	0.06307029
29	0x3c905e08	0.017622963
30	0xbccedc97	-0.02525167
31	0x3d5e6860	0.05429876
32	0xbd0fd07b	-0.03511093
33	0x3cda90d0	0.02668038
34	0xbd4760c6	-0.048676275
35	0x3d1b598d	0.0379272
36	0xbd4b612a	-0.04965321
37	0xbd52b0b0	-0.051438034
38	0x3d52934f	0.051410016
39	0xbd514f57	-0.051101055
40	0x3d058b67	0.032603648
41	0xbd9b1b0c	-0.07573518
42	0x3c923ceb	0.017851314
43	0x3d6cad1f	0.05778229
44	0xbd8eef2d	-0.06979213
45	0x3b65af75	0.0035047207
46	0x3cd065c7	0.025439156
47	0x3d39a61b	0.045324426
48	0xbad8bd3b	-0.0016535887
49	0xbd5e9ad2	-0.054346867
50	0x3befb220	0.0073149353
51	0x3d34670e	0.044043593
52	0x3ce3e0af	0.027817098
53	0x3d5fdbca	0.054652967
54	0x3bbe3f30	0.0058058724
55	0xbd41c3ed	-0.04730599
56	0x3cc599a2	0.02412111
57	0x3ce0ff47	0.027465476
58	0xbd69b5bc	-0.05705808
59	0xbccad00d	-0.02475741
60	0x3d74b66c	0.059744284
61	0xbc2e6d50	-0.010646179
62	0x3cbfd4b7	0.02341686
63	0xbd828417	-0.063728504
64	0x3d06c7b3	0.03290529
65	0x3d11b80d	0.035575915
66	0x3c8f9168	0.01752539
67	0x3c2b4140	0.0104525685
68	0x3d03ab85	0.032145996
69	0x3ba8359c	0.005133344
70	0x3cfd9862	0.03095645
71	0xbb8c3ccb	-0.004279708
72	0x3d94f0ba	0.072724774
73	0xbc8bd4f1	-0.017069312
74	0x3d0e60ab	0.03476016
75	0xbc733d2d	-0.014846128
76	0x3d713b6d	0.058894563
77	0xbce23f85	-0.02761818
78	0xbd42e59a	-0.047582246
79	0x3d3efdac	0.04662864
80	0x3d3a11d6	0.045427166
81	0x3c7a4f3d	0.015277681
82	0xbccc9c51	-0.024976881
83	0xbc2c3cd9	-0.010512554
84	0xbd140307	-0.0361357
85	0xbd7dddf7	-0.06197926
86	0x3d585706	0.052817367
87	0x3bf2c05f	0.0074081863
88	0x3aa76522	0.0012771229
89	0x3d37b2b5	0.044848163
90	0xbd2ece10	-0.042676985
91	0x3d24cc78	0.04023406
92	0xbbd521c1	-0.006504268
93	0x3d4e52ef	0.05037206
94	0xbc242b09	-0.010020026
95	0xbd965096	-0.07339589
96	0x3bdc782f	0.006728194
97	0x3d336fa0	0.043807626
98	0x3ca2616a	0.019821841
99	0xbd7f1614	-0.062276915
100	0xbd5022c0	-0.05081439
101	0xbd898ec3	-0.06716683
102	0xbceb03d2	-0.028688345
103	0xbc94300a	-0.018089313
104	0x3d1fff4d	0.039061833
105	0x3c88e93a	0.016712774
106	0xbce423c6	-0.02784909
107	0xbc34df0e	-0.0110395085
108	0x3d02b4bd	0.031910647
109	0x3d1c00e6	0.038086794
110	0xbc8f9cfe	-0.017530914
111	0x3d5e61ea	0.054292597
112	0x3d5c64a8	0.05380693
113	0x3d8f736e	0.07004438
114	0xbd0dcb69	-0.034617815
115	0x3d4bb255	0.049730618
116	0x3d29089f	0.041267987
117	0xbd44b123	-0.048020493
118	0x3d0b7610	0.03404814
119	0x3c6567d0	0.014001802
120	0x3ba5999a	0.005053711
121	0xbceb0ce8	-0.028692678
122	0xbd17d756	-0.037070595
123	0x3b59c5d1	0.003322948
124	0xbdae24e0	-0.08503127
125	0x3c24507c	0.010028955
126	0x3c90f4cc	0.017694853
127	0xbd48d965	-0.04903545
128	0xbc3068fd	-0.010767219
129	0xbd4eaa2f	-0.05045527
130	0x3d5a0ac4	0.053232923
131	0xbc82e4b3	-0.015978193
132	0xbbe9bf78	-0.0071334206
133	0x3bb2a43e	0.005451708
134	0x3c48833a	0.012238318
135	0xbceddae8	-0.029035047
136	0xbcf04a23	-0.029332226
137	0x3c98be5b	0.018645456
138	0xbcb27036	-0.021782022
139	0xbd1c37ff	-0.03813934
140	0xbd0ea7ec	-0.03482811
141	0xbd48e44a	-0.04904584
142	0x3c4a9f8e	0.012367142
143	0xbdb2ed35	-0.0873665
144	0xbd069e17	-0.03286561
145	0x3c8e0119	0.017334508
146	0x3d51f095	0.051254828
147	0x3c1bdecc	0.009513568
148	0x3d900d38	0.07033771
149	0xbd488595	-0.04895552
150	0xbcbf031c	-0.023316912
151	0x3b8e7772	0.004347735
152	0xbd3952a2	-0.04524482
153	0x3d713720	0.058890462
154	0xbd654212	-0.055971213
155	0x3d8838f9	0.06651492
156	0x3d2dd14a	0.04243592
157	0xbcaae980	-0.020863295
158	0xbc65930f	-0.014012112
159	0x3c4a90ce	0.012363626
160	0xbb278441	-0.0025561007
161	0xbb5c331b	-0.0033599797
162	0x3cf23e80	0.029570818
163	0xbc58f878	-0.013242833
164	0xbc2ff1cb	-0.0107388
165	0x3d2d111d	0.04225265
166	0x3aea9013	0.0017895721
167	0xbb6df8ab	-0.0036311548
168	0xbc37f770	-0.011228427
169	0xbd0787cf	-0.0330885
170	0x3b214dec	0.0024613095
171	0x3c66a287	0.0140768355
172	0x3d2bf368	0.041980177
173	0xbd386975	-0.045022447
174	0x3c6ca418	0.01444342
175	0x3ceee392	0.029161248
176	0xbcc8e2e9	-0.024522262
177	0xbceef3ea	-0.029169042
178	0x3d6f256d	0.0583853
179	0x3d870d23	0.065943025
180	0xbd472aec	-0.048624918
181	0xbcfed51a	-0.031107474
182	0xbda17c29	-0.0788501
183	0x3d0fc575	0.03510042
184	0xbd8095f1	-0.06278599
185	0x3b084732	0.002079439
186	0x372a0625	1.013422e-05
187	0xbbc76e55	-0.0060861506
188	0xbcd9a404	-0.026567467
189	0xbb734610	-0.0037120618
190	0xbd6cf18e	-0.057847552
191	0x3b5cf8b4	0.0033717575
192	0x3d8b31a1	0.06796575
193	0x3d6d0a54	0.057871178
194	0x3c75d288	0.015003808
195	0x3c9b0cd7	0.018927021
196	0x3d04e70d	0.03244691
197	0x3b247186	0.002509208
198	0xba4bc912	-0.0007773797
199	0x3d84c771	0.06483353
200	0xbc3bcc79	-0.011462324
201	0xbd03eacc	-0.03220634
202	0x3c145e48	0.0090556815
203	0xbcf40426	-0.029787134
204	0xbd12fad4	-0.03588374
205	0xbd6e6d8c	-0.05820994
206	0xbd7354e6	-0.059407137
207	0xbda9c64c	-0.08289775
208	0x3d93378f	0.07188331
209	0xbd227c7d	-0.039669503
210	0x3ccd6272	0.025071356
211	0xbd0a1555	-0.03371175
212	0x3d32ea3b	0.04368041
213	0xbd73b94a	-0.059502877
214	0xbc7a2029	-0.015266457
215	0xbcb3c470	-0.021944255
216	0xbdb5c7e5	-0.088760175
217	0xbd061dcd	-0.032743264
218	0xbcb26ec1	-0.021781327
219	0x3d5e4cb5	0.054272372
220	0x3c982080	0.018570185
221	0xbbab7908	-0.005232934
222	0x3d698be5	0.05701818
223	0x3d824bd1	0.06362117
224	0xbd2508a2	-0.040291436
225	0xbd37f983	-0.044915687
226	0x3b745d52	0.0037287069
227	0xbc8f9baf	-0.01753029
228	0xbd30fddb	-0.043210845
229	0x3cc96dff	0.024588583
230	0x3c24a335	0.010048677
231	0x3cf72354	0.030168213
232	0xbd317b42	-0.04333044
233	0xbc6cdc42	-0.01445681
234	0xbc2479b4	-0.010038782
235	0x3c29f54e	0.010373427
236	0x3d877156	0.06613414
237	0x3ce14a00	0.027501106
238	0xbd914da7	-0.07094889
239	0x3cb8563f	0.022502063
240	0x3cb79e89	0.022414463
241	0xbd5a33c4	-0.053272024
242	0xbc7d441f	-0.015458136
243	0xbc9ea735	-0.01936684
244	0xbce3845d	-0.027773077
245	0xbd45ed90	-0.04832226
246	0x3d5a677e	0.053321354
247	0x3bbe4390	0.005806394
248	0x3d4d4b67	0.050120737
249	0xbdcac8c9	-0.09901578
250	0xbd50334c	-0.05083017
251	0x3af3c616	0.0018598463
252	0x3d71bddc	0.059018955
253	0xbd482dcb	-0.048871797
254	0xbd1dcac8	-0.038523465
255	0x3d2e0ce2	0.042492755

hidden_layers.1.linear.weight f4 [256, 256]
0	0x3af65187	0.0018792608
1	0xbd7cf003	-0.06175233
2	0x3c6f51b3	0.014606881
3	0x3cbf9b9b	0.023389628
4	0x3e07f25f	0.13276051
5	0x3d9ad217	0.07559603
6	0x3d24a392	0.040195055
7	0x3c86967d	0.01642918
8	0xbc11cf4f	-0.008899524
9	0x3d370f3b	0.04469226
10	0x3ce2915d	0.027657205
11	0xbd0da430	-0.03458041
12	0x3df80d1b	0.12111875
13	0x3dedc6a6	0.11610155
14	0xbc870690	-0.016482621
15	0xbde861e7	-0.113467984
16	0x3d7bfa4f	0.06151801
17	0x3b85582e	0.0040693497
18	0x3db313af	0.08743989
19	0x3e36c22e	0.17847511
20	0x3dd8c400	0.10584259
21	0xbca2270a	-0.019794006
22	0xbe146cdd	-0.14494653
23	0xbe06640b	-0.13124101
24	0xbab8a7d0	-0.0014088098
25	0x3d902fb2	0.07040347
26	0xbdb6af4c	-0.08920154
27	0xbe158e23	-0.14605002
28	0x3d895b09	0.06706817
29	0x3d9b70d4	0.0758988
30	0x3dd5fb30	0.10448301
31	0x3e26209a	0.16223374
32	0x3bf66d97	0.0075203883
33	0xbd0e183a	-0.034691073
34	0x3bef4204	0.007301571
35	0x3e2e83af	0.17042421
36	0xbc859973	-0.016308522
37	0x3e16184d	0.14657708
38	0xbd7cc248	-0.06170872
39	0xbd9a6519	-0.07538814
40	0x3c138eb2	0.009006189
41	0xbe341b5e	-0.17588565
42	0xbe0c515a	-0.13702908
43	0xbbdb03f7	-0.0066838223
44	0xbd8132e1	-0.063085325
45	0x3e708388	0.23487675
46	0xbd47bcac	-0.048763916
47	0xbd93890d	-0.07203875
48	0xbe1d6b85	-0.15373047
49	0xbe0e6708	-0.13906491
50	0x3d3e14bb	0.04640649
51	0xbd6586ec	-0.056036875
52	0x3dac2b17	0.08406656
53	0x3d7055dc	0.058675632
54	0x3de58db6	0.1120867
55	0x3d2a71c5	0.041612405
56	0x3d4b927a	0.049700238
57	0x3d4b861c	0.049688444
58	0x3d89ee21	0.067348726
59	0xbd85ce09	-0.06533439
60	0x3c98ddd9	0.018660473
61	0x3d8071ab	0.062716804
62	0xbcb67ebf	-0.022277234
63	0xbde792dd	-0.11307309
64	0xbd220176	-0.039552175
65	0x3d8242e4	0.063604146
66	0xbce6995d	-0.028149301
67	0x3c79e356	0.015251955
68	0xbdfad57b	-0.122477494
69	0xbd91bf2f	-0.071165435
70	0xbb3b8a7e	-0.0028616483
71	0x3d930156	0.07177989
72	0x3da3951c	0.07987425
73	0xbd370fd1	-0.044692818
74	0x3dee13bb	0.11624857
75	0x3d6076ea	0.054800905
76	0xbb223c69	-0.0024755246
77	0x3cba9cc4	0.02277983
78	0x3d139415	0.036029894
79	0xbd49de55	-0.049284298
80	0xbd1a2435	-0.037632186
81	0xbe1fa1e4	-0.155891
82	0x3dc60d1b	0.096704684
83	0xbc0635f8	-0.008191578
84	0x3e0041b1	0.1252506
85	0x3d22e6e5	0.03977098
86	0x3d6a6fab	0.0572354
87	0xbe16cf57	-0.14727531
88	0x3d05f5c8	0.0327051
89	0x3d3cf109	0.046128307
90	0xbd234609	-0.039861713
91	0xbddd9dbf	-0.10821103
92	0x3dbeeec7	0.09322887
93	0x3e0ed840	0.1394968
94	0xbe2606fc	-0.16213602
95	0xbd0b92eb	-0.03407566
96	0xbce0b972	-0.027432177
97	0xbcbf5881	-0.023357632
98	0x3e0c34af	0.13691972
99	0xbdf26d54	-0.11837259
100	0x3c916f00	0.017753124
101	0x3e1e64af	0.15468095
102	0x3d11ba0f	0.03557783
103	0xbdc01c80	-0.09380436
104	0x3d9d2c9a	0.07674523
105	0x3d7f040c	0.06225972
106	0x3d81f33f	0.06345224
107	0xbdb20b33	-0.08693542
108	0xbd2b87ea	-0.041877665
109	0x3ceb5de1	0.028731288
110	0xbe06d3cb	-0.1316673
111	0xbe0f61fd	-0.14002223
112	0xbd968e56	-0.07351367
113	0x3db971ba	0.09054895
114	0x3d814a06	0.06312947
115	0x3dfcb108	0.123384535
116	0xbde1f363	-0.110327505
117	0xbd88d1de	-0.06680654
118	0xbde51e27	-0.11187392
119	0x3d5fdd3e	0.054654352
120	0xbd25c7a8	-0.04047361
121	0x3d090fc4	0.0334623
122	0xbe29c03c	-0.16577238
123	0xbdb91bd6	-0.090385124
124	0x3cd2fa07	0.025753988
125	0xbdb2d32c	-0.08731684
126	0x3de559e0	0.11198783
127	0x3d7cb903	0.06169988
128	0xbce62593	-0.028094089
129	0xbccf7d56	-0.02532832
130	0xbdf36599	-0.118846126
131	0xbe2b269f	-0.16713952
132	0x3ca4f4be	0.020136233
133	0x3dce3a37	0.10069697
134	0x3de15365	0.11002234
135	0x3afa52d5	0.0019098172
136	0xbe352d37	-0.1769303
137	0x3d6669c0	0.056253195
138	0x3e25a123	0.1617475
139	0xbd3383c4	-0.043826833
140	0x3d4fca80	0.05073023
141	0xbdbc75a2	-0.09202124
142	0x3d928bb3	0.07155552
143	0xbd23d73f	-0.040000197
144	0xbe3eb386	-0.1862317
145	0x3cd49aa2	0.02595264
146	0x3e134ef1	0.14385583
147	0xbc5b49c2	-0.013384284
148	0x3d533b01	0.051569942
149	0xbd9f79c3	-0.07786896
150	0x3e4e1379	0.20124616
151	0x3d4b34f6	0.049611054
152	0xbd20cb2a	-0.039256252
153	0x3d32af72	0.04362435
154	0x3d8e19cb	0.06938513
155	0xbdd9bbd1	-0.10631526
156	0xbd6faf50	-0.0585168
157	0x3d9fae64	0.07796934
158	0x3e1e5259	0.154611
159	0x3e090de3	0.13384204
160	0xbdc46039	-0.095886655
161	0x3e35c55c	0.17751068
162	0x3d6c7908	0.057732612
163	0x3de0fa75	0.10985271
164	0xbccc3168	-0.024925902
165	0xbd9affbf	-0.07568311
166	0x3da58074	0.08081141
167	0xbc9ba2b9	-0.01899849
168	0xbc5227da	-0.012826884
169	0x3d908c62	0.07058026
170	0x3b86985c	0.004107518
171	0x3c998efd	0.01874494
172	0x3e0298d5	0.12753613
173	0xbbb1117a	-0.0054036947
174	0x3e41a9dd	0.18912454
175	0xbe0512cc	-0.12995452
176	0x3d14c8e7	0.036324408
177	0xbcdcaf23	-0.02693898
178	0x3df11f23	0.11773517
179	0xbd759818	-0.0599595
180	0xbb93aa45	-0.0045063817
181	0x3cf97698	0.030452058
182	0x3db9936f	0.09061324
183	0x3dc5b1b1	0.096530326
184	0xbe0f4888	-0.13992512
185	0x3cd715f1	0.02625558
186	0x3dfac83a	0.122452214
187	0x3e4d4659	0.20046367
188	0xbd0e3af2	-0.034724183
189	0xbdb7706b	-0.08956989
190	0xbd90d94f	-0.07072698
191	0xbc97cda3	-0.018530672
192	0x3dd008a7	0.101579
193	0x3e03993b	0.12851422
194	0x3cb3cb09	0.0219474
195	0xbcb53274	-0.022118784
196	0x3d199af2	0.037501283
197	0x3de9c918	0.11415309
198	0x3e01876b	0.12649314
199	0x3cee5d4f	0.029097227
200	0xbd834c1b	-0.06411
201	0xbd8b23f4	-0.06793967
202	0x3dfaeed5	0.12252585
203	0xbe1b8e7a	-0.15191069
204	0x3dd8e22a	0.10590012
205	0xbc65363f	-0.013989984
206	0x3e295ee7	0.16540109
207	0x3b92122e	0.0044577336
208	0x3d1ade7a	0.037809826
209	0xbc65e6c4	-0.01403207
210	0xbd127f7d	-0.035766114
211	0xbdb5eb51	-0.08882774
212	0x3db00bf5	0.085960306
213	0xbd147e8a	-0.03625349
214	0x3c63f5f7	0.013913623
215	0x3d754939	0.059884284
216	0xbce9309b	-0.02846556
217	0x3d9eadba	0.077479795
218	0x3d83de10	0.064388394
219	0x3d0cc75b	0.034369808
220	0xbd9d2632	-0.07673301
221	0x3d663226	0.05620017
222	0x3e2f80dc	0.17139
223	0xbe3be3fa	-0.18348685
224	0xbdb4695e	-0.0880916
225	0x3ce1fa09	0.027585046
226	0xbd321919	-0.043480966
227	0x3dc6a466	0.09699325
228	0x3db0b021	0.08627344
229	0xbd969260	-0.073521376
230	0x3e284f4a	0.16436496
231	0xbd25f9c1	-0.040521387
232	0x3dda3da5	0.10656289
233	0x3ca2af80	0.019859076
234	0x3e02f1d1	0.12787558
235	0x3d9c669f	0.07636761
236	0x3d9aee6c	0.075650066
237	0x3d46994d	0.048486043
238	0xbe1d2d20	-0.15349245
239	0xbbe51fa5	-0.0069922977
240	0x3b14e56f	0.002271976
241	0xbdb4ba96	-0.08824651
242	0x3daceb4d	0.084433176
243	0xbd032ccd	-0.032025147
244	0xbd4b416a	-0.04962293
245	0x3de2f338	0.110815465
246	0xbc9543bd	-0.018220777
247	0xbdde645a	-0.10858984
248	0xbe26814f	-0.16260265
249	0xbe1fac06	-0.15592965
250	0xbdcc2744	-0.09968427
251	0xbd39f3a3	-0.045398366
252	0x3d51e348	0.051242143
253	0xbcb0cbf9	-0.021581637
254	0xbe00f8fb	-0.12594979
255	0xbdb72b75	-0.08943836

hidden_layers.1.linear.bias f4 [256]
0	0x398434f6	0.0002521646
1	0x3bc93d7c	0.0061413627
2	0x3cc514e5	0.024057815
3	0x3d328e21	0.043592576
4	0xbc70326c	-0.014660459
5	0xbd71b104	-0.059006706
6	0x3ca10227	0.019654347
7	0x3c88943e	0.01667225
8	0x3b9e2256	0.0048258705
9	0x3cd95340	0.026528955
10	0x3cdfc485	0.027315388
11	0xbc1d7aa3	-0.009611758
12	0xbd614a66	-0.055002593
13	0xbcbd6e24	-0.023123808
14	0xbc15bb3f	-0.009138881
15	0xbd76dccd	-0.060269166
16	0xbcbc9d5c	-0.023024254
17	0xbc470473	-0.012147057
18	0xbd2a89cb	-0.041635316
19	0x3d82496d	0.06361661
20	0xbd81702d	-0.06320224
21	0x3bf31a68	0.0074189194
22	0xbc5c1897	-0.013433597
23	0x3c0959a7	0.008383191
24	0x3d38ffd4	0.04516585
25	0x3d06875e	0.03284394
26	0x3cc1266b	0.02357789
27	0x3d35fa63	0.04442824
28	0x3cfea0b0	0.031082481
29	0x3cd751c3	0.026284104
30	0x3bfa7c5c	0.0076442193
31	0x3c9b6d4a	0.018973012
32	0xbd6ead87	-0.058270957
33	0x3d1d064e	0.03833609
34	0x3c2909b1	0.010317252
35	0x3d76128a	0.060076274
36	0xbd53c414	-0.051700667
37	0x3beaa09a	0.0071602585
38	0xbca6c24d	-0.020356322
39	0x3d089c2f	0.033352073
40	0xbccf2a58	-0.025288746
41	0x3a2c0294	0.00065616635
42	0xbc99032b	-0.018678268
43	0xbc0cc43c	-0.008591708
44	0xbcb9f880	-0.022701502
45	0xbce5d070	-0.028053492
46	0x3d16014c	0.03662233
47	0x3d218886	0.03943684
48	0xbbe86144	-0.007091673
49	0x3d409404	0.04701616
50	0xbcd476b4	-0.025935508
51	0x3b88c9b3	0.004174435
52	0x3d10b2eb	0.03532688
53	0x3c0f27dd	0.0087375315
54	0xbda06480	-0.07831669
55	0x3d4592d1	0.04823572
56	0x3d5b0c18	0.05347833
57	0x3cf746f1	0.030185195
58	0x3d1f8c73	0.038952302
59	0x3d093dbd	0.033506144
60	0xbd9b1eff	-0.075742714
61	0xbb483e96	-0.0030554882
62	0x3d4a1882	0.04933978
63	0xbd657da0	-0.05602801
64	0xbce1c349	-0.02755894
65	0xbc67771f	-0.014127522
66	0xbd7eb959	-0.06218848
67	0x3ad020d0	0.001587892
68	0xbd674cf2	-0.056469865
69	0x3cd1fb36	0.025632482
70	0x3bab5f0d	0.005229837
71	0xbd35e74f	-0.044410046
72	0x3d1efd3f	0.038815733
73	0x3c8f083e	0.017459985
74	0x3d820714	0.06349006
75	0x3d8fed8f	0.070277326
76	0x3c3a0d3c	0.011355694
77	0x3cbca13a	0.023026098
78	0xbd50383c	-0.05083488
79	0xbd49d68e	-0.04927688
80	0x3d1ba9a8	0.038003594
81	0xbce2fefc	-0.027709477
82	0xbb08ade6	-0.0020855605
83	0x3c7e6462	0.015526863
84	0xbd18cfd0	-0.03730756
85	0xbd0f44c1	-0.03497768
86	0x3d593002	0.0530243
87	0xbaa35868	-0.001246226
88	0xbd7e1cf4	-0.06203933
89	0xbd03f656	-0.032217346
90	0x3aa67f42	0.0012702721
91	0xbd73282c	-0.059364483
92	0xbd2d50d6	-0.04231342
93	0x3d5db586	0.054128192
94	0xbd53c999	-0.05170593
95	0xbd8900fa	-0.066896394
96	0x3d4bced4	0.049757794
97	0xbd3fdd05	-0.04684164
98	0x3ce43f7f	0.027862309
99	0xbcba7bb7	-0.02276407
100	0x3c8cc5e5	0.017184207
101	0x3d267767	0.040641215
102	0xbcd67300	-0.026177883
103	0x3cc19c0a	0.023633976
104	0x3c7b852e	0.015351577
105	0xbc0fecde	-0.008784501
106	0xbd122618	-0.03568086
107	0x3c997bbf	0.018735765
108	0x3d86403e	0.06555222
109	0xbd0583b3	-0.0325963
110	0x3cca80d7	0.024719639
111	0xbd4d020e	-0.050050788
112	0x3b39b5e3	0.0028337173
113	0xbc82f9b1	-0.015988203
114	0xbcb1e517	-0.021715684
115	0xbc461f8a	-0.01209248
116	0xbd00d341	-0.031451467
117	0xbd07cc22	-0.03315366
118	0xbc9d815b	-0.01922672
119	0xbd61f016	-0.055160604
120	0xbd3ea8b2	-0.0465476
121	0xbcf183e7	-0.029481841
122	0x3d2dcb33	0.042430114
123	0xbd832c97	-0.06404989
124	0xbbb3900a	-0.0054798173
125	0x3be3ee9c	0.0069559347
126	0x3c8e790e	0.017391708
127	0x3cf4b5ff	0.029871939
128	0x3beae784	0.007168712
129	0xbd8c636f	-0.06854903
130	0x3be8ca7e	0.007104217
131	0x3d1ee29d	0.038790334
132	0x3d63db95	0.05562933
133	0x3c29577e	0.010335801
134	0x3bc0a873	0.0058794557
135	0xbcbc368b	-0.022975227
136	0x3cccaaa3	0.02498371
137	0xbd613308	-0.054980308
138	0x3d6ead5b	0.058270793
139	0x3d8a5b29	0.06755669
140	0x3d0ae141	0.033906225
141	0x3c6909b4	0.014223505
142	0x3d783217	0.060594644
143	0xbc44f5bf	-0.012021481
144	0xbc125e6e	-0.008933647
145	0xbc16b2ed	-0.009197933
146	0x3c3ec09d	0.011642602
147	0xbd24428c	-0.040102527
148	0xbca56c0a	-0.020193119
149	0x3c45495a	0.012041414
150	0x3d0a6879	0.03379104
151	0x3d4c4d13	0.04987819
152	0x3d84f1b2	0.06491412
153	0xbd5604e2	-0.05225075
154	0xbd727353	-0.059192013
155	0x3a86d14f	0.0010285767
156	0x3d06afb4	0.032882407
157	0xbc3d790c	-0.011564504
158	0x3b55d54b	0.0032628353
159	0xbcfbbccc	-0.030729674
160	0x3c83deca	0.016097445
161	0x3cfa0282	0.030518774
162	0xbce82864	-0.028339572
163	0x3cdcdab8	0.026959762
164	0xbd1d9bf4	-0.038478807
165	0xbbb28d22	-0.0054489532
166	0xbd36ca7d	-0.0446267
167	0xbd5efa61	-0.054438
168	0xbce570cd	-0.02800789
169	0x3b8f4433	0.0043721437
170	0x3c557f80	0.013030887
171	0x3c227d4c	0.009917568
172	0x3c8dcc0f	0.017309217
173	0xbc825773	-0.01591084
174	0xbc1daf30	-0.0096242875
175	0xbc0023eb	-0.0078210635
176	0x3b1d0154	0.002395709
177	0x3c8e49b0	0.017369121
178	0xbcd81f2c	-0.026382051
179	0xbd50f245	-0.051012296
180	0x3cdc65c0	0.026903987
181	0x3d9487dc	0.072524756
182	0xbcd769c1	-0.026295545
183	0xbcc7db01	-0.024396421
184	0xbd129fa1	-0.035796765
185	0xbd30c829	-0.043159638
186	0xbd439b13	-0.047755312
187	0x3d099bd7	0.033595886
188	0xbd4667f0	-0.048438966
189	0xbd9bef8c	-0.07614049
190	0x3d35eba4	0.044414178
191	0xbbe0358b	-0.0068423203
192	0xbc5f8195	-0.013641735
193	0x3d4c6704	0.04990293
194	0x3cf7c7a0	0.030246556
195	0x3c27e915	0.010248442
196	0xbd6d14f3	-0.057881307
197	0x3caf0f36	0.021369558
198	0xbcc6553a	-0.024210561
199	0xbbe729b7	-0.0070545333
200	0xbd87df40	-0.066343784
201	0xbcecbb99	-0.028898047
202	0x3d0833cf	0.033252534
203	0x3d04792d	0.032342125
204	0xbce29692	-0.027659688
205	0xbd05add1	-0.032636467
206	0xbd0b597b	-0.034020882
207	0xbd70da0e	-0.058801703
208	0x3c6bc2d9	0.014389717
209	0x3cdd90d2	0.027046595
210	0xbd9dd3b6	-0.07706396
211	0xbd29048d	-0.041264106
212	0x3d6a2377	0.05716273
213	0x3cd4c905	0.02597476
214	0x3c17eaab	0.009272258
215	0x3c1e03ac	0.00964443
216	0xbd2ba93c	-0.04190944
217	0xbd1df335	-0.03856202
218	0x3ceaba07	0.028653158
219	0xbd2e9c72	-0.042629667
220	0x3add14bb	0.001686714
221	0x3d5273e2	0.051380046
222	0x3ca0bde8	0.019621804
223	0xbd545a44	-0.051843897
224	0x3d244218	0.040102094
225	0x3cbb8749	0.022891657
226	0x3b2ebe60	0.0026663765
227	0x3ccdc086	0.025116216
228	0xbd3fcee7	-0.046828177
229	0x39207122	0.00015300934
230	0xbcd1b118	-0.02559714
231	0xbd56406b	-0.052307528
232	0xbb7de97b	-0.0038743902
233	0xbd0a51ae	-0.033769302
234	0x3c19baa9	0.009382882
235	0xbd81f8a6	-0.06346254
236	0x3bbcd618	0.0057628267
237	0x3cddffb4	0.027099468
238	0x3d2744e5	0.040837187
239	0x3c69abb2	0.014262127
240	0xbc94ae0f	-0.018149404
241	0xbd3506ae	-0.044195823
242	0xbcc4bc39	-0.024015533
243	0x3d266fe3	0.040634047
244	0xbd98eaf4	-0.07466689
245	0xbb46157b	-0.0030225206
246	0xbd3cbeb0	-0.04608029
247	0xbce2cac2	-0.027684573
248	0x3c80c1db	0.015717437
249	0x3b8281c1	0.003982753
250	0x3b8121c9	0.003940795
251	0x3d54d065	0.051956553
252	0xbcb80286	-0.02246214
253	0x3d3429c9	0.043985162
254	0xbd1d5407	-0.038410213
255	0xbd109491	-0.035297934

hidden_layers.2.linear.weight f4 [256, 256]
0	0xbca58e79	-0.020209538
1	0xbe097766	-0.13424453
2	0x3d2e01d7	0.042482223
3	0xbe0b06a2	-0.13576749
4	0xbe429b7e	-0.19004628
5	0x3e641c39	0.22276391
6	0xbca541fe	-0.02017307
7	0x3cb7a4a9	0.022417383
8	0xbde1415e	-0.10998796
9	0xbccb053b	-0.024782768
10	0xbe1d2500	-0.15346146
11	0xbd256e80	-0.040388584
12	0x3d0039de	0.031305186
13	0xbd23735b	-0.039904933
14	0x3c60cad9	0.013720238
15	0xbd9f2c20	-0.07772088
16	0x3e1c503e	0.15264985
17	0xbdb88489	-0.09009654
18	0xbdfab725	-0.12241963
19	0xbd99a093	-0.0750133
20	0x3db341e5	0.08752803
21	0xbb5e841b	-0.0033953253
22	0xbd323c78	-0.0435147
23	0xbd7a0b3c	-0.06104587
24	0x3d9b1abb	0.07573458
25	0x3e62d7f4	0.22152692
26	0x3c7320ae	0.014839334
27	0xbd7d5514	-0.061848715
28	0xbd97e6c1	-0.0741706
29	0x3d0d51bf	0.034501787
30	0xbdad6286	-0.084660575
31	0x3d2f6b4b	0.042826932
32	0x3e0c2f55	0.1368993
33	0xbcd67ebf	-0.026183484
34	0xbe456d57	-0.19279991
35	0x3d05589d	0.03255521
36	0xbceb29b1	-0.028706403
37	0x3d4364fb	0.047703724
38	0x3d6968dc	0.056984767
39	0x3da9cc8b	0.082909666
40	0x3d956442	0.07294513
41	0x3d0ddf70	0.034636915
42	0x3dbda4f2	0.092599764
43	0xbd23cd0e	-0.039990477
44	0xbdf0cbfb	-0.11757656
45	0xbe0db7a4	-0.13839585
46	0x3da7bb38	0.08190006
47	0x3bc69627	0.00606038
48	0xbe29b2d6	-0.16572127
49	0xbc2be4ba	-0.010491544
50	0xbcddbb12	-0.027066741
51	0xbd3a6dac	-0.045514748
52	0x3bb96377	0.005657609
53	0xbd2026c3	-0.039099466
54	0x3c683f37	0.014175228
55	0x3db9d22b	0.090732895
56	0xbc0e6706	-0.008691555
57	0x3dac87e0	0.084243536
58	0xbb9c3942	-0.004767568
59	0x3d13b52c	0.03606145
60	0x3cb38275	0.021912793
61	0xbd58a35e	-0.052890174
62	0x3dbd71e3	0.09250238
63	0x3e0a3125	0.1349531
64	0x3d70102d	0.058609176
65	0xbd57ee8e	-0.052717738
66	0x3dbfe9eb	0.09370788
67	0x3d369459	0.04457507
68	0xbdf3030f	-0.11865818
69	0x3c9ff7fc	0.019527428
70	0x3c4cdf30	0.012504384
71	0x3cd6a20d	0.026200319
72	0xbc93c941	-0.018040301
73	0x3dde177a	0.108443215
74	0xbd371ad8	-0.044703335
75	0xbdc076b2	-0.09397639
76	0x3d4d9c81	0.050198082
77	0x3c1895f2	0.0093130935
78	0x3d836145	0.06415037
79	0x3d7569df	0.05991542
80	0xbd8d5649	-0.06901223
81	0x3d6b32e9	0.0574216
82	0xbd69a410	-0.057041228
83	0x3dca64b3	0.09882488
84	0x3d08986a	0.03334848
85	0x3e053a99	0.13010634
86	0xbd4a2ba9	-0.049358044
87	0x3e2759f1	0.16342904
88	0x3e84f388	0.2596705
89	0xbd9f3029	-0.07772858
90	0xbd8acae5	-0.0677698
91	0xbd74edfa	-0.059797265
92	0xbe26e269	-0.16297306
93	0xbd7831a7	-0.060594227
94	0xbd920180	-0.07129192
95	0xbcd037cc	-0.025417231
96	0x3de85aae	0.11345421
97	0xbd93278c	-0.07185277
98	0x3de19738	0.11015171
99	0x3dbfe565	0.093699254
100	0xbe6bd2f6	-0.23029694
101	0xbddad6df	-0.10685515
102	0xbd61fb06	-0.055171035
103	0x3e2fac00	0.17155457
104	0xbd150751	-0.03638393
105	0xbc22c40a	-0.009934435
106	0xbba7c56e	-0.005119971
107	0x3cacc56f	0.021090237
108	0xbe4de4ab	-0.20106761
109	0x3d00d67b	0.031454545
110	0xbd17a944	-0.03702666
111	0x3d74d5e0	0.05977428
112	0x3e1425de	0.1446757
113	0x3ad39ef4	0.0016145394
114	0x3c067a4f	0.008207872
115	0xbc227b0c	-0.009917032
116	0x3cd9858c	0.026552938
117	0xbd7306c7	-0.059332635
118	0x3d2c054c	0.04199724
119	0xbd1c388c	-0.038139865
120	0x3db05cae	0.08611427
121	0xbe0dae4d	-0.13836022
122	0x3dc0e459	0.09418554
123	0xbd2c1185	-0.042008895
124	0xbb555a78	-0.0032555144
125	0xbcb65586	-0.022257578
126	0x3db4779a	0.08811875
127	0x3c959205	0.018258104
128	0xbda86664	-0.082226545
129	0x3cba7bf2	0.02276418
130	0xbdc9037c	-0.09815118
131	0x3ddbb90d	0.10728655
132	0xbaa32d7b	-0.0012449467
133	0xbe0166df	-0.12636898
134	0x3d40ee63	0.047102343
135	0xbdc3bf80	-0.0955801
136	0x3e1c33de	0.15254161
137	0xbe47d852	-0.19516113
138	0xbd9c5bc6	-0.07634692
139	0x3c97748e	0.018488195
140	0x3c7cd16a	0.015430788
141	0xbdc09fcf	-0.09405481
142	0x3cc442da	0.023957659
143	0xbd1d85c6	-0.038457654
144	0x3df35972	0.11882295
145	0x3b453757	0.00300928
146	0xbd4ea2f1	-0.05044836
147	0xbd15cd5a	-0.03657279
148	0xbd9d2e78	-0.07674879
149	0xbe02b4d5	-0.12764294
150	0xbd2c9be2	-0.04214085
151	0xbd1a0f80	-0.03761244
152	0xbd575527	-0.052571442
153	0x3cf082fc	0.029359333
154	0xbd805de4	-0.06267908
155	0xbc7f66c0	-0.015588462
156	0xbd8ffdad	-0.07030807
157	0xbdfed174	-0.12442294
158	0xbba57ac0	-0.0050500333
159	0xbd4e90c3	-0.050431024
160	0xbbcebada	-0.0063088955
161	0x3d822baf	0.06355988
162	0x3e1a0bd9	0.15043582
163	0xbc4e0cab	-0.0125762625
164	0x3dfb18e3	0.12260606
165	0x3d1e3a24	0.038629666
166	0x3d4a73a3	0.049426686
167	0xbd4970a3	-0.049179684
168	0x3e27c1b1	0.16382481
169	0x3e287e56	0.16454443
170	0xbb967273	-0.00459128
171	0x3e5ea822	0.21743825
172	0xbd928ab3	-0.07155361
173	0x3db0468c	0.08607206
174	0x3d31c012	0.043396063
175	0xbca6bf7a	-0.020354975
176	0x3e2e7dfe	0.1704025
177	0xbe12ba49	-0.14328875
178	0xbd3d101d	-0.046157945
179	0x3d8161cb	0.06317481
180	0x3cb65d4a	0.02226128
181	0xbda7d187	-0.08194261
182	0xbd329525	-0.043599267
183	0x3dcc72e5	0.09982852
184	0x3e505e76	0.20348534
185	0x3d013ff4	0.03155513
186	0xbc4ac43a	-0.012375886
187	0x3e017926	0.1264387
188	0x3d4fb2a6	0.05070748
189	0x3d1a070b	0.037604373
190	0x3e2c6c76	0.1683825
191	0x3d9e30fd	0.077241875
192	0xbcabc1b0	-0.02096638
193	0x3d806960	0.06270099
194	0xbcfbd8db	-0.030743053
195	0xbd64ce32	-0.055860706
196	0xbce536e5	-0.027980277
197	0x3dae3922	0.08506991
198	0x3cc4a21b	0.02400308
199	0xbd9be91f	-0.07612824
200	0x3da737f5	0.0816497
201	0x3d3cdbc4	0.046108022
202	0x3bc241f3	0.005928272
203	0x3e2838ec	0.16427964
204	0x3b9dd71c	0.004816903
205	0xbe613312	-0.21992138
206	0xbba8d05c	-0.0051517915
207	0xbf0b537d	-0.5442427
208	0x3e453845	0.19259746
209	0xbcdc672a	-0.026904661
210	0xbc865d67	-0.01640196
211	0x3e156670	0.14589858
212	0xbe4c6d3b	-0.19963543
213	0x3e0d137e	0.13776967
214	0x3dfe2250	0.12408888
215	0xbc0ca010	-0.008583084
216	0x3dcfb875	0.10142604
217	0x3c4e71cc	0.0126003735
218	0x3dd33443	0.103127025
219	0xbd99c318	-0.07507914
220	0x3d9f7705	0.07786373
221	0x3ca0fcc2	0.019651774
222	0xbdc26bb0	-0.09493196
223	0x3d261174	0.04054399
224	0x3ccc03a5	0.024904082
225	0x3b6719e6	0.003526324
226	0x3c5fc6d9	0.013658249
227	0x3d76bef1	0.06024069
228	0x3dc67b78	0.096915185
229	0xbde24a35	-0.1104931
230	0xbd868763	-0.06568792
231	0xbdd8303e	-0.105560765
232	0xbc916a4f	-0.017750887
233	0xbc29e118	-0.010368608
234	0x3d8a319d	0.06747744
235	0xbc8a24ca	-0.016863246
236	0x3c59da5b	0.013296689
237	0xbbc2adba	-0.00594112
238	0xbd864c0d	-0.06557474
239	0x3de9a8cb	0.11409148
240	0x3c9108c7	0.01770438
241	0xbe1b1edd	-0.15148492
242	0x3d758f4e	0.05995112
243	0xbdec4e93	-0.11538424
244	0x3c06a003	0.008216861
245	0x3dd982b0	0.1062063
246	0xbe20af2e	-0.15691826
247	0xbd5e3319	-0.05424795
248	0x3e3577de	0.17721507
249	0xbe249be5	-0.16075094
250	0xbc69e746	-0.014276331
251	0x3ce59e5d	0.028029615
252	0x3e128968	0.14310229
253	0xbca28ffd	-0.01984405
254	0x3d41d274	0.047319844
255	0xbaf23333	-0.0018478393
